model-doom.pth (torch, 75717 bytes, 27 tensors)

weight f4 [8, 1, 3, 3]
0	0xbd911265	-0.070835866
1	0xbef9e2eb	-0.48805937
2	0xbe4465ff	-0.19179533
3	0x3f21a846	0.6314739
4	0x3e5b6c61	0.21428062
5	0xbf3b9b29	-0.7328363
6	0xbea29502	-0.3175431
7	0xbf60406b	-0.87598294
8	0xbb0c305b	-0.0021391127
9	0xbf09591e	-0.5365161
10	0x3e11ea86	0.1424962
11	0x3e0fa20b	0.14026658
12	0xbf8d37ab	-1.1032614
13	0x3b2ccee5	0.0026368436
14	0x3fba9494	1.4576592
15	0xbe94e523	-0.29081067
16	0xbe8bddb5	-0.27317587
17	0x3f77c4eb	0.9678485
18	0x3ee93edb	0.45555767
19	0xbebdf2f9	-0.37099436
20	0xbf10ee6d	-0.5661381
21	0x3fa1524f	1.2603244
22	0x3eb696cc	0.35661924
23	0xbf4e2f3a	-0.8054081
24	0x3f899e46	1.0751426
25	0x3ea286fe	0.31743616
26	0xbf482732	-0.7818481
27	0x3e0716fb	0.1319236
28	0x3fc742e5	1.556729
29	0xbe469141	-0.19391347
30	0xbfa0f2e2	-1.2574122
31	0xbf1938d7	-0.59852356
32	0xbe652e75	-0.22381003
33	0xbf1b705c	-0.6071832
34	0xbd8908e3	-0.06691148
35	0x3eef885c	0.4678372
36	0xbf6a43fb	-0.9150998
37	0x3da4f89d	0.08055232
38	0xbf11378e	-0.56725395
39	0xbd32e709	-0.043677364
40	0x401222a5	2.2833645
41	0xbf57bd6f	-0.8427343
42	0xbcaea573	-0.021319127
43	0x3fada4ed	1.3565956
44	0xbf8e953f	-1.1139296
45	0x3ed795e5	0.42106548
46	0xbfb2e782	-1.39769
47	0x3e5387d1	0.20657279
48	0x3fa27dba	1.2694619
49	0xbf0f8e1a	-0.56076205
50	0x3fb34e4d	1.400827
51	0x3f98cac0	1.1936874
52	0xbfc8903d	-1.5669018
53	0xbfb542eb	-1.4161047
54	0x3f1c2bd9	0.61004406
55	0x3f24d1e4	0.6438277
56	0x3f1aed34	0.60518193
57	0xbf049dd1	-0.5180331
58	0xbd035025	-0.032058854
59	0x3c99438f	0.018708972
60	0x3e821e8c	0.2541393
61	0x3c9eb58f	0.019373683
62	0x3e7b461c	0.24538463
63	0x3e810d31	0.25205377
64	0x3f73605b	0.950689
65	0x3e2d5891	0.16928317
66	0xbe3926a4	-0.18081146
67	0xbf09a84d	-0.5377243
68	0x3ed5d092	0.4176069
69	0xbe39d156	-0.18146262
70	0xbfd5205b	-1.6650499
71	0x3f1690a9	0.58814484

weight f4 [8]
0	0x3fbded55	1.4838053
1	0x3fa28caf	1.2699183
2	0x3fafe020	1.3740273
3	0x3fc6cdf1	1.5531598
4	0x3fbcb7e6	1.4743621
5	0x3fa39ac0	1.2781601
6	0x3fa00dd1	1.2504216
7	0x3faae545	1.3351218

bias f4 [8]
0	0xbd209bd3	-0.039211106
1	0xbea947af	-0.33062503
2	0xbf9c367b	-1.2204126
3	0xbed57fa4	-0.41698945
4	0xbee2eabe	-0.4431972
5	0x3d6d2fc7	0.057906892
6	0xbe9b3798	-0.30315852
7	0xbe5e3e68	-0.21703494

running_mean f4 [8]
0	0xbf12e8f5	-0.57386714
1	0x3e259e62	0.161737
2	0x3e97d8a0	0.2965746
3	0xbe816d37	-0.25278637
4	0x3d935d7c	0.07195565
5	0xbe15406c	-0.14575356
6	0x3f11f34e	0.5701188
7	0xbd8e3c4b	-0.06945094

running_var f4 [8]
0	0x3d0b3956	0.033990227
1	0x3cfc0571	0.030764313
2	0x3d3098f9	0.043114636
3	0x3d04c0ce	0.032410435
4	0x3cf697ea	0.030101735
5	0x3cf94638	0.03042899
6	0x3d1a4815	0.0376664
7	0x3cdb1f67	0.026748372

weight f4 [8, 8, 3, 3]
0	0xbe8240d1	-0.25440076
1	0xbd9a20de	-0.075258
2	0xbe183324	-0.14863259
3	0xbd9f536c	-0.07779583
4	0xbedd3176	-0.43201798
5	0xbe8ea1ec	-0.27857912
6	0xbd221cfb	-0.03957842
7	0xbeac0fc3	-0.33605775
8	0xbd25bddf	-0.04046428
9	0xbe965437	-0.29361126
10	0xbeaaae13	-0.33335933
11	0xbe921c95	-0.2853743
12	0x3d33d977	0.043908563
13	0x3ed8f283	0.42372522
14	0xbeecb5fc	-0.46232593
15	0x3f22635f	0.6343288
16	0xbe2e2962	-0.17007974
17	0xbf1a8e5d	-0.6037348
18	0xbeb2d111	-0.3492513
19	0xbe8c16f0	-0.2736125
20	0xbed6da36	-0.41963357
21	0x3e4cd887	0.20004474
22	0x3f032737	0.5123171
23	0x3e1446d2	0.14480141
24	0xbeee437c	-0.46535861
25	0x3f15d501	0.58528143
26	0x3e90c5b1	0.28275827
27	0xbf0e6a83	-0.55631274
28	0xbe932908	-0.28742242
29	0xbcb46954	-0.02202288
30	0xbee51656	-0.44743603
31	0xbd85c247	-0.06531196
32	0x3e9d56f0	0.3073039
33	0x3dd9f262	0.10641934
34	0xbe5a330f	-0.2130854
35	0xbe47e64f	-0.1952145
36	0xbeab1ff8	-0.33422828
37	0xbee0a5ce	-0.438765
38	0xbcc62a4e	-0.024190094
39	0xbde65d1e	-0.112482294
40	0x3edeca2a	0.43513614
41	0x3f7735f9	0.9656673
42	0xbf160a16	-0.5860914
43	0x3ef8409e	0.484868
44	0xbf8e4abe	-1.111656
45	0x3e555f0e	0.20837042
46	0x3d792dca	0.060834683
47	0xbf87d698	-1.0612364
48	0xbd4328f0	-0.047646463
49	0x3e7bdd94	0.24596244
50	0xbf4227e4	-0.7584212
51	0xbe28a6e6	-0.16469917
52	0x3cfa78fd	0.03057527
53	0x3ea74234	0.32667696
54	0xbe22b10c	-0.1588785
55	0xbe205ba9	-0.15659966
56	0xbe957214	-0.29188597
57	0x3d802b6e	0.062582836
58	0xbe4790dd	-0.19488855
59	0xbe9d97fd	-0.3078002
60	0x3e5934bf	0.21211527
61	0xbe88cdfd	-0.26719657
62	0xbf29bc9d	-0.66303426
63	0xbe9dd235	-0.30824438
64	0xbe85c474	-0.26126444
65	0xbe3c0d80	-0.18364525
66	0xbd6b9a2d	-0.05752008
67	0xbece742a	-0.40323
68	0xbe91cd9d	-0.28477183
69	0xbccaa6ff	-0.024737833
70	0xbf0f24a6	-0.55915296
71	0x3df6ed9a	0.12057038
72	0x3e307052	0.17230347
73	0x3eac8502	0.33695227
74	0xbeab3f21	-0.334466
75	0x3d36700c	0.04454045
76	0x3ebadf4d	0.3649849
77	0x3ea15f38	0.3151796
78	0x3de76691	0.1129886
79	0x3e4fba19	0.20285834
80	0xbe4ccd9f	-0.20000313
81	0x3eb1edff	0.3475189
82	0xbd76bfaf	-0.060241397
83	0x3d30f3d2	0.043201275
84	0xbedd9028	-0.43274045
85	0x3e9ab15e	0.30213445
86	0xbf129cd2	-0.5727054
87	0x3e2721e0	0.16321516
88	0xbf4b64c2	-0.7945062
89	0xbdadadc8	-0.08480412
90	0x3e87866a	0.26469737
91	0x3ebbeb90	0.36703157
92	0x3e640eba	0.22271243
93	0xbee13017	-0.43982002
94	0xbd80e5b4	-0.062938124
95	0x3e6285bd	0.2212133
96	0xbe173444	-0.14766032
97	0xbe949631	-0.29020837
98	0x3edaba3e	0.42720217
99	0xbe026c1b	-0.12736551
100	0x3e3226a2	0.1739755
101	0x3d90a529	0.07062752
102	0x3ecda119	0.4016197
103	0xbe0a9dc0	-0.1353674
104	0xbf15b50d	-0.58479387
105	0x3ec5bf27	0.386224
106	0xbf0cab6b	-0.54949063
107	0xbe349acc	-0.17637175
108	0x3e9a9386	0.30190676
109	0x3f50a0de	0.81495464
110	0xbf1fa56e	-0.623618
111	0x3e64402c	0.22290105
112	0x3ebfa665	0.37431636
113	0xbe8535d1	-0.2601762
114	0xbf14bf4e	-0.5810441
115	0x3e2645ae	0.16237518
116	0x3dea1fb7	0.114318304
117	0xbda2e1f3	-0.07953253
118	0xbec9bc55	-0.39401498
119	0x3f124cd9	0.5714851
120	0x3e0c3745	0.13692959
121	0xbe83e935	-0.2576386
122	0x3e60b79f	0.21945046
123	0xbed677b8	-0.41888213
124	0x3cdb1aec	0.026746236
125	0x3da45255	0.08023516
126	0xbebfa424	-0.37429917
127	0xbd517b02	-0.0511427
128	0xbeb52419	-0.35379103
129	0xbd38571b	-0.045004945
130	0x3e55c219	0.20874824
131	0xbf252cc4	-0.6452143
132	0xbda76e5c	-0.08175346
133	0x3e79f3f9	0.24409474
134	0xbee79447	-0.45230314
135	0xbc8b8e5d	-0.017035658
136	0x3ec0f0f5	0.37683836
137	0x3e03b332	0.12861326
138	0x3e659fc3	0.22424226
139	0xbe8b833d	-0.27248564
140	0xbf25e188	-0.6479726
141	0x3f1490bd	0.58033353
142	0xbe864083	-0.26221094
143	0xbd3b8bf7	-0.045787778
144	0xbe8f52dc	-0.27992904
145	0xbc5c8b51	-0.01346095
146	0x3e8016f3	0.2501751
147	0x3e9057ab	0.28191885
148	0x3ef4e4ec	0.47830904
149	0x3ee13a26	0.43989676
150	0x3e8d9c0b	0.27658114
151	0x3ed55523	0.41666517
152	0xbe4d073c	-0.20022291
153	0xbf2d6e8e	-0.6774682
154	0x3d931b79	0.07182974
155	0x3c4978cd	0.012296868
156	0xbeeb25bf	-0.45927235
157	0x3ec03409	0.375397
158	0x3f32369f	0.69614595
159	0x3e52738d	0.20551892
160	0xbf1869e0	-0.5953655
161	0x3d9c5756	0.076338455
162	0xbe253f48	-0.16137421
163	0xbe245dca	-0.16051403
164	0xbf12a812	-0.57287705
165	0xbe71cc0e	-0.23612997
166	0xbeb624fc	-0.35575092
167	0x3efd33f9	0.49453714
168	0xbe9043f5	-0.28176847
169	0x3da18420	0.07886529
170	0xbedf83cb	-0.43655238
171	0xbd0b45dc	-0.03400217
172	0x3de4d5d0	0.11173594
173	0xbc9c8af4	-0.019109227
174	0xbe8adcb7	-0.27121517
175	0x3f1f3b99	0.62200314
176	0x3e4f73df	0.20259045
177	0xbe89a519	-0.26883772
178	0xbedcb265	-0.43104854
179	0x3cf58b8e	0.029973771
180	0xbde76956	-0.11299388
181	0xbbe0c6c4	-0.006859632
182	0x3e98a12e	0.2981047
183	0x3e92a21c	0.28639305
184	0xbeceaeb4	-0.40367663
185	0xbe767f90	-0.24072099
186	0x3f2a6687	0.66562694
187	0xbdc0e721	-0.09419084
188	0xbd581518	-0.05275449
189	0xbf00f899	-0.5037933
190	0x3efac4db	0.48978314
191	0xbf907ea3	-1.1288646
192	0x3f1a962d	0.603854
193	0xbdca036e	-0.098639354
194	0xbeecb474	-0.46231425
195	0xbf1f59b9	-0.6224628
196	0x3e5bfe3b	0.214837
197	0x3e936173	0.28785285
198	0xbdddb000	-0.10824585
199	0xbe4745fd	-0.19460292
200	0xbe7fadc3	-0.24968629
201	0xbe9917c5	-0.29900947
202	0xbed7514f	-0.4205422
203	0x3e0883fe	0.13331601
204	0xbee670b1	-0.45007852
205	0xbe58b4d2	-0.21162727
206	0xbef9f9a1	-0.48823264
207	0xbe69d2ba	-0.22834292
208	0xbe6ed3c0	-0.23322964
209	0xbe284571	-0.1643274
210	0xbf104d19	-0.5636764
211	0x3eda6099	0.42651823
212	0x3e9e4e28	0.30919003
213	0xbd9c7822	-0.07640101
214	0x3d23249c	0.039829835
215	0xbd3f8d72	-0.046765752
216	0xbe1d61ff	-0.15369414
217	0xbd341dee	-0.043973856
218	0x3ec4c584	0.38431942
219	0xbe295ba3	-0.16538863
220	0x3deb74e9	0.11496908
221	0x3e352d0a	0.17692962
222	0xbd98887e	-0.07447909
223	0xbf33409e	-0.70020473
224	0xbe3e0c95	-0.18559487
225	0xbef3d1fa	-0.47621137
226	0x3e7b0551	0.24513747
227	0xbe46d2d2	-0.19416359
228	0x3ea38a56	0.3194148
229	0x3e4459dc	0.19174904
230	0xbbd2225c	-0.0064127874
231	0x3e0e07d0	0.13870168
232	0xbecff065	-0.40613094
233	0x3e107755	0.14108022
234	0xbe4350e2	-0.19073823
235	0xbed26817	-0.4109504
236	0x3e9ce356	0.30642194
237	0xbd0af483	-0.03392459
238	0xbef1c17e	-0.47217935
239	0x3f09df21	0.5385609
240	0xbec15884	-0.37762845
241	0xbe1ba4a1	-0.1519952
242	0xbdc38541	-0.095469005
243	0xbe4bbf38	-0.19897163
244	0xbe2b224d	-0.16712303
245	0xbe549d5d	-0.20763154
246	0xbeb70336	-0.35744637
247	0xbed20262	-0.41017443
248	0x3e6e7239	0.2328576
249	0xbe7b0c16	-0.24516329
250	0xbe9a0fe6	-0.30090255
251	0xbe49942e	-0.19685432
252	0x3d916fc1	0.071013935
253	0x3e10a51b	0.14125483
254	0x3f0ecd99	0.5578247
255	0xbecc5d5a	-0.39914972

weight f4 [8]
0	0x3fe674ac	1.8004355
1	0x3f9c0d76	1.2191608
2	0x3fae3779	1.3610679
3	0x3fb31588	1.3990946
4	0x3f928d52	1.1449378
5	0x3fabe174	1.3428178
6	0x3fbde537	1.4835576
7	0x3fa0e1f6	1.2568958

bias f4 [8]
0	0xbf166274	-0.5874398
1	0xbe8ab442	-0.2709065
2	0x3ec15340	0.37758827
3	0xbeb29293	-0.34877452
4	0xbeb4d9c9	-0.35322407
5	0x3e883cc5	0.26608863
6	0xbf4a2518	-0.7896285
7	0x3e000d22	0.1250501

running_mean f4 [8]
0	0xc08938e6	-4.2881956
1	0xbf349f7c	-0.70555854
2	0xbf77f131	-0.96852404
3	0xc0061ccb	-2.0955074
4	0x3f501bc2	0.81292355
5	0xc01b9576	-2.4309974
6	0xbf242674	-0.64121175
7	0x3eea11c5	0.45716682

running_var f4 [8]
0	0x41091407	8.5673895
1	0x40e78130	7.23452
2	0x4114d440	9.301819
3	0x4107938b	8.473521
4	0x41488b9d	12.534085
5	0x41485596	12.520895
6	0x40aca964	5.3956776
7	0x410dc4e8	8.860573

weight f4 [8, 8, 3, 3]
0	0x3f18394f	0.59462446
1	0xbe9bd6fc	-0.30437458
2	0x3efa5c09	0.48898342
3	0xbd54d8fc	-0.051964745
4	0xbec9e456	-0.3943202
5	0x3e577ced	0.21043749
6	0x3e9ec461	0.310092
7	0x3e442e25	0.19158228
8	0xbe540d9d	-0.20708318
9	0xbe8c1348	-0.2735846
10	0xbf22df49	-0.63621956
11	0x3e1d98f6	0.15390381
12	0x3f46c67f	0.7764663
13	0xbed4f67c	-0.41594303
14	0x3d788e50	0.060682595
15	0x3de58fde	0.11209081
16	0x3ea8e4b2	0.3298698
17	0xbea45336	-0.32094735
18	0x3e81feeb	0.253898
19	0xbec4fa60	-0.3847227
20	0xbf2c71c7	-0.6736111
21	0x3e13fe82	0.14452556
22	0x3e46e1a7	0.19422017
23	0xbe8193a1	-0.25307944
24	0xbee34a43	-0.44392595
25	0xbe0925bc	-0.13393301
26	0xbe6ecd3d	-0.2332048
27	0xbecc10c9	-0.39856556
28	0xbf075d07	-0.52876323
29	0x3d153d8e	0.036435656
30	0xbeb6f4fe	-0.3573379
31	0x3e8fc823	0.2808238
32	0xbeec24d2	-0.46121842
33	0x3e013889	0.12619223
34	0xbf656807	-0.8961186
35	0xbee2791c	-0.44233024
36	0x3ed945d0	0.42436075
37	0x3edeebd0	0.43539286
38	0xbf3df884	-0.7420733
39	0x3d5023b9	0.050815318
40	0x3e117add	0.14207025
41	0xbeae67c1	-0.34063533
42	0xbeadcdc3	-0.33946046
43	0xbe794572	-0.24342898
44	0xbe80ba27	-0.25142023
45	0xbecb2897	-0.39679405
46	0xbe611368	-0.21980059
47	0x3f0b4e68	0.54416513
48	0xbd8afd81	-0.06786633
49	0x3f39b203	0.7253725
50	0x3ce5fde4	0.028075166
51	0xbe6a3153	-0.22870378
52	0x3e04f073	0.12982349
53	0xbf27715f	-0.65407366
54	0x3eb11ecd	0.34593812
55	0x3ea93cf0	0.33054304
56	0xbf505095	-0.8137296
57	0x3ea2bb65	0.31783596
58	0xbe82068d	-0.25395623
59	0x3e1a691c	0.15079159
60	0xbe4f2517	-0.20228992
61	0x3f0e48c0	0.5557976
62	0x3e876710	0.26445818
63	0x3ea83ac9	0.3285735
64	0xbec663f6	-0.3874814
65	0x3ea434c3	0.32071504
66	0x3e947615	0.2899634
67	0x3eb0acaf	0.34506747
68	0xbeabbc56	-0.33542126
69	0x3d4e1448	0.05031231
70	0x3c6f517b	0.014606829
71	0xbe006db5	-0.1254185
72	0xbedcbfa3	-0.43114957
73	0x3e0a3baa	0.13499323
74	0x3f0e2d0c	0.55537486
75	0x3c99d01d	0.018775994
76	0xbe1ab792	-0.15109089
77	0x3eff81b2	0.49903637
78	0x3e7c19ca	0.24619213
79	0x3df50e53	0.11965623
80	0xbd51d519	-0.051228616
81	0xbf1fb4a0	-0.62384987
82	0x3d81c980	0.06337261
83	0xbf27c558	-0.655355
84	0xbf027586	-0.50960577
85	0xbe7ce52f	-0.24696802
86	0x3ee14c05	0.4400331
87	0xbe90ee36	-0.2830674
88	0x3d2e91ad	0.042619396
89	0x3ec47488	0.38370156
90	0xbe03e08f	-0.12878631
91	0xbe6afe0f	-0.22948478
92	0x3f185f66	0.59520566
93	0xbe93677f	-0.287899
94	0xbe97f7c5	-0.2968122
95	0x3f1446a0	0.57920265
96	0x3e870dfa	0.2637785
97	0xbf0eb8f7	-0.55750984
98	0x3ed20116	0.41016454
99	0xbdeb973b	-0.11503454
100	0x3e1f2eb9	0.15545167
101	0x3df10a49	0.1176954
102	0xbe4618bd	-0.19345374
103	0xbead67ea	-0.33868343
104	0xbed2c88b	-0.41168627
105	0x3d8e70fa	0.06955142
106	0x3c84e6d5	0.01622335
107	0x3e1f73c7	0.1557151
108	0x3f06c11b	0.52638406
109	0x3e86823c	0.26271236
110	0xbe2d4a2c	-0.16922826
111	0x3ca00395	0.019532958
112	0xbef30904	-0.47467816
113	0xbea385bb	-0.31937966
114	0xbe31f780	-0.1737957
115	0xbf3a1731	-0.7269164
116	0x3db55572	0.08854188
117	0xbe416506	-0.18886194
118	0x3eff261f	0.49833772
119	0x3dc533bc	0.09629008
120	0x3ee00ecb	0.43761286
121	0x3ded7cf2	0.11596097
122	0x3e84d24e	0.259417
123	0x3f3abc35	0.7294343
124	0x3e29f6f5	0.16598113
125	0x3eec7816	0.46185368
126	0xbf0ddeb7	-0.5541796
127	0x3ed3b51b	0.4134911
128	0x3db78073	0.089600466
129	0xbe72da8e	-0.23716184
130	0xbdc4d874	-0.09611598
131	0xbebe20ea	-0.37134486
132	0x3e007877	0.12545954
133	0xbf025a48	-0.5091901
134	0xbd40536d	-0.04695456
135	0x3e58b633	0.21163253
136	0x3ecc9510	0.39957476
137	0xbf4afd5b	-0.7929284
138	0xbe3a5110	-0.18194985
139	0x3ea67aef	0.32515666
140	0x3d2df7da	0.042472698
141	0x3eeb2f18	0.45934367
142	0xbec8ae11	-0.39195302
143	0xbdb51403	-0.088417076
144	0x3f0f2b9f	0.55925936
145	0x3d5a1d49	0.053250585
146	0xbe3f84d7	-0.18703018
147	0xbf13ce5e	-0.57736766
148	0xbdff2d87	-0.124598555
149	0x3ecb1ee6	0.3967201
150	0x3dc4c40d	0.09607706
151	0x3d946bc5	0.07247118
152	0x3cce8d13	0.025213754
153	0x3c14f05b	0.009090508
154	0xbc9080f6	-0.017639618
155	0x3c182971	0.009287224
156	0xbea32177	-0.3186147
157	0x3d8452b7	0.06461089
158	0xbe156ca9	-0.14592232
159	0xbeaace87	-0.33360693
160	0x3e30ecf9	0.17277898
161	0xbf15704a	-0.58374465
162	0xbf2e7f24	-0.6816275
163	0x3e9718f9	0.2951124
164	0x3ebb915b	0.36634335
165	0xbf296e2a	-0.6618372
166	0xbdf99d59	-0.12188215
167	0xbc3c38f0	-0.011488184
168	0x3d65bce0	0.05608833
169	0x3eb73a06	0.35786456
170	0x3d605311	0.05476672
171	0xbf30bf51	-0.69041926
172	0xbec50c7b	-0.38486084
173	0xbf584bae	-0.8449048
174	0xbdf394ac	-0.11893591
175	0xbe003e60	-0.12523794
176	0xbe103621	-0.14083149
177	0x3e2e03e5	0.16993673
178	0xbe630dc2	-0.22173217
179	0xbdc4031b	-0.09570905
180	0xbf0c672f	-0.54844946
181	0xbd29d918	-0.041466802
182	0x3e8eaf43	0.2786809
183	0xbe26634c	-0.16248816
184	0xbeaad688	-0.333668
185	0xbecce973	-0.40021858
186	0xbea76ded	-0.32701054
187	0xbf09dfb2	-0.53856957
188	0xbf41b8d6	-0.7567266
189	0x3f258519	0.64656216
190	0xbdb03cf3	-0.08605375
191	0xbf8354cf	-1.0260257
192	0x3d704e1f	0.058668252
193	0xbf394565	-0.7237151
194	0x3f5ce83f	0.8629188
195	0xbe56325a	-0.20917645
196	0x3f0b0bcd	0.5431488
197	0x3ee29b6c	0.44259202
198	0xbef13d35	-0.4711701
199	0xbe3fda55	-0.18735631
200	0xbf3106a5	-0.69150764
201	0x3ebbaff4	0.3665768
202	0x3eb63d39	0.35593584
203	0xbe2cce4d	-0.16875573
204	0xbea52b64	-0.32259667
205	0x3d41f128	0.047349125
206	0xbca1fe70	-0.019774646
207	0xbf1fa2bc	-0.6235769
208	0x3e99de7a	0.3005255
209	0xbe4d04c1	-0.20021345
210	0xbbf63df5	-0.00751471
211	0xbe5b0dac	-0.21391934
212	0x3d913c95	0.07091633
213	0xbd7c6850	-0.061622918
214	0x3e991414	0.2989813
215	0xbec49702	-0.3839646
216	0xbdb90a97	-0.09035223
217	0xbed9a2c4	-0.42506993
218	0x3d8dd723	0.069258
219	0x3f1f0927	0.6212334
220	0xbe005a4a	-0.12534443
221	0xbe46d1aa	-0.19415918
222	0xbbd1e373	-0.006405288
223	0x3ea7bbfc	0.32760608
224	0x3f0665aa	0.5249888
225	0xbe91b886	-0.28461093
226	0x3cb0809e	0.021545704
227	0x3e879177	0.26478168
228	0x3e94291e	0.2893762
229	0xbe443d9f	-0.19164132
230	0xbe8ecb6c	-0.27889574
231	0xbf309332	-0.689746
232	0xbde43b60	-0.111441374
233	0x3e50c6b5	0.203883
234	0xbaa94702	-0.0012914839
235	0x3e0fbc7e	0.14036748
236	0x3dab053d	0.083506085
237	0xbd01c7c5	-0.031684656
238	0x3ef83682	0.48479086
239	0xbea43223	-0.320695
240	0x3f6e944c	0.93195033
241	0x3ec9c353	0.39406833
242	0x3e4e08e0	0.20120573
243	0xbc854f7a	-0.016273249
244	0xbdb74c1d	-0.08950064
245	0x3efbf6fd	0.49211875
246	0xbea741d8	-0.32667422
247	0xbf2472e1	-0.6423779
248	0x3ea19f2e	0.31566757
249	0xbf80f646	-1.0075157
250	0x3e09a3ba	0.13441363
251	0xbf1bc095	-0.6084073
252	0xbe5ae145	-0.21374996
253	0x3f16e1f7	0.58938545
254	0x3e973cf1	0.29538682
255	0x3e6f1bac	0.233504

weight f4 [8]
0	0x3f879e4e	1.0595186
1	0x3f980398	1.1876097
2	0x3f9e9a1c	1.239078
3	0x3fa2b347	1.2710961
4	0x3fbf2d97	1.4935788
5	0x3fa3f25f	1.2808341
6	0x3fc5aa6c	1.5442634
7	0x3fad3b5c	1.353374

bias f4 [8]
0	0xbf2805c2	-0.65633786
1	0xbeee7c3c	-0.46579158
2	0xbf34207f	-0.70362085
3	0xbed03685	-0.40666595
4	0xbf9764c2	-1.1827624
5	0xbf777c33	-0.9667389
6	0xbf76eefe	-0.96458423
7	0xbf17ca0d	-0.5929268

running_mean f4 [8]
0	0xc00d75f3	-2.210324
1	0x3f832d70	1.0248241
2	0xc04d7b8c	-3.2106657
3	0x402c45a2	2.69175
4	0xc03715f3	-2.8607147
5	0xbe600fff	-0.21881102
6	0xbf25fd13	-0.64839286
7	0xc03bb7b0	-2.9330864

running_var f4 [8]
0	0x40f99064	7.798876
1	0x40b529e7	5.661365
2	0x40ecf024	7.404314
3	0x4116b6be	9.419615
4	0x40c7215f	6.2228236
5	0x40bbbbf6	5.8666945
6	0x410d7ebe	8.843443
7	0x40d719ad	6.7218843

weight f4 [16, 8, 3, 3]
0	0xbe933f9a	-0.28759462
1	0x3ec3a720	0.38213444
2	0xbe88d2d1	-0.2672334
3	0xbe03fbf4	-0.12889081
4	0xbec942cc	-0.39308774
5	0x3f125258	0.57156897
6	0xbe0ceed6	-0.13762984
7	0x3e0dd453	0.13850527
8	0xbe4f0cf5	-0.20219786
9	0xbe73ad59	-0.23796596
10	0x3d4fc286	0.05072262
11	0x3e32f0a5	0.17474611
12	0x3e1411bd	0.14459892
13	0xbeae852f	-0.34085986
14	0x3d2ba4ad	0.041905094
15	0xbccda6a3	-0.025103873
16	0xbde89293	-0.11356082
17	0xbcbdf561	-0.023188295
18	0xbe2d1ffc	-0.16906732
19	0x3f141960	0.5785122
20	0x3e3ea1e5	0.18616445
21	0x3e029566	0.12752303
22	0xbdded3de	-0.10880254
23	0x3e498dde	0.19683024
24	0xbee09525	-0.43863788
25	0xbede3bd7	-0.4340503
26	0x3d36f083	0.044662964
27	0x3e51f2ad	0.2050273
28	0x3f17f731	0.5936156
29	0xbef3ac26	-0.47592276
30	0xbe28b0c4	-0.1647368
31	0x3d9fd4eb	0.07804283
32	0x3e08b694	0.13350898
33	0x3e0c72d4	0.13715678
34	0xbe5aa372	-0.21351412
35	0xbeae948f	-0.34097716
36	0x3e490af7	0.19633089
37	0x3dd177f8	0.1022796
38	0xbe6822f1	-0.22669579
39	0xbf0b3e74	-0.5439217
40	0x3ebb17c3	0.36541566
41	0xbea9e46f	-0.33182094
42	0xbec965cd	-0.3933548
43	0x3eaef392	0.34170204
44	0xbee652c3	-0.44985017
45	0xbe71be59	-0.23607768
46	0xbe3d8924	-0.18509346
47	0xbefdfb7a	-0.49605924
48	0xbf1b84e8	-0.60749674
49	0xbf25bd99	-0.6474243
50	0x3ed57d36	0.4169709
51	0xbe8e97d4	-0.2785021
52	0x3d24841d	0.040165056
53	0xbed5b43c	-0.4173907
54	0xbe6e8475	-0.23292716
55	0xbeb76c82	-0.35824972
56	0xbd93c319	-0.07214946
57	0x3e8e4380	0.27785873
58	0xbebbaa9c	-0.36653602
59	0xbf1b3071	-0.6062079
60	0x3d718b2b	0.05897061
61	0xbe037fe7	-0.1284176
62	0x3dcbe20b	0.09955224
63	0xbe255f79	-0.16149701
64	0xbdf8e108	-0.12152296
65	0x3e549432	0.20759657
66	0x3e0923b3	0.13392524
67	0x3ded3afc	0.11583516
68	0xbe03648f	-0.12831329
69	0xbd7809f5	-0.06055637
70	0xbf479a7e	-0.7797011
71	0xbec45050	-0.38342524
72	0xbe962933	-0.29328308
73	0xbe6a2521	-0.22865726
74	0xbe520886	-0.20511064
75	0xbea3420d	-0.3188633
76	0xbc464e8d	-0.012103689
77	0xbe93bfd8	-0.28857303
78	0x3de931c6	0.11386447
79	0x3e990adb	0.29891095
80	0x3e8cbaa6	0.2748615
81	0xbdd289d0	-0.10280192
82	0xba11d8a1	-0.0005563591
83	0xbe854840	-0.26031685
84	0xbec90e3c	-0.39268672
85	0xbd996af2	-0.07491101
86	0x3d93f8b3	0.0722517
87	0x3e6822e2	0.22669557
88	0xbe8ed933	-0.27900085
89	0xbdf5665d	-0.11982415
90	0xbdf597a9	-0.119918175
91	0xbe846d82	-0.25864798
92	0xbde2dc1b	-0.11077138
93	0x3dccbb02	0.099966064
94	0xbe8b864c	-0.27250898
95	0xbc505f58	-0.012718044
96	0xbe36f9b2	-0.17868689
97	0xbe313fb4	-0.17309457
98	0xbe97c4ed	-0.2964243
99	0xbedcd711	-0.43132833
100	0xbe0e5c21	-0.13902332
101	0xbbf03674	-0.00733071
102	0x3e556dd6	0.2084268
103	0x3e2fa145	0.17151363
104	0xbee11b7e	-0.43966287
105	0xbea86730	-0.32891226
106	0xbd1411e9	-0.036149893
107	0xbaa8533d	-0.001284219
108	0xbf28d8f4	-0.65956044
109	0xbe6b0573	-0.22951297
110	0x3e6be808	0.23037732
111	0x3d2bd764	0.04195346
112	0x3e5f8339	0.21827401
113	0xbdaadba8	-0.08342677
114	0xbeafb40e	-0.34317058
115	0xbd26fe28	-0.040769726
116	0xbe5059d2	-0.20346764
117	0xbd790940	-0.060799837
118	0x3dfb3de6	0.122676656
119	0xbe3d2e58	-0.1847471
120	0x3db0d50b	0.08634385
121	0x3db97b76	0.090567514
122	0xbe52cfaa	-0.2058703
123	0xbe2aec60	-0.16691732
124	0x3ee764e9	0.45194176
125	0xbd8877f6	-0.06663506
126	0x3e05aa42	0.1305323
127	0x3d79c615	0.06097992
128	0xbe260432	-0.16212538
129	0xbe4b96be	-0.19881722
130	0x3dcc2650	0.09968245
131	0x3d3f0230	0.046632946
132	0xbe7fa249	-0.2496425
133	0x3e983eba	0.29735357
134	0xbe96ee17	-0.29478523
135	0xbe8ddc10	-0.27706957
136	0x3e9c52bb	0.30531868
137	0xbe53f89f	-0.2070031
138	0xbe6118de	-0.21982142
139	0x3eaa5e8f	0.33275267
140	0xbdce1570	-0.10062683
141	0xbe41484b	-0.18875234
142	0xbeac6843	-0.33673295
143	0x3c610cab	0.01373593
144	0xbe44765d	-0.19185777
145	0xbe2530ee	-0.16131946
146	0xbedb3c01	-0.42819217
147	0x3eec07b8	0.4609964
148	0x3c3acb99	0.0114010805
149	0x3ea1b235	0.31581274
150	0xbe6d8dc1	-0.23198606
151	0x3ef8e4ee	0.4861216
152	0x3c216275	0.009850134
153	0xbe5ec3a4	-0.21754318
154	0xbc6035c6	-0.013684696
155	0x3c4ac7d8	0.012376748
156	0xbd8e2af3	-0.06941786
157	0xbef5c6fe	-0.48003381
158	0x3eb0e71d	0.34551325
159	0x3d999630	0.07499349
160	0xbd70285e	-0.058632247
161	0xbdd614e0	-0.104532
162	0xbe332f3b	-0.17498486
163	0x3f02ca9d	0.51090413
164	0x3e4a15d7	0.19734894
165	0xbe626c4f	-0.22111629
166	0xbb9c2888	-0.004765574
167	0x3e41522a	0.18879
168	0xbeb38357	-0.35061142
169	0xbe308211	-0.17237116
170	0xbcd0954e	-0.025461819
171	0xbea4beaf	-0.3217673
172	0x3ee3ff19	0.44530562
173	0xbe98f0e3	-0.29871282
174	0xbed7fa04	-0.42182934
175	0xbe80d7b5	-0.2516457
176	0x3d793a49	0.0608466
177	0x3c8b3d51	0.016997011
178	0x3e905913	0.28192958
179	0xbe4ba555	-0.19887288
180	0x3e1e1333	0.15437011
181	0xbe5c3cfe	-0.21507642
182	0xbde3051e	-0.110849604
183	0xbb8abd59	-0.004233998
184	0x3c014d26	0.007891929
185	0xbeb1cdfb	-0.34727463
186	0x3d80450f	0.06263172
187	0xbe58e234	-0.2118004
188	0xbe508725	-0.20364054
189	0xbde6cd37	-0.112696104
190	0x3dee8429	0.11646301
191	0x3dd26217	0.102726154
192	0x3da46365	0.080267705
193	0xbea910d8	-0.33020663
194	0xbd50e1a9	-0.050996456
195	0x3ed34394	0.41262496
196	0xbcbf8b3f	-0.023381827
197	0xbedb2fd5	-0.4280993
198	0x3e1e52d4	0.15461284
199	0xbe9a7dd7	-0.30174133
200	0x3eb17deb	0.3466638
201	0x3e89e6ab	0.26933798
202	0xbeb94a16	-0.36189336
203	0xbf1b1669	-0.6058107
204	0xbe63afdd	-0.22235055
205	0xbe843f24	-0.25829422
206	0xbf013b7f	-0.5048141
207	0x3e8590c9	0.26087025
208	0x3bb27b8a	0.005446856
209	0x3e2102c0	0.15723705
210	0x3c8cff7e	0.017211672
211	0xbe66d28b	-0.22541253
212	0xbf0968bd	-0.5367544
213	0xbf396bf6	-0.7243036
214	0xbee5ffae	-0.4492163
215	0x3dc905e9	0.098155804
216	0x3d875ecc	0.06609878
217	0xbed5319d	-0.41639414
218	0xbdebbd00	-0.11510658
219	0xbeb8a6f3	-0.36064872
220	0xbaf669e3	-0.0018799867
221	0x3dac5d02	0.08416177
222	0x3d932ca5	0.0718625
223	0xbeed8d86	-0.46397036
224	0xbe0ff888	-0.14059651
225	0x3d87cd39	0.0663094
226	0x3eaab86c	0.33343828
227	0xbf3fc79a	-0.7491394
228	0xbee97972	-0.45600468
229	0x3b8026f0	0.0039108917
230	0x3df4c682	0.11951925
231	0xbde3c61f	-0.11121773
232	0xbe901ef2	-0.2814861
233	0xbea92869	-0.33038643
234	0x3bfd9e26	0.0077398
235	0x3eb0d1fe	0.3453521
236	0x3eb99e57	0.36253616
237	0x3f00ba1c	0.5028398
238	0x3f1ab3e0	0.6043072
239	0x3dbe799a	0.093005374
240	0x3e2e8811	0.17044093
241	0xbe09d946	-0.1346179
242	0xbef07dfb	-0.46971115
243	0xbea02167	-0.31275484
244	0xbd9c44c0	-0.076303005
245	0x3f240631	0.6407195
246	0xbe599195	-0.21246941
247	0x3def6966	0.11690025
248	0x3d685fa3	0.05673183
249	0xbea09436	-0.31363076
250	0xbeb85999	-0.36005858
251	0x3e2546b8	0.16140258
252	0xbec18168	-0.37794042
253	0x3d459b16	0.048243605
254	0x3c8d5321	0.017251553
255	0x3de18da6	0.110133454

weight f4 [16]
0	0x400cedd2	2.2020154
1	0x3fdf85c1	1.7462693
2	0x3fe94692	1.8224661
3	0x3fef049c	1.8673282
4	0x3feede59	1.8661605
5	0x3ff05425	1.8775679
6	0x40124315	2.2853444
7	0x3fd9f7bf	1.7028731
8	0x40376e8c	2.8661222
9	0x4020d4ab	2.5129802
10	0x40192741	2.3930209
11	0x4046e2eb	3.1076
12	0x402d1c69	2.704859
13	0x4027079f	2.6098402
14	0x403ba1e8	2.931757
15	0x400fd7c7	2.247545

bias f4 [16]
0	0xbe2c8256	-0.16846594
1	0x3e1c6a01	0.15274812
2	0xbe57a3da	-0.21058598
3	0xbe3024e0	-0.17201567
4	0x3d0966e2	0.033545382
5	0x3d9576e8	0.0729807
6	0x3e64e780	0.22353935
7	0xbe2e8cc5	-0.17045887
8	0x3ed5aba2	0.41732508
9	0x3d5c838e	0.053836398
10	0x3da4d079	0.080475755
11	0xbd1ef9ed	-0.038812567
12	0x3e3bd541	0.18343069
13	0xbc417eb5	-0.0118099945
14	0x3e706c01	0.234787
15	0x3dee7105	0.116426505

running_mean f4 [16]
0	0xbfe64a61	-1.7991449
1	0xbfae1d2d	-1.3602654
2	0xbfbb144d	-1.461557
3	0xbf8fc186	-1.1230934
4	0xbf84317a	-1.0327599
5	0xbfa6c7c7	-1.3029717
6	0xbfa5756b	-1.2926458
7	0xbf80a83a	-1.0051339
8	0xbe090372	-0.1338022
9	0xbf9f7759	-1.2458297
10	0x3efc9fbc	0.49340618
11	0xbdb5789c	-0.08860895
12	0xbe85b568	-0.26114964
13	0xbf5f019e	-0.8711184
14	0xbeca9b6f	-0.3957171
15	0x3d89e472	0.067330256

running_var f4 [16]
0	0x3f96cb9d	1.1780888
1	0x3f8101b8	1.007865
2	0x3f901994	1.1257806
3	0x3f944c47	1.1585778
4	0x3fe9efd9	1.8276321
5	0x3f7bf270	0.98416805
6	0x3ff865d2	1.9406073
7	0x3f91dc83	1.139542
8	0x3fe4385e	1.7829702
9	0x3f6a3757	0.9149069
10	0x3f15ab99	0.5846496
11	0x3f74baa2	0.9559728
12	0x3f3752ed	0.7161091
13	0x3f91e74a	1.1398709
14	0x3fa3121f	1.2739905
15	0x3eee2e1d	0.46519557

weight f4 [64, 96]
0	0x3cd680b2	0.026184414
1	0x3db515bb	0.088420354
2	0xbcff812b	-0.031189522
3	0x3a676aab	0.00088278454
4	0x3d48039d	0.04883157
5	0x3c7ec3ff	0.015549659
6	0x3c9219c7	0.017834557
7	0x3d2ce9ff	0.042215344
8	0xbd8b5dc7	-0.06804996
9	0x3d2d0fb3	0.0422513
10	0xbd6431e1	-0.05571163
11	0x3cbc97b4	0.023021556
12	0xbc2cdebc	-0.010551151
13	0x3d404066	0.046936415
14	0x3c2c4a4c	0.010515761
15	0x3d997f6b	0.07495006
16	0xbdcbf186	-0.09958176
17	0x3d08e753	0.033423733
18	0xbda6a3c3	-0.08136704
19	0x3beb3522	0.007177965
20	0xbd95c8c8	-0.073136866
21	0xbd98d0aa	-0.074616745
22	0xbd94b834	-0.072616965
23	0xbca58267	-0.020203782
24	0x3da0bb6b	0.07848247
25	0x3c974ca7	0.018469168
26	0xbd0b6dfe	-0.034040444
27	0xbc435716	-0.011922618
28	0x3d96631f	0.073431246
29	0x3da0109e	0.078156695
30	0xbd90daa3	-0.07072952
31	0x3d7535fd	0.05986594
32	0xbd096c0c	-0.033550307
33	0xbda60217	-0.08105867
34	0xbda418e4	-0.0801256
35	0xbd858a0f	-0.06520473
36	0x3cc4d374	0.02402661
37	0xb8f8d293	-0.00011864784
38	0x3b553b28	0.003253648
39	0xbd3f6a1d	-0.046732057
40	0xbdbd446b	-0.09241565
41	0xbd2d5a92	-0.042322703
42	0xbd3b0945	-0.045663137
43	0x3d529811	0.051414553
44	0xbe04f490	-0.12983918
45	0xbdaa71e5	-0.08322505
46	0xbc9d3a59	-0.019192861
47	0xbd7ff21e	-0.06248676
48	0x3d2a17e5	0.041526694
49	0xbc8b1b99	-0.016980933
50	0x3d036833	0.032081794
51	0x3c879b68	0.016553596
52	0xbccac11b	-0.024750283
53	0xbd26a244	-0.040682092
54	0x3d085979	0.033288453
55	0x3dbf12a4	0.09329727
56	0x3d82b7f4	0.063827425
57	0xbdad8e30	-0.08474386
58	0xbdbd1a26	-0.09233503
59	0xbc29b7ba	-0.010358745
60	0xbd87a367	-0.066229634
61	0xbda0d37e	-0.07852839
62	0x3c413b53	0.011793929
63	0x3d2f35e0	0.04277599
64	0x3cf29c98	0.029615685
65	0x3db8e639	0.090282865
66	0xbdbc36be	-0.09190129
67	0x3d810c37	0.06301158
68	0x3da4e781	0.08051968
69	0xbd8022f4	-0.06256667
70	0x3d8ee54b	0.06977328
71	0x3d13130d	0.03590684
72	0x3d87f1ce	0.066379175
73	0x3d0658c1	0.032799486
74	0x3c39f3b4	0.011349607
75	0x3bdddddc	0.0067708325
76	0x3c0b3a27	0.008497751
77	0x3cb1fe35	0.02172766
78	0xbd6a6e6b	-0.05723421
79	0xbd0b5a8b	-0.034021895
80	0x3dbc2d66	0.091883466
81	0xbd90157f	-0.0703535
82	0xbda77e15	-0.08178345
83	0xbdc425f8	-0.095775545
84	0x3d6d5392	0.057941027
85	0x3d25738e	0.040393405
86	0xbce16e03	-0.027518278
87	0xbc889d88	-0.01667668
88	0xbc8568e8	-0.016285375
89	0xbcae094a	-0.021244664
90	0x3d5486b0	0.05188626
91	0x3d8f45a9	0.069957085
92	0x3d4507e4	0.04810323
93	0xbd4c120d	-0.049821902
94	0xbad0fd57	-0.0015944642
95	0xbd25bd4a	-0.040463723
96	0x3dc6cc21	0.09706903
97	0xb98a8eb1	-0.00026427725
98	0x3d6b7479	0.057484124
99	0xbd239737	-0.03993913
100	0x3c3b7cd9	0.01144334
101	0xbbb35ff5	-0.0054740855
102	0xbd0c5765	-0.034263033
103	0xbd852e45	-0.06502966
104	0x3c73b573	0.014874804
105	0xbcf5384c	-0.029934071
106	0x3d918d77	0.071070604
107	0x3d77ec13	0.060527872
108	0x3cd8eaa4	0.026479073
109	0x3dd14c2b	0.10219606
110	0xbce51763	-0.027965253
111	0x3d3ab31b	0.045580965
112	0x3d41948b	0.047260802
113	0xbc87879d	-0.016544158
114	0x3dab192c	0.083544105
115	0x3cac13af	0.02100548
116	0x3dcf4318	0.10120219
117	0xbd861cab	-0.06548437
118	0xbd8b410e	-0.067995176
119	0xbdbf7cc3	-0.09349968
120	0x3dab7393	0.083716534
121	0xbd9dbca1	-0.07701994
122	0xbcba5eb1	-0.02275023
123	0xbd016bd6	-0.03159698
124	0xbb1a7359	-0.0023567288
125	0xbd877513	-0.06614127
126	0xbd3d8523	-0.046269547
127	0xbd93fde3	-0.072261594
128	0x3cda1162	0.026619617
129	0xbcbe7954	-0.023251213
130	0x3cd253f1	0.025674792
131	0x3c8e0100	0.017334461
132	0x3d210860	0.039314628
133	0x3db577b3	0.088607214
134	0x3d593cd3	0.053036522
135	0xbbb2b6ee	-0.005453936
136	0x3cbaea8d	0.02281692
137	0xbcde779e	-0.027156647
138	0x3d3a126c	0.045427725
139	0x3dd3f5f2	0.10349645
140	0x3d613692	0.054983683
141	0x3d6e6655	0.05820306
142	0xbd2d63fa	-0.042331673
143	0x3cedaeb4	0.029013969
144	0xbd871fb7	-0.06597846
145	0x3d3aabf6	0.04557415
146	0xbd8da502	-0.06916238
147	0xbcb427ce	-0.021991637
148	0x3bc13280	0.0058959126
149	0x3dae79b0	0.08519304
150	0x3d7662f3	0.06015296
151	0xbc0a5f2c	-0.008445542
152	0xbcf1ef63	-0.029533094
153	0xbd9da961	-0.07698322
154	0xbc905f48	-0.017623559
155	0xbdaf58b8	-0.08561844
156	0xbc77322d	-0.015087646
157	0xbc665e37	-0.0140605485
158	0xbda3ff07	-0.08007627
159	0xbdc708be	-0.09718464
160	0x3d88a8e6	0.0667284
161	0xbccad158	-0.024758026
162	0x3db2a8ec	0.087236255
163	0x3d4d59e3	0.05013455
164	0xbd9684f9	-0.07349581
165	0xbd8eec13	-0.06978621
166	0x3babddc8	0.0052449442
167	0xbdbf46bb	-0.09339663
168	0xbd933b90	-0.07189095
169	0x3c98a8a9	0.01863511
170	0xbd1624d0	-0.0366562
171	0xbc99d98a	-0.018780489
172	0xbd859cc1	-0.06524039
173	0xbd6ec0ee	-0.05828946
174	0xbdc45919	-0.095873065
175	0x3d44ad87	0.04801705
176	0xbd383299	-0.04497013
177	0x3db22424	0.086982995
178	0x3dc69e74	0.09698191
179	0x3daa68a3	0.08320739
180	0x3d983608	0.07432181
181	0x3cee9bb8	0.029126987
182	0xbd3b6909	-0.045754466
183	0x3dc4e946	0.09614806
184	0x3d88525f	0.06656336
185	0xbd7ddb2c	-0.061976597
186	0xbd7e46b8	-0.06207916
187	0xbd818731	-0.06324614
188	0x3d01f101	0.03172398
189	0x3da5cc41	0.08095599
190	0x3cd358d0	0.025799185
191	0xbcec9e66	-0.028884124
192	0x3d9262ab	0.07147726
193	0x3cb8f8b9	0.022579538
194	0xbc2b5fa6	-0.010459816
195	0x3bbe20c4	0.005802246
196	0xbd16df28	-0.036833912
197	0xbdb614ae	-0.08890663
198	0x3da32618	0.0796625
199	0xbd330391	-0.043704573
200	0xbdc2d1a4	-0.09512642
201	0xbd80649f	-0.06269192
202	0xbd0308b5	-0.031990726
203	0x3db70d34	0.08938065
204	0x3ddb1b15	0.10698525
205	0xbd2b603b	-0.04183982
206	0x3ddb1ffa	0.106994584
207	0x3cdcf6f6	0.026973229
208	0xbdaa355c	-0.08310959
209	0xbdd641fb	-0.104618035
210	0x3d732703	0.059363376
211	0xbda6c38f	-0.081427686
212	0x3cfeedef	0.031119315
213	0xbc16fe33	-0.009215879
214	0xbcf526ff	-0.029925821
215	0xbd407069	-0.046982203
216	0xbca3547f	-0.019937752
217	0x3b3e41d8	0.0029030945
218	0x3d60a258	0.054842323
219	0xbdb20e0e	-0.08694087
220	0x3d30ff9e	0.043212526
221	0x3d3a8ea9	0.045546208
222	0x3d96491d	0.07338164
223	0x3cd33f39	0.025786983
224	0x3bcc6716	0.0062378747
225	0x3d197c11	0.037471835
226	0xbda9b8ae	-0.08287178
227	0x3da9c92e	0.08290325
228	0xbd851d3d	-0.064997174
229	0x3cd1a2c0	0.0255903
230	0xbd218c69	-0.039440546
231	0x3d344a94	0.044016436
232	0xbd9fe001	-0.07806397
233	0xbd559649	-0.052145276
234	0xbcb2901b	-0.02179723
235	0xbc76e40b	-0.015069018
236	0x3d65c473	0.05609555
237	0xbd166f6a	-0.036727346
238	0xbca26b9e	-0.019826706
239	0x3da2d428	0.07950622
240	0xbdce3158	-0.10068005
241	0xbc9f4c7e	-0.019445654
242	0x3da4e981	0.0805235
243	0x3ceceff4	0.028923012
244	0x3befdd09	0.0073200506
245	0xbcc66e99	-0.024222659
246	0xbcff7c94	-0.031187333
247	0xbcf0386c	-0.029323779
248	0x3da9569b	0.08268472
249	0xbce9e459	-0.028551267
250	0xbd8da2db	-0.06915828
251	0x3d30282f	0.043007072
252	0xbdb8e250	-0.09027541
253	0xbd710f05	-0.058852214
254	0xbd9db568	-0.07700616
255	0x3d1c0e50	0.038099587

bias f4 [64]
0	0xbdb1a810	-0.086746335
1	0x3dda62d3	0.106633805
2	0xbd3749b8	-0.044748038
3	0x3e42d14b	0.19025151
4	0xbd8994ca	-0.067178324
5	0x3da54ae5	0.080709256
6	0xbcb67a59	-0.022275137
7	0x3c1f91d3	0.009739357
8	0x3cf09509	0.02936794
9	0x3dd2cced	0.10292993
10	0xbc964cdc	-0.018347196
11	0xbb0097e1	-0.0019621777
12	0x3e4bc193	0.19898061
13	0x3d326030	0.043548763
14	0x3d0358ba	0.032067038
15	0x3e2a2835	0.166169
16	0x3d4e8b6e	0.05042594
17	0x3d632aa8	0.055460602
18	0x3a26805d	0.0006351525
19	0xbd126897	-0.035744276
20	0xbd541e06	-0.051786445
21	0x3dbe5144	0.09292844
22	0x3cee7b70	0.029111594
23	0xbd30b865	-0.043144602
24	0x3d8fea12	0.07027067
25	0x3e3dd810	0.18539453
26	0x3e4822f8	0.1954459
27	0xbd2bd07a	-0.041946866
28	0x3dfcd42c	0.12345156
29	0x3da8832b	0.08228143
30	0x3d8d5aad	0.06902061
31	0xbce2fafc	-0.02770757
32	0x3dc9654f	0.09833776
33	0x3c533905	0.0128920125
34	0x3d47e088	0.048798114
35	0xbd27aa6c	-0.04093401
36	0x3db7d67e	0.08976458
37	0x3e182fd0	0.14861989
38	0xbdb73a4b	-0.089466654
39	0xbd90760e	-0.07053767
40	0xbdbc582f	-0.09196507
41	0xbd0f29d5	-0.034952004
42	0x3ce46c00	0.02788353
43	0xbdc84285	-0.097783126
44	0xbdc2aade	-0.095052466
45	0x3e1c6643	0.15273385
46	0xbc2e6851	-0.010644988
47	0x3b99b963	0.0046912893
48	0xbd346eb5	-0.04405089
49	0x3d14ef33	0.03636093
50	0x3d7cf732	0.06175918
51	0x3b3917f6	0.0028243042
52	0xbd7ae64e	-0.061254792
53	0x3d7acb54	0.061229065
54	0x3ae2051b	0.0017243953
55	0x3cd8bf04	0.02645827
56	0xbdbba269	-0.09161837
57	0x3cf8f09e	0.030388173
58	0x3e0011f8	0.12506855
59	0xbd2d849a	-0.042362787
60	0x3d929dda	0.07159014
61	0xbdb18817	-0.08668535
62	0x3d729440	0.059223413
63	0xbd836892	-0.064164296

weight f4 [1, 64]
0	0xbdf04331	-0.11731566
1	0x3d9e8ead	0.07742057
2	0xbe0355a7	-0.12825643
3	0x3f9b44f1	1.2130414
4	0xbe5838d2	-0.21115425
5	0x3f39cf24	0.72581697
6	0x3f09e3a0	0.53862953
7	0x3e81feec	0.25389802
8	0x3f1ddf6d	0.61669046
9	0x3f386ec4	0.72044015
10	0x3f111d59	0.56685406
11	0xbc369ad4	-0.011145312
12	0xbf85e163	-1.0459408
13	0xbde09b1c	-0.10967085
14	0xbebe0581	-0.37113574
15	0xbf0264f1	-0.50935274
16	0x3d83112e	0.06399761
17	0xbdac7a45	-0.084217586
18	0xbdc3014f	-0.09521734
19	0xbed29ed9	-0.41136816
20	0xbda04af8	-0.07826799
21	0xbf60a42f	-0.87750524
22	0x3fa5d569	1.2955753
23	0x3e830dd9	0.25596502
24	0xbf202299	-0.6255279
25	0xbf4b4a33	-0.79410094
26	0xbf9da36a	-1.2315495
27	0xbd9d0de5	-0.07668666
28	0xbf28dc8a	-0.65961516
29	0xbd5c7907	-0.05382636
30	0xbda53fdb	-0.0806882
31	0xbe34780e	-0.17623922
32	0xbe87ecf7	-0.26547977
33	0x3df6803d	0.12036178
34	0x3f826a33	1.018866
35	0xbec142be	-0.37746233
36	0x3d9ae25b	0.07562705
37	0x3f7e26be	0.99277866
38	0xbd011ed9	-0.03152356
39	0xbd04f3a5	-0.03245892
40	0x3dd97cd9	0.10619516
41	0xbea7b990	-0.3275876
42	0x3e051470	0.12996078
43	0x3c6440cb	0.0139314635
44	0x3e8138e5	0.2523872
45	0x3f8b8198	1.0898924
46	0x3f99d351	1.2017614
47	0x3ca14285	0.01968504
48	0xbd6612fb	-0.056170445
49	0xbecf843a	-0.40530568
50	0xbf453114	-0.7702801
51	0x3fb20537	1.3907841
52	0xbd983e1e	-0.07433723
53	0xbd81e041	-0.06341601
54	0xbdddc34c	-0.108282655
55	0xbed66e92	-0.41881233
56	0x3e0d13e9	0.13777126
57	0xbf64fffd	-0.8945311
58	0xbefaf9c9	-0.49018696
59	0xbd5c9632	-0.053854175
60	0xbf920ad4	-1.1409554
61	0x3d77ab91	0.060466353
62	0x3ec45304	0.38344586
63	0xbe170974	-0.147497

weight f4 [64, 96]
0	0xbe24b34a	-0.16084018
1	0xbe539b7c	-0.20664781
2	0x3eed6189	0.46363476
3	0xbe85c08d	-0.26123467
4	0x3d1ca877	0.038246598
5	0xbe3da9e2	-0.18521836
6	0xbe049303	-0.12946706
7	0xbdc611e7	-0.09671383
8	0x3ed375af	0.41300723
9	0x3f2a142b	0.66437024
10	0xbeb92c94	-0.36166823
11	0xbe3d79a4	-0.18503433
12	0xbcbc6790	-0.022998601
13	0xbdd8045a	-0.10547705
14	0x3ef832ba	0.484762
15	0x3e701e47	0.2344905
16	0x3ceef867	0.029171182
17	0x3e1a948e	0.15095732
18	0x3eac657d	0.3367118
19	0xbdb81260	-0.0898788
20	0xbe079b08	-0.13242733
21	0xbea0f32d	-0.31435528
22	0xbc7e8804	-0.015535358
23	0x3e76debe	0.24108407
24	0x3eaa9695	0.3331801
25	0xbe48212d	-0.19543906
26	0x3e3cbab9	0.18430604
27	0xbe2c88f3	-0.16849117
28	0xbe4b10c0	-0.19830608
29	0xbd4728fe	-0.048623078
30	0x3eb59bd3	0.35470447
31	0x3e968ba8	0.29403424
32	0xbebd7329	-0.37001923
33	0xbf02d873	-0.51111525
34	0xbe564a5d	-0.20926805
35	0xbe62c6c7	-0.2214614
36	0xbd4561ad	-0.048188854
37	0xbe1dd6ad	-0.15413924
38	0xbdeb0497	-0.11475485
39	0xbe292846	-0.1651927
40	0x3d46a168	0.048493773
41	0xbe3eed32	-0.1864517
42	0x3dc97967	0.09837609
43	0x3db984f7	0.09058564
44	0x3ee449a3	0.4458743
45	0xbed0991f	-0.40741822
46	0xbbe5c3f6	-0.0070118858
47	0xbe5e7862	-0.2172561
48	0xbe47adee	-0.19499943
49	0xbe38af8f	-0.1803572
50	0xbe233ba5	-0.15940721
51	0x3d9187c2	0.07105972
52	0x3e8142a9	0.2524617
53	0x3c0d895e	0.008638708
54	0xbdd2c2fa	-0.10291095
55	0xbd49f1fb	-0.049303036
56	0xbee58a0d	-0.44831887
57	0xbd3def14	-0.04637058
58	0x3ec3d865	0.38251033
59	0xbe93f256	-0.28895825
60	0xbeb9f16d	-0.36317006
61	0x3d25d7f7	0.040489163
62	0x3f39d8be	0.7259635
63	0xbdaf8b6e	-0.08571516
64	0xbe679ee7	-0.2261921
65	0xbc8ffe07	-0.017577184
66	0x3d220691	0.039557043
67	0xbe57730c	-0.2103998
68	0x3ddd96bb	0.10819765
69	0x3f28b378	0.6589885
70	0xbe897252	-0.26845032
71	0x3e70c247	0.23511611
72	0x3dfa1363	0.12210729
73	0x3e6db53e	0.2321367
74	0x3d8592f8	0.06522173
75	0x3e9b74db	0.3036259
76	0x3f041505	0.51594573
77	0xbd2a84ed	-0.041630674
78	0x3d02f50a	0.03197197
79	0xbf017401	-0.5056763
80	0x3e1d5fe8	0.15368617
81	0x3eaf2284	0.3420602
82	0xbc93171f	-0.017955361
83	0xbe0b83f0	-0.13624549
84	0xbda67e2b	-0.081295334
85	0x3e53f30d	0.20698185
86	0xbd8219f4	-0.063526064
87	0x3f016f53	0.5056049
88	0xbe17f7a6	-0.14840564
89	0xbe98674c	-0.2976631
90	0x3da9b983	0.08287337
91	0xbd9b92a3	-0.07596328
92	0x3d9eae01	0.07748032
93	0x3dfff794	0.12498394
94	0xbcd2b660	-0.025721729
95	0xbe699113	-0.22809248
96	0x3ca80c18	0.02051358
97	0x3c1340d9	0.008987629
98	0x3cf752f5	0.030190924
99	0x3d99455f	0.074839346
100	0xbdb962bd	-0.09052036
101	0x3c40000a	0.011718759
102	0xbdd477c7	-0.10374408
103	0xbc908c9d	-0.017645175
104	0x3e000a19	0.12503852
105	0x3e723c93	0.2365592
106	0x3c8903a7	0.016725374
107	0xbdcb6fc4	-0.09933427
108	0xbc26ebf9	-0.010188096
109	0xbd63a0dd	-0.055573333
110	0x3e07ed45	0.13274105
111	0x3df249d6	0.11830489
112	0x3dae0acf	0.08498155
113	0xbc896ca2	-0.016775433
114	0x3dc95b28	0.0983184
115	0x3d0c1098	0.034195513
116	0xbd9733cf	-0.073829286
117	0xbdd4ccd8	-0.10390633
118	0xbda14690	-0.07874787
119	0xbd62550e	-0.055256896
120	0x3d79a0ac	0.060944244
121	0x3d5433d3	0.051807236
122	0x3da99a50	0.08281386
123	0xbd77c365	-0.060489077
124	0xbd18e625	-0.037328858
125	0x3d3d4662	0.0462097
126	0x3d86d52c	0.06583628
127	0x3e3d455c	0.1848349
128	0x3c636a88	0.0138803795
129	0xbe0b70e6	-0.13617286
130	0xbe104c20	-0.1409154
131	0xbe01e7b6	-0.12686047
132	0x3d7b5d9e	0.061368577
133	0xbe0c07a2	-0.13674787
134	0xbdb48c7a	-0.08815856
135	0xbe1b710b	-0.15179841
136	0xbd66d27e	-0.056353085
137	0xbcb0af6f	-0.021568028
138	0xbdda27ac	-0.10652098
139	0xbdb9b364	-0.09067419
140	0x3db5c9ce	0.08876382
141	0xbd63226e	-0.055452757
142	0xbdddde44	-0.108334094
143	0xbd60ccb8	-0.054882735
144	0xbd40ab94	-0.04703863
145	0xbdc95d4a	-0.098322466
146	0x3cf9ee52	0.030509148
147	0xbd63d9de	-0.055627696
148	0x3dd271c0	0.10275602
149	0x3dc48628	0.09595901
150	0x3cbe68a0	0.023243248
151	0x3cb64eb0	0.022254318
152	0xbdbb556f	-0.091471545
153	0x3c36a627	0.011148012
154	0xbd89a5d3	-0.067210816
155	0xbdf4168b	-0.11918362
156	0xbd3383ad	-0.043826748
157	0x3d3f26c4	0.04666783
158	0x3ce45cfa	0.027876366
159	0xbb54bca8	-0.003246108
160	0xbd7dd1a6	-0.061967514
161	0xbd95fc98	-0.07323569
162	0xbe231175	-0.15924628
163	0xbbf8b608	-0.007590059
164	0x3baf6b30	0.005353354
165	0x3e51f71d	0.20504422
166	0x3d6c4a4f	0.057688054
167	0x3d31caae	0.04340618
168	0x3dbc4a2c	0.09193835
169	0x3d72fa8b	0.059320968
170	0x3dc6f621	0.09714914
171	0x3dc27cbe	0.09496449
172	0x3e457b9c	0.19285434
173	0x3da12efe	0.07870291
174	0x3c9dbc61	0.019254865
175	0xbe2f33c4	-0.17109591
176	0x3d3df272	0.046373792
177	0x3d931860	0.071823835
178	0x3e08ce49	0.13359942
179	0xbda0fd0e	-0.07860766
180	0xbdb4c6bd	-0.08826969
181	0x3cca45cd	0.024691487
182	0xbd803e1e	-0.06261848
183	0x3db83223	0.08993938
184	0x3d5f1a4b	0.054468434
185	0xbce5c04b	-0.028045794
186	0x3d35055d	0.044194568
187	0x3cab1de9	0.020888286
188	0x3d83705e	0.06417917
189	0xbdc246d3	-0.09486165
190	0x3b9898f8	0.004656907
191	0x3d54209f	0.051788922
192	0x3d996d73	0.07491579
193	0x3daca7c7	0.084304385
194	0x3e131701	0.14364244
195	0x3d0f7b67	0.035029795
196	0xbe27a8bc	-0.16372961
197	0x3d401bb6	0.046901427
198	0x3c4fe25f	0.012688248
199	0xbd0c89f2	-0.034311242
200	0x3d43af89	0.047774825
201	0x3cf85276	0.030312758
202	0xbd3d21d7	-0.04617485
203	0xbe8089ab	-0.25105032
204	0x3c9356ac	0.017985664
205	0x3e2c1cac	0.16807812
206	0xbe1fe17e	-0.15613362
207	0x3e1ba82e	0.15200874
208	0xbe10065c	-0.14064926
209	0x3ce74c67	0.028234674
210	0x3d3870b3	0.045029353
211	0x3d979f0b	0.07403382
212	0x3caf6d0c	0.021414302
213	0x3e04a0d9	0.12951984
214	0x3d0c1218	0.034196943
215	0xbd430784	-0.04761459
216	0xbe3142ef	-0.1731069
217	0xbe1967fd	-0.14981075
218	0xbe0c69be	-0.13712212
219	0x3e255afb	0.16147988
220	0xbdfd092d	-0.12355266
221	0x3e32338a	0.17402473
222	0x3d78a0f0	0.060700357
223	0xbd53a613	-0.051672053
224	0xbdfae792	-0.122512
225	0xbe4aacf6	-0.19792542
226	0x3d84dd4b	0.06487521
227	0x3d753618	0.05986604
228	0x3ded5aee	0.11589609
229	0xbe24f011	-0.16107203
230	0x3e41dc65	0.1893173
231	0x3dc20e37	0.094753675
232	0x3d9bb10b	0.07602128
233	0x3e546da0	0.20744944
234	0xbe7bc837	-0.24588095
235	0x3c0847df	0.008317917
236	0x3ef4f465	0.47842708
237	0x3cb08c65	0.02155132
238	0x3ddc5629	0.10758621
239	0xbda56367	-0.080756
240	0x3d99b62d	0.075054504
241	0x3d47c7ba	0.04877446
242	0xbdf0283e	-0.117264256
243	0x3e2ba302	0.16761401
244	0xbd55bccd	-0.052182008
245	0xbc5f1506	-0.013615852
246	0x3dad064b	0.08448466
247	0x3d00a138	0.03140375
248	0xbdd8e052	-0.10589661
249	0xbe2112a0	-0.15729761
250	0x3e01472e	0.12624809
251	0xbcdf011a	-0.027222205
252	0x3e7ad964	0.2449699
253	0x3d1c07e8	0.038093477
254	0x3e2a1b7f	0.16612051
255	0x3e17bf08	0.14818966

bias f4 [64]
0	0xbdab5d0d	-0.083673574
1	0xbc454876	-0.012041202
2	0x3d463eb8	0.048399657
3	0xbc4b7804	-0.012418751
4	0xbd481465	-0.048847575
5	0xbd539b48	-0.05166176
6	0xbd1321ef	-0.035921033
7	0x3dc634cb	0.09678038
8	0x3d018252	0.031618424
9	0x3d2ee9dc	0.042703494
10	0xbde23413	-0.110450886
11	0xbccd7592	-0.025080476
12	0x3d22b474	0.039722875
13	0x3e0d23c2	0.13783172
14	0xbdb0ba1e	-0.08629249
15	0xbdbed73c	-0.093183964
16	0xbd186ce7	-0.037213232
17	0xbd7b5371	-0.061358873
18	0x3dc52043	0.09625294
19	0x3da27633	0.07932701
20	0xbd0786d7	-0.033087578
21	0xbd182b3c	-0.037150607
22	0x3d46b1fe	0.04850959
23	0x3d0f6f3e	0.0350182
24	0x3d9b08ce	0.07570039
25	0x3da7f054	0.08200136
26	0x3d009179	0.031388734
27	0x3d2075ae	0.039174728
28	0xbbdf0fef	-0.0068073194
29	0xbd812db1	-0.06307543
30	0xbdf44193	-0.1192657
31	0xbde56558	-0.112009704
32	0x3bf2806f	0.0074005644
33	0xbcf68309	-0.03009178
34	0xbd543410	-0.051807463
35	0x3d60d14d	0.054887105
36	0x3d5b9cf7	0.05361649
37	0x3d430b71	0.047618333
38	0x3d8e4d0d	0.0694829
39	0x3cb5aff4	0.022178628
40	0x3d8e9dc5	0.06963686
41	0x392ed7a8	0.00016674271
42	0xbcf7408e	-0.03018215
43	0xbcf20402	-0.029542927
44	0xbcf40616	-0.029788058
45	0x3c0d8268	0.008637048
46	0xbb18145d	-0.0023205497
47	0xbdcdef30	-0.10055387
48	0x3d123cfb	0.035702687
49	0x3e153a14	0.14572936
50	0xbd947193	-0.07248225
51	0x3d5878df	0.052849647
52	0xbd8a9ba8	-0.0676797
53	0xbd4f2021	-0.05056775
54	0x3d8e0c98	0.06935996
55	0xbd2c9abb	-0.04213975
56	0xbe23c328	-0.15992415
57	0x3dc3d698	0.09562415
58	0x3c84b9b1	0.016201826
59	0x3d94ea3a	0.07271238
60	0xbd9a78af	-0.0754255
61	0x3c42cf9b	0.011890317
62	0xbd7e8d6d	-0.062146593
63	0xbc9e2dbf	-0.019308923
