checkpoints/model-doom.pth (torch, 106885 bytes, 27 tensors)

weight f4 [8, 1, 3, 3]
0	0x3fea1813	1.8288597
1	0x3fbfdb76	1.4988849
2	0x3ff510fd	1.914581
3	0x3f854b3e	1.0413587
4	0x3d45d656	0.04830011
5	0x3f32145f	0.69562334
6	0x3f92595d	1.1433522
7	0xbf2df5f4	-0.6795342
8	0xbfeca37a	-1.8487389
9	0xbfadaad0	-1.3567753
10	0xc0437d35	-3.054517
11	0xc08a36d1	-4.3191915
12	0x404ee3e7	3.23266
13	0x40769109	3.8526022
14	0x4005ec85	2.092561
15	0x3e99f1e1	0.3006735
16	0xc0cbd4e5	-6.369738
17	0x3ea58707	0.3232958
18	0x40366f47	2.8505418
19	0xbfd7c8ad	-1.6858116
20	0x3ff5a253	1.9190162
21	0xbe5d40b6	-0.21606717
22	0xc0a5b1c7	-5.1779513
23	0xbffda8c9	-1.9817134
24	0x4005d64b	2.0912044
25	0xc091d6fc	-4.557493
26	0x400edac0	2.2321014
27	0x403e440b	2.972903
28	0xbfc542cc	-1.541101
29	0xc082798b	-4.077337
30	0x3c0f4875	0.008745302
31	0xc0064a5b	-2.0982883
32	0xc027fe2f	-2.6248891
33	0xbfaa4ae2	-1.3304102
34	0x409f20c3	4.972749
35	0x3e577b1b	0.21043055
36	0x4027bb0b	2.6207912
37	0xbfcedf40	-1.616188
38	0x404b4ebf	3.1766813
39	0xbf7c24e8	-0.98493814
40	0xc0421cdb	-3.0330112
41	0xbf967912	-1.1755698
42	0xbe13781c	-0.14401287
43	0xbda53fd6	-0.08068816
44	0xc03a545b	-2.9113986
45	0xc03a7a27	-2.9137056
46	0xc02fbc85	-2.7458813
47	0x3f7616a9	0.96128327
48	0xbfe74ce5	-1.8070341
49	0xbfd82887	-1.6887368
50	0x409c4f94	4.884714
51	0x3f075832	0.5286895
52	0xc03d051a	-2.9534364
53	0xbfe6a2c2	-1.801842
54	0xbf875ee2	-1.0575831
55	0x4058ea47	3.3892992
56	0xbf8f1e82	-1.1181185
57	0xbe5ec6ce	-0.21755525
58	0xc047c12c	-3.1211653
59	0xc080d949	-4.026524
60	0x4032b4f2	2.792294
61	0xbf7bd03a	-0.98364604
62	0xbf8348c3	-1.025658
63	0x4055e01e	3.341804
64	0x400f71b5	2.2413151
65	0xbf8dbea3	-1.1073803
66	0x3f896b80	1.0735931
67	0xc05eac4c	-3.4792662
68	0xbf76c8a8	-0.9639993
69	0xc0265793	-2.599095
70	0xbffadde9	-1.9598972
71	0xbfbdc4da	-1.4825699

weight f4 [8]
0	0x4048a86d	3.13528
1	0x4080d08b	4.025457
2	0x408e72ae	4.451499
3	0x4034e9f9	2.8267806
4	0x4085efa3	4.1855025
5	0x40bdd09e	5.931716
6	0x4059041e	3.3908763
7	0x40aa04a2	5.3130655

bias f4 [8]
0	0xc029d6cf	-2.6537359
1	0x3f6e1f6b	0.9301669
2	0x3f751e35	0.9574922
3	0x3f887fc2	1.0663989
4	0xbca9b2a0	-0.020715058
5	0xbf6d615f	-0.927267
6	0x3f57f332	0.8435546
7	0xbf945cbb	-1.1590799

running_mean f4 [8]
0	0x3f4edfe0	0.80810356
1	0xbf4b475e	-0.7940577
2	0xbf31e728	-0.6949334
3	0xbef88fab	-0.4854711
4	0xbf29a058	-0.6626029
5	0xbf910782	-1.1330416
6	0xbf4dc396	-0.80376565
7	0xbf4d6331	-0.8022948

running_var f4 [8]
0	0x3db12b67	0.086508565
1	0x3dfc7d3e	0.123285756
2	0x3e148c1d	0.14506574
3	0x3db84a54	0.08998552
4	0x3de41f84	0.11138824
5	0x3e446d45	0.19182308
6	0x3df517bb	0.11967417
7	0x3e48568e	0.19564268

weight f4 [8, 8, 3, 3]
0	0xbf379827	-0.7171654
1	0x3f67ca65	0.90543205
2	0x3fca19c8	1.5789118
3	0xbe22d15b	-0.15900175
4	0xbeaec5e5	-0.34135357
5	0xbe9e71ec	-0.3094629
6	0xbfe63e9a	-1.7987854
7	0xbef02894	-0.4690596
8	0xbde2dd21	-0.11077333
9	0xc07b9302	-3.9308476
10	0xbfbf26f8	-1.4933767
11	0xc00fa170	-2.2442284
12	0xc0325f13	-2.7870529
13	0xbf123897	-0.571176
14	0xbe8ca9b1	-0.27473214
15	0x3fb8e9e0	1.4446373
16	0x3fa9878e	1.3244493
17	0x3cbdbd91	0.023161681
18	0x400bbcea	2.1834054
19	0x3e9608f4	0.29303706
20	0xbfbdc2c6	-1.4825065
21	0x3f9600a6	1.1718948
22	0x3fc815ad	1.5631615
23	0xbfb749f1	-1.431944
24	0xbfbf66c4	-1.4953237
25	0x3e45ca1d	0.19315381
26	0x3e30c690	0.17263246
27	0xbf6fc5bb	-0.9366109
28	0x3e1741c7	0.14771186
29	0xbf011819	-0.50427395
30	0x3ff5ff4e	1.9218538
31	0x3a583803	0.00082480925
32	0xbf8995ae	-1.0748804
33	0xbd9d30e0	-0.07675338
34	0x3f85afd0	1.0444279
35	0xbece418e	-0.4028439
36	0x3fc8e1fc	1.5693965
37	0x3fbe0704	1.4845891
38	0xbf50817d	-0.81447583
39	0x3fb156cc	1.3854613
40	0xbf090242	-0.5351907
41	0xbf962649	-1.1730434
42	0xbf1505c7	-0.5821194
43	0x3f6e0ad4	0.9298527
44	0xc00ba07e	-2.1816707
45	0x3ccb07fb	0.024784079
46	0x3e8a26d0	0.26982737
47	0x3f91f5e2	1.1403162
48	0xbfdcaf70	-1.7241039
49	0x3fdddeb2	1.7333586
50	0x3d84a4de	0.064767584
51	0xbd1685e3	-0.036748778
52	0x3f455133	0.77077025
53	0xbee7a238	-0.4524095
54	0x405f574e	3.4897037
55	0x3f158868	0.58411264
56	0xc029135b	-2.6418064
57	0x3f8be94d	1.0930573
58	0x3f6a0465	0.91412956
59	0xbee14101	-0.43994907
60	0xbf20e372	-0.62847054
61	0xbfa6f866	-1.3044555
62	0xbf3c271a	-0.73497164
63	0x3f1671d1	0.5876742
64	0x3f5b2bc3	0.8561365
65	0xbe8c8e54	-0.27452338
66	0x3f82add6	1.02093
67	0x3f426cd9	0.7594734
68	0xbf775920	-0.9662037
69	0x3f380128	0.71876764
70	0xbe8cfbd0	-0.27535868
71	0xbfda2b54	-1.7044473
72	0xbf83914b	-1.0278715
73	0xbe6b1892	-0.22958592
74	0x3f4b1d5e	0.79341686
75	0xbf5c1d93	-0.85982627
76	0xbee68c90	-0.45029116
77	0xbec922ce	-0.39284366
78	0xbfe6a770	-1.8019848
79	0xbfb0f40b	-1.3824476
80	0xbef9c90a	-0.48786193
81	0x3e070a29	0.1318747
82	0xbfb42dec	-1.4076514
83	0x400d1ed1	2.205006
84	0xbfff27f2	-1.9934065
85	0x3f9eab7f	1.2396086
86	0xc02c8a75	-2.6959507
87	0xbf9b4de2	-1.2133143
88	0x3e97cf56	0.29650372
89	0xbeebee53	-0.46080264
90	0x3ee036b2	0.4379173
91	0xbdae1316	-0.08499734
92	0xc0289c26	-2.6345305
93	0x3fb10f0d	1.3832718
94	0xbf8ca465	-1.0987669
95	0xbed96606	-0.4246065
96	0x3eca7fe1	0.3955069
97	0x3fe76168	1.8076601
98	0xc0177d0f	-2.367008
99	0x3d83bcd6	0.06432502
100	0xbf349398	-0.7053771
101	0x3e54937f	0.2075939
102	0x3d6fdf4e	0.05856257
103	0x3d584544	0.05280043
104	0x402b6850	2.6782417
105	0xbf463e80	-0.7743912
106	0x3f24d1ea	0.64382803
107	0xbf62b402	-0.8855592
108	0x3d92c8a9	0.07167179
109	0x3f168601	0.58798224
110	0xbfe33bd5	-1.7752634
111	0x3e71396b	0.2355706
112	0x3c8beebe	0.017081615
113	0xbfaf10c8	-1.3676996
114	0x3ea7653a	0.32694417
115	0x3f8bded8	1.0927382
116	0xbe388223	-0.18018393
117	0x3f98b222	1.1929362
118	0xbf6d72ee	-0.92753494
119	0xbe1ceee1	-0.153255
120	0xbe19a8b5	-0.15005763
121	0xbf711f12	-0.94188035
122	0xbfe629d5	-1.7981516
123	0x402015db	2.501334
124	0x3fafdb24	1.3738751
125	0xc0113c7d	-2.269317
126	0x3f830a2e	1.0237482
127	0x3e7240df	0.23657559
128	0xbe230333	-0.15919189
129	0xbf7d09ce	-0.98843086
130	0x3e8b3965	0.27192226
131	0x3e495cf3	0.19664364
132	0x3fb3a8fc	1.4035945
133	0xbf98a1f2	-1.1924422
134	0x3f0b50b5	0.54420024
135	0xc0056563	-2.0843132
136	0x3f9dac84	1.2318273
137	0xbf8a975b	-1.082744
138	0x3f532a78	0.8248668
139	0xbf9e4f32	-1.2367918
140	0x3f1f8b34	0.6232178
141	0xc01908dd	-2.391166
142	0x3f39cb78	0.72576094
143	0x3fcf9712	1.6217978
144	0xbf975289	-1.1822063
145	0x401a8473	2.414334
146	0x3f574827	0.8409447
147	0xbf5eaa87	-0.86978954
148	0xbf17845d	-0.59186345
149	0xbfeda67d	-1.8566433
150	0xbf89c8b6	-1.0764377
151	0xbf4522de	-0.7700633
152	0xbe6d6ba2	-0.2318559
153	0x3ee73e54	0.4516474
154	0xbf84e32d	-1.0381829
155	0xbf156035	-0.58349925
156	0x3f1b3298	0.60624075
157	0xbf234cba	-0.6378895
158	0x3e1e37b6	0.1545094
159	0xc053c461	-3.308861
160	0x3ffc851a	1.9728119
161	0xbf7e065e	-0.99228466
162	0x3fdada33	1.7097839
163	0x3f405775	0.7513345
164	0x3e242433	0.16029434
165	0xbfe1b7db	-1.7634233
166	0x3f57bc9a	0.8427216
167	0xbf45433f	-0.77055734
168	0xbf6c8f16	-0.9240583
169	0x3ea1af6e	0.31579155
170	0xbfb631c5	-1.4233938
171	0x3e151be6	0.14561424
172	0xbfda7a04	-1.7068486
173	0x3f7b7ff9	0.98242146
174	0xc00fb65b	-2.245505
175	0x3e72aa4a	0.23697773
176	0xbf81e2de	-1.0147359
177	0x3e78830d	0.24268742
178	0x3f7ea8ea	0.9947649
179	0x3f615dda	0.8803383
180	0x3ea4b0bf	0.32166097
181	0xbf8e0ff2	-1.1098616
182	0xbd161a3f	-0.036646124
183	0xbfadc8c8	-1.3576899
184	0x3f301609	0.6878362
185	0x3f715593	0.942712
186	0x3cb7a4eb	0.022417506
187	0xbf8de26e	-1.1084726
188	0x3f1e21ae	0.6177014
189	0xbf9ce64c	-1.2257781
190	0xc029bde3	-2.6522148
191	0xbf641971	-0.8910132
192	0x3f31f811	0.69519144
193	0xbf71ac32	-0.94403374
194	0x4023c6e5	2.5590146
195	0xbd24a3ad	-0.040195156
196	0xbfc951cc	-1.5728087
197	0xbfdda8cf	-1.7317141
198	0xc01fc9aa	-2.4966836
199	0xbc1ce33b	-0.00957566
200	0x3ed47ed0	0.41503
201	0xc02d7df7	-2.7108133
202	0x3f9afe8b	1.210893
203	0xbf260768	-0.6485505
204	0x3fe10c7b	1.7581934
205	0xbfc02677	-1.5011739
206	0x40076c9f	2.1160047
207	0x3ed4f74d	0.41594926
208	0xbf424fa3	-0.75902766
209	0x3de6a98d	0.11262808
210	0xbf919526	-1.1373641
211	0x3f3e2eb9	0.74290043
212	0x40517415	3.27271
213	0xbff39403	-1.9029545
214	0xbf9ce013	-1.2255882
215	0x3fec50f0	1.84622
216	0xbe8cb741	-0.27483562
217	0x3e300227	0.17188321
218	0xbe76e5a6	-0.24111041
219	0x3e8e932c	0.27846658
220	0x3dc0ed58	0.0942027
221	0xbf883532	-1.0641234
222	0xbf87ca83	-1.0608677
223	0x3fa9b6bf	1.3258895
224	0x3f8eeb63	1.1165584
225	0xbeefc705	-0.46831527
226	0xbe23a7ac	-0.1598193
227	0xbf8f6c99	-1.1205016
228	0x3f445fb7	0.7670855
229	0xbfd7fee0	-1.6874657
230	0x4003d866	2.060083
231	0xbe8b87c9	-0.27252033
232	0xbdb0e7bf	-0.08637952
233	0xbe32f101	-0.17474748
234	0x3fe0424c	1.7520232
235	0x3f80dd56	1.0067546
236	0x3f7a82f5	0.97856075
237	0xbf16fc1d	-0.58978444
238	0x3e72f406	0.237259
239	0x3f97711e	1.1831396
240	0x3f3feef8	0.7497401
241	0xc01a2988	-2.4087849
242	0x3ed801a8	0.42188764
243	0x401c690c	2.4439116
244	0xbf76c7a7	-0.96398395
245	0x3fc020a8	1.5009966
246	0xbf346489	-0.70465904
247	0x3f88dd19	1.0692474
248	0xbe5fc6aa	-0.21853128
249	0x3f8f0614	1.117373
250	0x3fa5e964	1.296185
251	0xbfba8b07	-1.4573678
252	0x3fe0215d	1.7510182
253	0x3f52f6be	0.8240775
254	0x3f758f3e	0.95921695
255	0x3f3c42d2	0.7353946

weight f4 [8]
0	0x408c4b41	4.3841863
1	0x4094ce38	4.650173
2	0x40b859dd	5.7609696
3	0x40887d5a	4.2653017
4	0x408e1d72	4.4410944
5	0x4085d2bf	4.181976
6	0x407cfcf6	3.9529395
7	0x402f7974	2.741788

bias f4 [8]
0	0x3ec9190a	0.39276916
1	0xbfa6f48a	-1.3043377
2	0xc0199a05	-2.4000256
3	0xbf8ba72f	-1.0910395
4	0xbf1631f4	-0.5866997
5	0xbdb42f5c	-0.087980956
6	0xbeecf953	-0.4628397
7	0x4005a972	2.0884671

running_mean f4 [8]
0	0xc1399ee2	-11.60129
1	0xc19210e7	-18.258253
2	0xc1d934e1	-27.15082
3	0x41c9719a	25.18047
4	0xc12024e6	-10.009008
5	0xc1c5220c	-24.641624
6	0x40cb0a85	6.345034
7	0x4190b245	18.087046

running_var f4 [8]
0	0x43f1e825	483.81363
1	0x43b3ccb3	359.5992
2	0x43dd5b75	442.7145
3	0x43c68b13	397.08652
4	0x43e451c5	456.63882
5	0x43c7ee96	399.86395
6	0x43c514ef	394.16354
7	0x43e0a5c5	449.29507

weight f4 [8, 8, 3, 3]
0	0x3f9feea6	1.2494705
1	0xbbd1daa2	-0.006404237
2	0xbf4ae103	-0.7924959
3	0xbe67e709	-0.22646727
4	0x3e8d439d	0.27590647
5	0xbfb721fa	-1.4307244
6	0x3f8c576f	1.0964183
7	0xbfa467ba	-1.2844155
8	0x3f3dac3b	0.7409093
9	0xbf0ab3a6	-0.5418037
10	0xc01cdcac	-2.4509687
11	0xbbbad81f	-0.005702033
12	0xbf1f3fd0	-0.62206745
13	0xbed5a390	-0.4172635
14	0x3e8bcc3b	0.27304253
15	0xc017d2c8	-2.37224
16	0xbe2eb925	-0.17062815
17	0x40002234	2.0020876
18	0xbff20b83	-1.8909763
19	0xc00eabd7	-2.2292383
20	0xbef0472e	-0.46929306
21	0x3f529f17	0.82274
22	0x4008b1ed	2.1358597
23	0xc0407d81	-3.0076602
24	0x3edb61d9	0.4284809
25	0xbfb37a05	-1.4021612
26	0xbe22aefc	-0.15887064
27	0x3ef1a596	0.47196645
28	0xbf3d4cfe	-0.73945606
29	0xbe60fafd	-0.21970744
30	0x3d8e5eed	0.069516994
31	0xbe3bf5bf	-0.18355463
32	0x3df81fbd	0.121154286
33	0xbf332c54	-0.69989514
34	0x3ea26b38	0.31722426
35	0xbf6e837e	-0.9316939
36	0xbf44f400	-0.76934814
37	0xbfabaadc	-1.3411517
38	0xbfeecdcc	-1.8656554
39	0x3fb2bc82	1.3963778
40	0xbf80fb62	-1.0076716
41	0xbf73bb85	-0.9520801
42	0xbf4e0cf8	-0.8048854
43	0x3f8a4367	1.080182
44	0xbf8973a5	-1.0738417
45	0xbfdc9776	-1.7233722
46	0x3f815862	1.0105097
47	0xbf10fa41	-0.5663186
48	0x3f00a936	0.50258195
49	0xbf0e3cee	-0.5556172
50	0x3fffd5fe	1.998718
51	0x3fb11875	1.3835589
52	0x3f64dc2a	0.89398444
53	0xbf645480	-0.89191437
54	0xc01618e3	-2.345269
55	0x3f08a7d9	0.53381115
56	0xbfb9076a	-1.4455388
57	0x3f8d452c	1.1036735
58	0x3e3d993d	0.18515487
59	0x3f7f8bef	0.99822897
60	0xc0055886	-2.083528
61	0xc01f74a4	-2.4914942
62	0xbe84d27e	-0.25941843
63	0x3f23ef2c	0.6403682
64	0xbf676721	-0.9039174
65	0xbf034cbc	-0.5128896
66	0x3fe5e011	1.7959005
67	0xc04c38fe	-3.1909785
68	0xbf4f3ef8	-0.8095546
69	0xbd770152	-0.060303994
70	0xbe9b9565	-0.30387416
71	0x3fd817ec	1.68823
72	0xbfb59fc2	-1.4189379
73	0x3fd2fa0c	1.6482558
74	0x3e9ea180	0.3098259
75	0xbf4d9730	-0.8030882
76	0xbe9ef3f5	-0.310455
77	0x3e74481e	0.23855636
78	0xc00e1be0	-2.2204514
79	0x3fa55530	1.2916622
80	0x3fafd02c	1.3735404
81	0xbfb6be49	-1.427682
82	0x3f27bd81	0.65523535
83	0xbf6ee47e	-0.933174
84	0x3e6b91e6	0.23004875
85	0x3f3eed97	0.74581283
86	0x3ff96ec6	1.948693
87	0x3f938ab6	1.1526706
88	0x3c9937a1	0.018703284
89	0xbea3068c	-0.31840932
90	0x3f4dd842	0.8040811
91	0x3f766abe	0.96256626
92	0x3ebdc3d3	0.37063465
93	0x3f522aa7	0.8209633
94	0xbf02fa9a	-0.5116364
95	0xbf463cb3	-0.7743637
96	0xbf8ad133	-1.0845093
97	0x3fc8395c	1.5642505
98	0xc0374204	-2.8634043
99	0xbf1808b6	-0.5938829
100	0x3f87b896	1.0603206
101	0xbd45d797	-0.048301306
102	0xbf96d8ab	-1.1784872
103	0x3ef564d4	0.47928488
104	0x3f95221b	1.1651033
105	0x3eaba5fe	0.3352508
106	0x3fbda462	1.4815791
107	0x3fd49098	1.6606627
108	0xbfae8fc3	-1.3637623
109	0x3fc35386	1.5259864
110	0xc0347b9e	-2.820045
111	0xbfce2c7c	-1.6107326
112	0x3ee28829	0.44244507
113	0xc0607137	-3.50691
114	0x3ea53e1e	0.32273954
115	0x3ee2e6ce	0.44316715
116	0xbd9f0ba4	-0.07765892
117	0x3fa205f0	1.2658062
118	0xbf7e34c4	-0.99299264
119	0x400b2a4b	2.1744564
120	0xbf525f0f	-0.821763
121	0xbdc6dbe9	-0.09709913
122	0xbec68254	-0.38771307
123	0xbce016b4	-0.027354576
124	0x3f453d38	0.7704654
125	0xc008e0cf	-2.1387212
126	0xbedf9489	-0.4366801
127	0x4012b0dd	2.2920449
128	0xc0137c43	-2.3044593
129	0xbf8af3bb	-1.0855631
130	0x3fb7ddd7	1.4364575
131	0xbf942b1e	-1.1575658
132	0xbfeaa790	-1.8332386
133	0xbf0657b5	-0.5247758
134	0xbe57aae4	-0.21061283
135	0x3ecf003e	0.40429872
136	0x3fba3a70	1.4549084
137	0x3ec9bb13	0.3940054
138	0x3f07b1b7	0.53005546
139	0x3ea22e38	0.31675887
140	0xbf835574	-1.0260453
141	0xbf453667	-0.77036136
142	0x3ec9632a	0.3933347
143	0xbfc6ccf9	-1.5531303
144	0xbfa34604	-1.2755742
145	0xbef344c1	-0.47513393
146	0x3f0c5b37	0.5482668
147	0xbd6d6af9	-0.057963345
148	0x4009e54f	2.154621
149	0xbf236e11	-0.63839823
150	0xbfd3cbd1	-1.6546575
151	0x3f90b785	1.1306006
152	0xbfcc3f9d	-1.5956913
153	0xbfb452c9	-1.4087764
154	0xc001dc63	-2.0290763
155	0xc01a824e	-2.4142032
156	0x3db5dd88	0.08880144
157	0x3eaf1a93	0.34199962
158	0x3ebcebf1	0.3689876
159	0xbee68906	-0.45026416
160	0xbfb7d03f	-1.4360427
161	0x3e4ecf1e	0.20196196
162	0xbe9cbcc3	-0.30612764
163	0xbed3694f	-0.41291282
164	0xbf804ade	-1.0022848
165	0x40019d8c	2.025241
166	0x3f11f100	0.5700836
167	0xbfa877a0	-1.3161507
168	0x3faca3dd	1.3487507
169	0x3f139209	0.57644707
170	0xbf924e02	-1.1430056
171	0xc00ea3ff	-2.2287595
172	0xbf166858	-0.58752966
173	0xc009557c	-2.1458426
174	0xbf7dae75	-0.99094325
175	0xbf929d2d	-1.1454216
176	0xbe26814b	-0.16260259
177	0xbe975939	-0.2956026
178	0x3eba8b09	0.364342
179	0xbf5807d1	-0.84386927
180	0xbef8830e	-0.48537487
181	0x3ff67a62	1.9256098
182	0xbf804f87	-1.002427
183	0x3eb26177	0.34839985
184	0xbd0aadb7	-0.033857074
185	0xbfb07afd	-1.3787533
186	0xbfcf4506	-1.6192939
187	0xbf7560b8	-0.95850706
188	0xc0119284	-2.2745676
189	0x3eb03f8c	0.34423482
190	0x3f8ee983	1.1165012
191	0x3c5cd829	0.013479271
192	0xbdef85f5	-0.11695472
193	0xbfc7178b	-1.555406
194	0x3f252eab	0.64524335
195	0xbe90e8ea	-0.283027
196	0xbef3af8e	-0.47594875
197	0xbe4891ac	-0.1958682
198	0x403e2ec3	2.971604
199	0x3f1259da	0.5716835
200	0xbfb2bd16	-1.3963954
201	0xbf89a26d	-1.0752693
202	0x3e8b615e	0.27222723
203	0x3f8cbefc	1.0995784
204	0xbe196a9e	-0.14982077
205	0xc014e9a5	-2.3267605
206	0x3fdb7b67	1.7147034
207	0x3f37047d	0.71491224
208	0xbf9d256d	-1.2277046
209	0xbfc63779	-1.5485679
210	0x3f252b14	0.64518857
211	0x3f1fa6b0	0.6236372
212	0x3f90a3ef	1.1300029
213	0x3e108a9d	0.14115377
214	0xbf4df139	-0.804462
215	0xbef1e168	-0.47242284
216	0xbf39654d	-0.724202
217	0x3dff48da	0.12465067
218	0xbf993ecf	-1.1972293
219	0x3fcd480a	1.603761
220	0xc02ed11e	-2.7315135
221	0xc028517e	-2.629974
222	0xbfae28b3	-1.360617
223	0xbe850805	-0.2598268
224	0x3f16e1fb	0.5893857
225	0xbfa3cd83	-1.2797092
226	0xbed2326d	-0.41054097
227	0xbe072508	-0.1319772
228	0x3d87f76b	0.06638988
229	0x3f3cb79e	0.7371768
230	0xc01f27c2	-2.4868016
231	0xbe126d93	-0.14299612
232	0xbf3c6d0f	-0.7360391
233	0x3fc4ecb8	1.5384741
234	0xbfe9c3fc	-1.8262935
235	0xbf272c67	-0.6530213
236	0x3ff33333	1.9
237	0xbfbf18ab	-1.4929403
238	0xbf938bba	-1.1527016
239	0xbe1f578a	-0.15560737
240	0xc04e7101	-3.2256472
241	0xbe63ef0e	-0.22259161
242	0xbe614ae3	-0.22001223
243	0x3f02451c	0.508867
244	0x3f058db1	0.5216933
245	0x3fa1858a	1.2618878
246	0xbd835bf5	-0.06414024
247	0xbe6a1847	-0.22860824
248	0x3d12e1e2	0.03585995
249	0xbfc75bea	-1.5574925
250	0xbec07215	-0.37587038
251	0xc01490b7	-2.3213327
252	0xbd8bc55b	-0.06824752
253	0xbeee61df	-0.46559045
254	0xbf3ec5c5	-0.7452052
255	0x3fdd54db	1.7291521

weight f4 [8]
0	0x4086ac46	4.2085295
1	0x40688a5f	3.6334455
2	0x4086a498	4.207592
3	0x406571b3	3.5850646
4	0x4083d1c2	4.119355
5	0x4072776c	3.788539
6	0x40720c02	3.781983
7	0x4089a832	4.3017817

bias f4 [8]
0	0xbfccac06	-1.5989997
1	0xbec49a7d	-0.38399115
2	0xc0083fef	-2.1289022
3	0xbf623ca3	-0.88373774
4	0xbf187075	-0.59546596
5	0xbf40a442	-0.7525064
6	0xbf07656f	-0.5288915
7	0xbfeabbec	-1.8338599

running_mean f4 [8]
0	0xc1f46e63	-30.5539
1	0xc0d2d378	-6.588314
2	0xc204fb79	-33.24558
3	0xc1afbf18	-21.968307
4	0xc2382616	-46.037193
5	0xc1a1ebb5	-20.240091
6	0xc0fdcd53	-7.931314
7	0xc1ccc5f5	-25.596659

running_var f4 [8]
0	0x44036bc9	525.68414
1	0x441d1bba	628.4332
2	0x43feea35	509.82974
3	0x43fe7352	508.90094
4	0x44242eee	656.7333
5	0x44124385	585.055
6	0x4415ba44	598.9104
7	0x4411bbe2	582.93567

weight f4 [16, 8, 3, 3]
0	0x3fab2e7e	1.3373563
1	0xbeafe733	-0.34356079
2	0x3f4f6a18	0.8102126
3	0xbe6e9674	-0.23299581
4	0xbec9bc6b	-0.39401564
5	0xbf172df1	-0.59054476
6	0xbfccaca6	-1.5990188
7	0xbf010b1e	-0.5040759
8	0xbf3935ae	-0.72347534
9	0xbecb4955	-0.39704385
10	0xbea57de9	-0.32322624
11	0xc01088ef	-2.2583578
12	0x3fc7c7bb	1.5607828
13	0xc01b56e0	-2.4271774
14	0x3f25ff18	0.6484237
15	0xbf05572c	-0.5208614
16	0x3d96cc5b	0.073631965
17	0x3fffc4f5	1.9981982
18	0x3ec6e717	0.38848183
19	0x3f68082d	0.90637475
20	0xbdc05d65	-0.093928136
21	0x3f642769	0.89122635
22	0x3f089c63	0.5336363
23	0xbf1c89e7	-0.6114792
24	0xbf8a49a9	-1.0803729
25	0x3f2ab4ad	0.6668194
26	0xbfcbca4c	-1.5921111
27	0xbf7bd88b	-0.98377293
28	0xbe3bad9e	-0.18327948
29	0x3f882e12	1.063906
30	0x3f9fa803	1.2473148
31	0xbf25c5c2	-0.6475488
32	0x3f94a6e0	1.1613426
33	0xbf335d6a	-0.70064414
34	0x3ed4a547	0.41532347
35	0xbdd2edf9	-0.10299296
36	0x3dfba9ba	0.12288232
37	0xbefe5262	-0.49672228
38	0xbfaf4630	-1.3693295
39	0xbe466b2b	-0.19376819
40	0xbf80227e	-1.0010526
41	0x3ff02cb3	1.8763641
42	0xbde1ea4a	-0.11031015
43	0xbe48475b	-0.1955847
44	0x3f78e104	0.97218347
45	0xbfecc84e	-1.8498628
46	0xbf892e0e	-1.071718
47	0x3f6858b3	0.90760344
48	0x3dce763d	0.10081146
49	0x3ea295f6	0.31755036
50	0x3f5f10a6	0.8713478
51	0x3d873246	0.06601386
52	0x3f201093	0.6252529
53	0xbdd5c973	-0.10438814
54	0xbeeca876	-0.46222275
55	0x3da43e1e	0.080196604
56	0xbd3b1d76	-0.045682393
57	0x3fac3200	1.3452759
58	0x3e97ea41	0.2967091
59	0xbe548118	-0.2075237
60	0xbff935c8	-1.9469538
61	0x3efe94aa	0.49722797
62	0x3efd9f2c	0.495355
63	0xbf82e97f	-1.0227507
64	0x40045fcd	2.0683472
65	0xbf2fc79c	-0.68663955
66	0xbd4b5b1a	-0.049647428
67	0xbfd5d8a3	-1.6706737
68	0x3ed1c33e	0.4096927
69	0xbf91da18	-1.1394682
70	0x40185d40	2.3806915
71	0x3f41a894	0.75647855
72	0xbdcf57f5	-0.10124198
73	0x3e341427	0.17585813
74	0x3fc5856b	1.5431341
75	0x3f3d3cae	0.73920715
76	0x3eebd5de	0.46061605
77	0xc02fa90d	-2.744693
78	0x3f5c8d7b	0.8615338
79	0x3e8cd1bd	0.27503768
80	0xbe736d03	-0.23772053
81	0xbffeb9fc	-1.9900508
82	0x3ee6566a	0.44987804
83	0x3e602718	0.21889913
84	0x3d814665	0.06312255
85	0xbd3d3ee5	-0.04620256
86	0x3f1cf29c	0.6130769
87	0x3e12e5e1	0.14345504
88	0xbfbd6d10	-1.4798908
89	0xbd56e6b5	-0.052466113
90	0xbfb8383b	-1.439216
91	0x3e070d7e	0.1318874
92	0x3f2cda07	0.67520183
93	0x3fab8294	1.3399224
94	0xbfc388b9	-1.52761
95	0xc00f40f3	-2.2383392
96	0xbee8ec5e	-0.45492834
97	0xbde05b45	-0.10954908
98	0x3f819d4a	1.0126126
99	0xbe1d76c4	-0.15377337
100	0x3d19a227	0.037508156
101	0xbf5d31b9	-0.86403996
102	0xbd61f405	-0.055164356
103	0xbfbcbbcb	-1.474481
104	0x3e613567	0.21993028
105	0xbf350fe1	-0.70727354
106	0x3d101d00	0.035183907
107	0xbda490cd	-0.08035431
108	0xbe567411	-0.20942713
109	0x3ecc1196	0.39857167
110	0xbe397e65	-0.18114622
111	0xbf5ab2b8	-0.85428953
112	0x3f91448b	1.1349043
113	0x3f975c26	1.1824996
114	0x3fdc2dcc	1.7201476
115	0x3f992873	1.1965469
116	0xbe27fcd9	-0.16405047
117	0xbfe5cf86	-1.7953956
118	0xbe9d385b	-0.30707058
119	0xbf0dbf54	-0.5537007
120	0x3f5e64cf	0.8687257
121	0xbf32f248	-0.6990094
122	0x3ff57ac6	1.9178092
123	0xbf729b86	-0.9476856
124	0x3c44745f	0.011990636
125	0xc010a4a7	-2.2600496
126	0x3eee1ecd	0.46507874
127	0xbf9fcc24	-1.2484174
128	0x3fa8d897	1.3191098
129	0x3ea3c583	0.31986627
130	0xbeb0cfd2	-0.34533554
131	0x3f5a5953	0.8529255
132	0x3f150c56	0.5822195
133	0xbff30005	-1.8984381
134	0x3faaf012	1.3354514
135	0xbeda6230	-0.42653036
136	0x3c27e4b6	0.0102474
137	0xbefdaba2	-0.49545008
138	0x3e9805bd	0.29691878
139	0x3f990906	1.1955879
140	0xbf92b98e	-1.1462877
141	0xbf1c18a4	-0.609751
142	0x3e8eda19	0.2790077
143	0xbcd2871c	-0.02569919
144	0x3dff75b6	0.124736235
145	0xbd1ef74a	-0.038810052
146	0xbf541610	-0.82846165
147	0xbeeacc88	-0.4585917
148	0xbf3e7b19	-0.7440658
149	0xbdcf2df6	-0.10116188
150	0x3db387d9	0.08766145
151	0xbfbeb153	-1.4897865
152	0x3fa948a1	1.322529
153	0xbd2d1cc3	-0.042263757
154	0x3f5aa118	0.8540206
155	0xbe827a97	-0.25484154
156	0xbef68fb6	-0.48156518
157	0x3f7d3163	0.98903483
158	0xbf56ca0f	-0.83902067
159	0x3fb0210b	1.3760084
160	0x3e5ee82d	0.21768256
161	0xbf46a091	-0.77588755
162	0x3f86fd90	1.0546131
163	0xbffba05d	-1.9658314
164	0x3f9cb9ac	1.2244163
165	0x3e933553	0.2875162
166	0x3fe28d13	1.7699302
167	0x3fa68c18	1.3011503
168	0x3ec2caf8	0.38045478
169	0x3fa8d143	1.3188862
170	0xbf8131f2	-1.0093367
171	0x3ff49ede	1.9110982
172	0x3e17be7a	0.14818755
173	0xbb24845b	-0.0025103304
174	0xbf39c604	-0.7256777
175	0xbfb6e729	-1.4289294
176	0x3fd4d931	1.6628782
177	0xbf772631	-0.9654265
178	0xbecad039	-0.39611986
179	0x3fe2afc7	1.7709893
180	0xbfcc62aa	-1.596761
181	0x3ff0c4fc	1.8810115
182	0xbd534c8a	-0.051586665
183	0xbd5cf2c5	-0.05394246
184	0x3f45daae	0.77286804
185	0x3e44abdb	0.19206183
186	0x3fdd133e	1.7271497
187	0x3e8ea49e	0.27859968
188	0xbef23a51	-0.47310117
189	0xbf36a6c2	-0.713482
190	0xbf81694e	-1.0110261
191	0xbf9865db	-1.1906084
192	0x3f270a1e	0.6524981
193	0x3fe1db90	1.764513
194	0x3f663592	0.8992549
195	0x3f15d78a	0.5853201
196	0xbe177e3a	-0.14794245
197	0xbe302527	-0.17201672
198	0x3e7c349d	0.24629445
199	0x3ecbc0d8	0.39795566
200	0x401b29ce	2.4244266
201	0xbf857292	-1.0425589
202	0xbd964bbd	-0.07338665
203	0xbf241f93	-0.6411068
204	0x3f2f745d	0.6853693
205	0x3fd91d97	1.6962155
206	0xbf682d76	-0.9069437
207	0x3fa7b851	1.3103124
208	0x3ecf1584	0.40446103
209	0x3f9ec221	1.2402993
210	0xbf9780fd	-1.1836239
211	0xbfd058b6	-1.6277072
212	0x3dcebaed	0.10094247
213	0xbeb35cd9	-0.35031775
214	0xbf42ac5e	-0.7604426
215	0x3f9213df	1.1412314
216	0xbe06aaea	-0.13151136
217	0xbf5f735f	-0.8728542
218	0xbfa90a50	-1.3206272
219	0x3e8cb062	0.2747832
220	0xbf8fe704	-1.1242375
221	0x3cca57d9	0.024700092
222	0xbe51358a	-0.2043058
223	0x3f44db87	0.7689747
224	0x3f53065e	0.8243159
225	0xbee03a10	-0.43794298
226	0xbf7c04bd	-0.9844473
227	0x3f78dc39	0.97211033
228	0xbfd11a5a	-1.6336167
229	0xbfad71ec	-1.3550391
230	0x3f8ec508	1.1153879
231	0xbf931dee	-1.1493509
232	0xbeac20b2	-0.33618695
233	0xbfccd274	-1.6001725
234	0x3f6739a4	0.9032233
235	0x3e545968	0.20737231
236	0x3ee60037	0.4492204
237	0x3d2bc382	0.041934498
238	0x3f6975da	0.9119545
239	0xc00e462d	-2.2230332
240	0xbe96ecdc	-0.29477584
241	0x3e40b172	0.1881769
242	0xbe527ebf	-0.20556162
243	0x400b40ea	2.175837
244	0xbf85f74f	-1.0466098
245	0x3e5e018c	0.21680278
246	0xbe825f9d	-0.25463572
247	0xbec09cd4	-0.3761965
248	0xbea204ef	-0.3164439
249	0x4011204f	2.267597
250	0xbe803d0f	-0.25046584
251	0xbfafaf2e	-1.3725336
252	0xbe7ece79	-0.2488345
253	0xbf948cad	-1.1605431
254	0x4003e27b	2.0606983
255	0x4027f91d	2.6245797

weight f4 [16]
0	0x408b6126	4.355609
1	0x4079f0f0	3.9053307
2	0x408a6b0c	4.3255672
3	0x406a4e1d	3.6610177
4	0x407c6217	3.943487
5	0x408892f5	4.267939
6	0x40801527	4.002582
7	0x409655e0	4.697983
8	0x40b50d6a	5.6578875
9	0x40bf445d	5.977095
10	0x40d6814a	6.7032824
11	0x40b35a9c	5.6048107
12	0x40b1334f	5.5375133
13	0x40b37897	5.6084704
14	0x40b73496	5.725169
15	0x40b71946	5.721835

bias f4 [16]
0	0xbfc3abcf	-1.5286807
1	0xbf062220	-0.5239582
2	0xc017a999	-2.3697264
3	0xbe22e171	-0.15906312
4	0xbf622539	-0.8833805
5	0xbfbfe7f9	-1.4992667
6	0xbf48418d	-0.7822502
7	0xbfe9b060	-1.825695
8	0xbee540bd	-0.44775954
9	0x3e62de6a	0.22155157
10	0xbfa0f53b	-1.2574838
11	0xbef91e23	-0.48655805
12	0x3eb9d2be	0.36293596
13	0x3f19af77	0.60033363
14	0xbf2e4938	-0.6808047
15	0xbe857066	-0.26062316

running_mean f4 [16]
0	0xc0131752	-2.2982984
1	0xc0a612ae	-5.18978
2	0x413708ce	11.43965
3	0xc166e221	-14.430207
4	0xbf889887	-1.0671548
5	0xc0a352f1	-5.1038747
6	0x4190b3fb	18.087881
7	0xc1c2b2fe	-24.337399
8	0xc10ae0a8	-8.679848
9	0xbf7deb1d	-0.9918688
10	0xbe84b443	-0.2591878
11	0x3f940788	1.1564798
12	0x402c56c7	2.6927965
13	0xc0eacbda	-7.337384
14	0x408fc293	4.4925017
15	0x413ee202	11.930178

running_var f4 [16]
0	0x439455c0	296.66992
1	0x4377b137	247.69225
2	0x43617713	225.46513
3	0x438cf9a5	281.95035
4	0x436a9956	234.59897
5	0x4392a5e2	293.29596
6	0x439e38c5	316.4435
7	0x43899a16	275.2038
8	0x42ff0f73	127.530174
9	0x42fb6248	125.691956
10	0x431bd8c8	155.8468
11	0x42e34b5d	113.647194
12	0x430ad5f4	138.83575
13	0x42f11dd0	120.55823
14	0x4315713a	149.44229
15	0x431bb0bd	155.69038

weight f4 [64, 96]
0	0x3ea04c44	0.31308186
1	0xbf943fdc	-1.1581988
2	0x3e4a8985	0.19779022
3	0xbcbb42e9	-0.022859054
4	0xbe85756c	-0.26066148
5	0xbfb079f2	-1.3787215
6	0xbeab532d	-0.33461896
7	0xbd25d522	-0.040486462
8	0x3e8f16fa	0.27947217
9	0x3f0b91e6	0.545195
10	0x3e55a25f	0.20862721
11	0x3ed0e1c5	0.40797248
12	0xbe4d1f7b	-0.2003154
13	0x3e0f6dcb	0.14006726
14	0xbf0d3619	-0.5516067
15	0xbec7ca87	-0.39021704
16	0xbe914854	-0.28375494
17	0x3ec37283	0.38173303
18	0x3e8c2ed0	0.27379465
19	0x3f07bbf3	0.5302116
20	0xbd61a8ed	-0.05509274
21	0x3df57c5a	0.11986609
22	0x3dcb519c	0.09927675
23	0xbf1040c8	-0.5634885
24	0xbf973bbd	-1.1815106
25	0xbf1b6b40	-0.60710526
26	0xbe556840	-0.2084055
27	0xbf50ce88	-0.8156514
28	0x3f5ea9fc	0.86978126
29	0x3f13f70c	0.5779884
30	0xbf463883	-0.7742998
31	0xbb7e4494	-0.00387982
32	0x3e2993c5	0.16560276
33	0x3edd2d95	0.4319884
34	0xbede9ca2	-0.43478876
35	0x3f5b2771	0.8560706
36	0xbd22b5fc	-0.039724335
37	0xbdf4be14	-0.11950317
38	0x3c082804	0.008310322
39	0x3efef714	0.4979788
40	0x3debaf24	0.11508015
41	0x3eb9a3e5	0.36257854
42	0x3f5770dd	0.8415659
43	0x3cf8541c	0.030313544
44	0x3dfe22f9	0.12409014
45	0xbf397d93	-0.72457236
46	0xbf59abb3	-0.8502762
47	0x3eb83226	0.3597576
48	0xbf1e0800	-0.6173096
49	0xbe768cf9	-0.24077214
50	0x3edbdda5	0.4294254
51	0xbc60086d	-0.013673884
52	0xbe34e333	-0.17664795
53	0x3ef13b89	0.47115734
54	0xbf04d0e9	-0.5188127
55	0xbeedf7c8	-0.46478105
56	0x3de74ad7	0.112935714
57	0xbeb818e4	-0.3595649
58	0xbe59eba4	-0.21281296
59	0x3f8897e5	1.0671355
60	0xbe990792	-0.29888588
61	0x3ecab9a0	0.39594746
62	0xbf2d12af	-0.67606634
63	0x3e88c8c0	0.2671566
64	0xbf532aed	-0.82487375
65	0xbe98ecf5	-0.29868284
66	0x3fa0c078	1.2558737
67	0x3e46d722	0.19418004
68	0xbf925637	-1.1432561
69	0xbd024938	-0.031808108
70	0x3e468d4a	0.19389835
71	0x3e04a2e5	0.12952764
72	0x3db3ca78	0.08778852
73	0x3f787cfa	0.970657
74	0xbecc17f2	-0.3986202
75	0x3f69b784	0.9129565
76	0xbdeb131e	-0.11478256
77	0xbe82885e	-0.25494665
78	0xbdcd7ab1	-0.10033167
79	0xbf2a3d60	-0.664999
80	0xbe50cc9f	-0.20390557
81	0xbe51954f	-0.20467113
82	0xbe83e559	-0.25760916
83	0x3f050452	0.5195972
84	0x3ed332ef	0.41249797
85	0xbef1ff92	-0.47265297
86	0x3f75b0a3	0.9597265
87	0xbf3770b1	-0.7165633
88	0xbe7b2f7f	-0.24529837
89	0xbd5a4331	-0.053286735
90	0xbdc172ce	-0.094457254
91	0x3e852824	0.26007187
92	0x3f1cc4b9	0.61237675
93	0xbf786bf4	-0.97039723
94	0x3f335cb0	0.70063305
95	0xbf1d5bc4	-0.6146815
96	0x3d217042	0.039413698
97	0xbdd88fd6	-0.105743095
98	0xbe4751cf	-0.19464801
99	0xbe3b3992	-0.1828368
100	0xbe6ea447	-0.23304854
101	0xbd483792	-0.04888112
102	0xbcf5f682	-0.03002477
103	0xbe6e5627	-0.23275052
104	0x3e912463	0.28348073
105	0x3dd93f08	0.106077254
106	0x3f151930	0.5824156
107	0x3e996d2a	0.29966098
108	0xbdfb9ffb	-0.12286373
109	0xbe828b31	-0.2549682
110	0x3e81e5e5	0.25370708
111	0x3e1e2f68	0.15447772
112	0x3eb768de	0.35822195
113	0xbe1b3450	-0.15156674
114	0x3ed31d35	0.4123322
115	0x3e2ae524	0.16688973
116	0x3de343ff	0.110969536
117	0xbe8a7268	-0.2704041
118	0xbe88ec8c	-0.2674297
119	0x3e4925f3	0.19643383
120	0xbe7335c7	-0.23750983
121	0x3f272440	0.6528969
122	0xbcaf27d7	-0.021381302
123	0x3df77f1c	0.12084791
124	0x3e62faa6	0.22165927
125	0xbf3f979d	-0.7484072
126	0xbf8e439c	-1.1114383
127	0xbf2a8202	-0.66604626
128	0xbeaf046e	-0.34183067
129	0x3e6f730b	0.23383729
130	0xbe3501b1	-0.17676426
131	0xbeb19258	-0.34681964
132	0xbc2c9bf8	-0.010535233
133	0xbefead45	-0.4974157
134	0x3c295cb2	0.010337042
135	0xbd0448ab	-0.032295864
136	0x3e729e47	0.2369319
137	0x3e966c05	0.29379287
138	0x3e8db054	0.2767359
139	0x3e52d223	0.20587973
140	0xbe88fe09	-0.26756313
141	0x3e2b3051	0.1671765
142	0x3e4f8983	0.202673
143	0xbf9626a6	-1.1730545
144	0xbe8e99db	-0.27851757
145	0x3da499e4	0.08037165
146	0x3eab89ab	0.3350347
147	0xbea85cd3	-0.3288332
148	0xbea7e1e5	-0.3278953
149	0x3d357633	0.044302177
150	0xbdf9abfb	-0.12191006
151	0x3e47971b	0.19491236
152	0x3e8087a2	0.2510348
153	0xbd8b6e6a	-0.06808169
154	0x3dea7380	0.11447811
155	0xbe44ea24	-0.19229943
156	0x3e4bce37	0.19902883
157	0xbed76147	-0.42066404
158	0x3ef6a28c	0.48170888
159	0x3f8a0610	1.07831
160	0xbef824e3	-0.48465642
161	0x3e877ab0	0.2646079
162	0x3e2a4690	0.1662848
163	0x3dd16e8f	0.102261655
164	0x3cd4bfd4	0.025970377
165	0xbe47292c	-0.194493
166	0xbe4684af	-0.19386552
167	0x3eb649ae	0.35603088
168	0x3bc34023	0.0059585734
169	0x3e67a75d	0.22622438
170	0x3e1db4d5	0.15401013
171	0x3e571ea8	0.21007788
172	0x3f491512	0.78547776
173	0xbf12b3e4	-0.5730574
174	0x3e8b98f0	0.2726512
175	0x3e70894a	0.23489872
176	0x3ecc204c	0.3986839
177	0x3ea8a233	0.32936248
178	0xbe700938	-0.23441017
179	0x3e02b68c	0.12764949
180	0x3e2baa0c	0.16764086
181	0xbe2b9ebd	-0.16759773
182	0xbe912308	-0.2834704
183	0x3eb5baae	0.35493988
184	0x3ec614dd	0.38687792
185	0xbf1b565b	-0.60678643
186	0x3ed04b70	0.40682554
187	0x3bcfb0d2	0.0063382173
188	0x3ebaa272	0.3645206
189	0x3eda96b8	0.42693114
190	0xbec2e163	-0.3806258
191	0xbe802dd1	-0.25034955
192	0x3e86566b	0.26237807
193	0xbf01acea	-0.5065447
194	0x3e67f006	0.22650155
195	0xbee00c21	-0.43759254
196	0xbed198bf	-0.4093685
197	0x3f5a5e49	0.8530012
198	0x3ea6a34c	0.3254646
199	0x3ccb7129	0.024834232
200	0xbed3ed17	-0.41391823
201	0xbf37c4a8	-0.7178445
202	0xbf4e8753	-0.8067524
203	0x3f6d5e7f	0.92722315
204	0x3f53dd75	0.8275979
205	0xbda5923f	-0.08084535
206	0x3e49e74e	0.19717142
207	0x3e6d4592	0.2317107
208	0xbf1141d9	-0.567411
209	0x3f79a0d9	0.9751106
210	0x3ee33e55	0.44383493
211	0xbe02e7ba	-0.12783709
212	0xbeeb6353	-0.45974216
213	0x3eb818ab	0.3595632
214	0x3dc9cb40	0.0985322
215	0xbf4fd09a	-0.81177676
216	0xbf32d978	-0.6986308
217	0x3dee06ce	0.11622392
218	0xbe2fe0dc	-0.17175621
219	0xbe531636	-0.20613942
220	0xbeb0b292	-0.34511238
221	0x3d93b530	0.07212293
222	0x3df97942	0.12181331
223	0xbe70ab2d	-0.23502798
224	0xbe6437c7	-0.22286902
225	0x3e17dbbd	0.14829917
226	0xbe0daab9	-0.13834657
227	0xbd908551	-0.07056678
228	0xbef7ad49	-0.48374394
229	0x3f0d0d35	0.5509828
230	0xbe77ab41	-0.24186422
231	0xbf49992b	-0.7874934
232	0xbde8bbe9	-0.11363966
233	0xbf9a8382	-1.2071383
234	0x3c40b9aa	0.011763016
235	0xbf089fdb	-0.5336892
236	0xbda9fdbf	-0.08300351
237	0x3f451825	0.76989967
238	0xbf39cd7e	-0.7257918
239	0x3f84d794	1.0378289
240	0xbf12f54e	-0.57405555
241	0xbeadca23	-0.3394328
242	0xbbad0ad2	-0.005280831
243	0xbe58ea26	-0.2118307
244	0xbde113d5	-0.10990111
245	0x3de0979e	0.10966419
246	0x3ef32181	0.474865
247	0x3ed38b4a	0.41317207
248	0x3e7c6279	0.2464694
249	0xbd140441	-0.03613687
250	0x3ead95e6	0.33903426
251	0x3dbed2ae	0.09317528
252	0xbecb12c0	-0.39662743
253	0xbf89838b	-1.0743269
254	0xbf13ddee	-0.5776051
255	0xbda63c96	-0.081170246

bias f4 [64]
0	0x3f2c6122	0.6733571
1	0x3f434519	0.7627731
2	0xbe71d64b	-0.23616903
3	0xbe71fdb9	-0.23631944
4	0x3eba9056	0.36438245
5	0x3ebfaf3f	0.3743839
6	0x3eb4fcd4	0.35349143
7	0xbecbf150	-0.39832544
8	0xbe2d6cca	-0.16936031
9	0x3f5de052	0.8667041
10	0x3d386c0a	0.04502491
11	0x3ea02bb3	0.3128334
12	0x3f0b7af5	0.5448449
13	0xbdef0ab9	-0.11671967
14	0x3ed06b21	0.40706733
15	0xbe46debe	-0.19420907
16	0xbe83c6a4	-0.25737488
17	0xbce1b1df	-0.027550636
18	0x3ee608eb	0.4492868
19	0xbdfe7406	-0.124244735
20	0x3ea8fbbe	0.33004564
21	0x3f5d18f7	0.8636622
22	0x3d0445ef	0.032293256
23	0xbcf9d93b	-0.030499091
24	0xbe83a1b7	-0.25709316
25	0x3f0ab39a	0.541803
26	0x3e484ba1	0.195601
27	0x3e8692d3	0.26283893
28	0xbe615bbb	-0.22007649
29	0xbd97e883	-0.07417395
30	0xbde0129b	-0.10941049
31	0xbd1b4429	-0.0379068
32	0x3e8c4e3b	0.27403435
33	0xbd60324d	-0.05473547
34	0x3e872497	0.26395103
35	0xbe14cd1f	-0.14531372
36	0xbe7ad09b	-0.24493639
37	0x3cb4dcdc	0.02207797
38	0xbe6120a5	-0.21985109
39	0xbe244343	-0.16041283
40	0x3f57acb0	0.84247875
41	0x3eccee36	0.4002549
42	0xbe11affc	-0.14227289
43	0x3f2a7891	0.6659022
44	0xbaab4a3d	-0.0013068389
45	0xbe6c60db	-0.23083822
46	0x3ee59885	0.44842926
47	0x3ec15f20	0.37767887
48	0x3f331475	0.6995309
49	0xbe8d5de1	-0.27610686
50	0xbd289737	-0.041159835
51	0x3e7be815	0.24600251
52	0xbe41afee	-0.18914768
53	0x3e9a6dab	0.30161795
54	0xbe33ee9c	-0.17571491
55	0xbe02b7f2	-0.12765482
56	0x3d232ee6	0.039839648
57	0x3f0863c1	0.5327721
58	0xbe4744eb	-0.19459884
59	0x3f0eb161	0.5573941
60	0xbe2321b2	-0.15930822
61	0xbe2c38f4	-0.16818601
62	0x3e8b72d1	0.27236035
63	0xbb8c2b7e	-0.0042776456

weight f4 [1, 64]
0	0x3faa0395	1.3282343
1	0x3f207ea0	0.62693214
2	0xc007034d	-2.1095765
3	0xc002004a	-2.0312676
4	0x3ff4d029	1.9126025
5	0x3f188620	0.5957966
6	0x3f43afed	0.76440316
7	0xc0296a18	-2.6471004
8	0xc02f6ae6	-2.7408996
9	0x3f2c69b1	0.6734877
10	0xbe98904c	-0.2979759
11	0x400ff1ff	2.2491453
12	0x3fcc9f46	1.5986106
13	0xbf119848	-0.5687299
14	0x3f99304b	1.1967863
15	0xbfe82a8f	-1.8137988
16	0xc008e0f0	-2.138729
17	0xbd842a0e	-0.06453334
18	0x3f937cbf	1.1522444
19	0xc00ba1fa	-2.1817613
20	0x3f26c8fc	0.6515043
21	0x3f15aa02	0.58462536
22	0xbd8f2934	-0.06990281
23	0xc02e5621	-2.724007
24	0xbfc2b5d8	-1.5211744
25	0x3f39b89c	0.72547317
26	0x3f97c970	1.1858349
27	0x3fe78f23	1.8090557
28	0xc009fed6	-2.156179
29	0xbed0599d	-0.4069337
30	0xbfc6eb8a	-1.5540631
31	0xbfa1d0b0	-1.2641811
32	0x3fd3c438	1.6544256
33	0xbfefa0a4	-1.8720899
34	0x3ff1a699	1.8878967
35	0xc012bbd8	-2.292715
36	0xbfc3b4da	-1.5289567
37	0x3f114dc0	0.5675926
38	0xc0061e58	-2.095602
39	0xc0152275	-2.330228
40	0x3ed26de9	0.4109948
41	0x3fc4b7ef	1.5368632
42	0xc010d5d2	-2.2630506
43	0x3eda2279	0.42604426
44	0xbfac00b6	-1.3437717
45	0xbff07806	-1.8786628
46	0x3f95f81a	1.171634
47	0x3eeeb876	0.46625108
48	0x3fa24b99	1.267932
49	0xbfd993a9	-1.6998187
50	0xbf8d4e82	-1.1039584
51	0x3e2cceb7	0.1687573
52	0xc01df494	-2.4680529
53	0x3fb38320	1.4024391
54	0xc026b496	-2.604772
55	0xbfd07d96	-1.6288326
56	0x3f718e88	0.9435811
57	0x3f8a690e	1.081331
58	0xc00c7d1f	-2.1951368
59	0x3ef04479	0.4692724
60	0xbfbe28cf	-1.4856204
61	0xc00db098	-2.2139034
62	0x4018511a	2.37995
63	0x3f2ea9d6	0.682279

weight f4 [64, 96]
0	0x3de29459	0.11063451
1	0x3f417667	0.7557129
2	0xbdc4170b	-0.095747076
3	0x3d00eeb6	0.031477652
4	0xbf3afe5d	-0.7304438
5	0xbe3e3735	-0.18575747
6	0x3f2972fa	0.66191065
7	0x3ecffcc2	0.40622526
8	0xbf014f6f	-0.5051183
9	0xbd9f9c3c	-0.07793471
10	0xbecc73f8	-0.39932227
11	0x3ea80d72	0.32822758
12	0x3e349a65	0.17637022
13	0xbf04b658	-0.51840734
14	0xbd575295	-0.05256899
15	0x3ce282d2	0.02765027
16	0x3d8fcf13	0.07021918
17	0xbe545450	-0.20735288
18	0x3de47b95	0.11156384
19	0xbdf61cbb	-0.12017199
20	0x3ec148b1	0.37750772
21	0x3e8f7a42	0.28022963
22	0x3f3609f7	0.71108955
23	0xbeab8a26	-0.33503836
24	0xbf4dae77	-0.8034434
25	0xbf44407e	-0.7666091
26	0xbf5b3774	-0.8563149
27	0xbe808862	-0.25104052
28	0x3e8d50e8	0.2760079
29	0x3e8f3ec2	0.27977568
30	0xbe3454e2	-0.17610505
31	0xbed2c0d2	-0.41162735
32	0xbf4ef719	-0.8084579
33	0xbf15698f	-0.58364195
34	0x3e3d6354	0.18494922
35	0x3e7f3893	0.24923925
36	0xbe8a22bb	-0.26979622
37	0xbf4e2576	-0.8052591
38	0xbf1118c1	-0.56678396
39	0xbd95f38d	-0.07321844
40	0x3de83226	0.1133769
41	0x3e56d1f9	0.20978536
42	0xbe6203b0	-0.22071719
43	0x3e10c9f4	0.14139539
44	0xbe753b10	-0.23948312
45	0x3d585613	0.05281646
46	0x3e5c391c	0.2150616
47	0xbda1ce41	-0.07900668
48	0x3ca73f22	0.020415846
49	0x3f37294f	0.71547407
50	0xbe5ee32a	-0.21766344
51	0x3d9de46d	0.077095844
52	0x3d9764fe	0.073923096
53	0x3f52e763	0.8238432
54	0x3f250389	0.6445852
55	0x3e870d67	0.26377413
56	0xbe7b7da0	-0.24559641
57	0xbedde3c0	-0.43337822
58	0x3ee32ef0	0.44371748
59	0x3e21c0c9	0.15796198
60	0xbf06671a	-0.5250107
61	0xbc9a7a59	-0.018857168
62	0x3f28425e	0.6572627
63	0x3f1efc9f	0.6210422
64	0xbe72ec0d	-0.23722859
65	0x3ea08e71	0.31358674
66	0x3f5f26a0	0.8716831
67	0x3cf959cc	0.030438326
68	0xbe1ba2e8	-0.15198863
69	0x3e9357a0	0.2877779
70	0x3eaa57cb	0.33270106
71	0xbf083f95	-0.5322202
72	0xbf12ce89	-0.573464
73	0x3dc30a2e	0.09523426
74	0x3d9acfad	0.07559142
75	0xbe9ce4f7	-0.30643436
76	0xbe0bc76d	-0.13650294
77	0x3ebc1d33	0.36741027
78	0x3e798958	0.24368799
79	0xbf16dcd7	-0.58930725
80	0xbea28251	-0.3174005
81	0xbf5c8378	-0.86138105
82	0xbe07915e	-0.13239047
83	0x3f49e66c	0.7886722
84	0xbf99ecf5	-1.2025439
85	0xbf81e775	-1.014876
86	0xbf085272	-0.532508
87	0x3f12c0a2	0.57325184
88	0xbce6179e	-0.028087433
89	0xbebfa78f	-0.37432525
90	0x3eecce95	0.4625136
91	0x3e727584	0.23677641
92	0xbdca2db2	-0.09871997
93	0x3f3dbbea	0.7411486
94	0x3eb425cf	0.35185096
95	0x3dc670e0	0.09689498
96	0xbd946c70	-0.07247245
97	0xbe1bd561	-0.15218116
98	0x3e4d58b6	0.20053372
99	0x3ebabd47	0.36472532
100	0x3ebb5ddb	0.36595044
101	0xbe324196	-0.17407832
102	0xbe2211c0	-0.15827084
103	0x3df1b982	0.11802961
104	0xbd6c3672	-0.05766911
105	0x3e8dfdd2	0.27732712
106	0xbd0b8f96	-0.03407248
107	0x3ec538ef	0.3852
108	0xbe574cf3	-0.21025448
109	0x3e9d1f30	0.30687857
110	0xbe2643b1	-0.1623676
111	0xbaf6353f	-0.0018784179
112	0xbe1e0631	-0.1543205
113	0xbeb50dbf	-0.3536205
114	0xbde32d1d	-0.11092589
115	0xbd671436	-0.05641576
116	0xbd39ef20	-0.045394063
117	0xbed2d6ce	-0.41179508
118	0x3dcb2dd0	0.099208474
119	0xbe07cfa5	-0.13262804
120	0x3ec655b1	0.38737252
121	0x3eefb1ff	0.46815488
122	0x3ef72ba8	0.48275495
123	0x3e6ad403	0.22932439
124	0x3d319e95	0.043364126
125	0xbece4d28	-0.4029324
126	0x3df1ee0e	0.118129835
127	0xbcc84147	-0.02444519
128	0x3e191143	0.14947991
129	0x3d990118	0.07470912
130	0x3e4918ee	0.19638416
131	0x3c8aa2fd	0.016923422
132	0x3e8c0dcf	0.27354285
133	0xbed75972	-0.4206043
134	0xbde9abbb	-0.11409708
135	0x3df16bb6	0.11788122
136	0x3dda35b6	0.10654776
137	0xbeb4e429	-0.35330322
138	0x3edf5f73	0.4362751
139	0x3e281f3c	0.16418165
140	0x3ee0ec98	0.43930507
141	0x3ee8ebf3	0.45492515
142	0x3e28799a	0.16452637
143	0xbeb58939	-0.35456255
144	0xbe4fdfee	-0.20300266
145	0x3e4af327	0.19819318
146	0xbd0dc5b5	-0.034612376
147	0x3d4956ee	0.04915517
148	0x3d11bfc8	0.035583287
149	0xbe5fde37	-0.21862112
150	0xbee9b50e	-0.45645946
151	0xbe8118c6	-0.25214213
152	0x3ca5a673	0.02022097
153	0xbd8b793a	-0.068102315
154	0x3e1d621c	0.15369457
155	0xbeb57fbc	-0.35449016
156	0xbe94d2f1	-0.29067186
157	0xbda6cfcd	-0.081451036
158	0xbebccc7a	-0.36874753
159	0x3e0abdc3	0.13548951
160	0x3ea64f9b	0.3248261
161	0xbd78ab45	-0.06071021
162	0xbe787b6b	-0.2426583
163	0x3e2c80aa	0.16845956
164	0xbecc1daf	-0.39866397
165	0x3e240b6d	0.16019984
166	0xbe127014	-0.14300567
167	0x3ea1bee3	0.31590948
168	0xbd6b8632	-0.057501025
169	0xbe61af71	-0.22039582
170	0xbe838ec7	-0.25694868
171	0x3e42ef97	0.19036709
172	0x3e2ed397	0.17072903
173	0xbecd72a3	-0.40126523
174	0xbe6b5037	-0.22979818
175	0x3daa23b2	0.083075896
176	0x3d6f8841	0.05847955
177	0x3f007d0f	0.50190824
178	0xbed2ef3a	-0.4119814
179	0x3e89f009	0.26940945
180	0x3d3ec698	0.046576113
181	0xbec4f58c	-0.38468587
182	0xbd6230b8	-0.055222243
183	0xbe1ad4b4	-0.15120202
184	0x3e97cacc	0.2964691
185	0x3e0dbad5	0.13840802
186	0x3dbd8b97	0.0925514
187	0xbf218b6e	-0.6310338
188	0x3f0776e5	0.52915794
189	0x3ccff4eb	0.02538534
190	0x3e891821	0.2677622
191	0x3ebd84f7	0.37015507
192	0xbd27bddb	-0.040952545
193	0xbef5e4df	-0.48026177
194	0x3e1fe92b	0.1561629
195	0x3e03f8bf	0.12887858
196	0xbe0e390c	-0.13888949
197	0xbe1c82bc	-0.15284246
198	0x3ec232f0	0.37929487
199	0x3d3daea2	0.04630912
200	0xbe584384	-0.21119505
201	0xbe11ae84	-0.14226729
202	0xbefe4c89	-0.49667767
203	0x3eaadfb5	0.333738
204	0x3f2391b4	0.638942
205	0xbe546cb1	-0.20744587
206	0x3cfb3f0b	0.03066971
207	0x3e98696f	0.2976794
208	0x3efc8714	0.49321806
209	0xbef569eb	-0.47932371
210	0xbe02b635	-0.12764819
211	0xbe734413	-0.23756437
212	0x3ed54bcc	0.4165939
213	0xbf8b0584	-1.0861058
214	0x3e55cbb1	0.20878483
215	0xbf4c1d1a	-0.79731905
216	0xbdd262d5	-0.10272757
217	0xbe829c42	-0.2550984
218	0xbed44486	-0.4145853
219	0xbf79c239	-0.97561985
220	0xbf218781	-0.6309739
221	0xbddfc126	-0.10925512
222	0x3f23cb88	0.6398244
223	0xbdf4326f	-0.11923682
224	0x3eac9e61	0.33714584
225	0x3f19bd36	0.6005434
226	0xbea95ec3	-0.3308011
227	0x3eb7b445	0.35879722
228	0xbf199c3d	-0.60004026
229	0x3dcfeef2	0.10152997
230	0xbeb5d496	-0.35513753
231	0xbe920932	-0.2852264
232	0x3f0494c0	0.51789474
233	0xbec0cc0c	-0.37655675
234	0xbc8c6dcf	-0.017142205
235	0xbe85343d	-0.26016417
236	0x3e15ef83	0.14642148
237	0x3e83a6fd	0.2571334
238	0x3eed0f32	0.46300656
239	0xbeca35e5	-0.39494243
240	0x3e8ea065	0.27856746
241	0xbe0bfc41	-0.13670446
242	0xbe3e9ad6	-0.18613753
243	0x3d27db33	0.04098053
244	0x3e731e39	0.23741998
245	0x3f09e8ed	0.5387104
246	0x3f083aed	0.53214914
247	0xbed438a6	-0.4144947
248	0xbf7246be	-0.94639194
249	0xbe9c1ba8	-0.3048985
250	0x3edb5204	0.4283601
251	0x3e999fa2	0.30004603
252	0x3f1a82b4	0.6035569
253	0x3e88f8a8	0.2675221
254	0x3f415224	0.7551596
255	0xbf229aa7	-0.6351723

bias f4 [64]
0	0xbb3f3139	-0.0029173626
1	0xbd8e5a51	-0.0695082
2	0xbdc3e117	-0.09564417
3	0x3dc98759	0.09840269
4	0x3cffcca8	0.031225517
5	0xbc95c3e0	-0.018281877
6	0x3dce8dd8	0.10085648
7	0xbb8c9731	-0.0042904844
8	0xbb1777ef	-0.0023112257
9	0x3d81e540	0.06342554
10	0x3db91205	0.0903664
11	0x3d3e1c5c	0.046413764
12	0xbd9da452	-0.07697357
13	0x3b95343f	0.0045533474
14	0xb919b9a6	-0.00014660376
15	0x3b8a4083	0.004219116
16	0xbd830491	-0.06397355
17	0xbd73cba2	-0.05952037
18	0x3e0715b6	0.13191876
19	0x3db648ee	0.08900629
20	0x399f069c	0.00030331768
21	0x3cb6416e	0.022247996
22	0xbd1790ac	-0.037003204
23	0x3d8083fa	0.062751725
24	0xbdd27ad7	-0.10277336
25	0xbd5235fd	-0.05132102
26	0xbd4bcfa1	-0.049758557
27	0xbdaa0488	-0.083016455
28	0xbd18eb80	-0.037333965
29	0xbe6797c3	-0.22616486
30	0xbe1b5592	-0.15169361
31	0xbe0331e8	-0.12812006
32	0x3d3b96d0	0.045798123
33	0x3e057f59	0.1303686
34	0xbd43e8f5	-0.047829587
35	0x3c888baa	0.01666816
36	0x3d8366c1	0.06416083
37	0x3dffad51	0.12484229
38	0x3a3b160c	0.0007136769
39	0x3ddde253	0.108341835
40	0xbc8f6f75	-0.017509202
41	0xbdd0fdb7	-0.10204642
42	0xbd38f6c1	-0.045157198
43	0xbdd9fbd5	-0.10643736
44	0x3d7fd714	0.062460974
45	0x3e3e8cd1	0.18608405
46	0x3b13d8c1	0.0022559615
47	0x39e9d735	0.00044601565
48	0xbd3fba27	-0.046808388
49	0xbd2595bf	-0.040426012
50	0xbda38d5b	-0.07985946
51	0x3e196cae	0.14982864
52	0xbd7c8002	-0.061645515
53	0xbd0d6415	-0.034519274
54	0xbd1f602f	-0.038910087
55	0xbc3a1f79	-0.011360043
56	0xbc08c680	-0.008348107
57	0xbd87b231	-0.06625784
58	0x3dba7a17	0.09105318
59	0xbb6f7088	-0.003653558
60	0xbd2c4a10	-0.04206282
61	0xbc2a6b94	-0.010401625
62	0x3e27b370	0.16377044
63	0xbcdeb20d	-0.02718451

weight f4 [128, 64]
0	0x3e8aee60	0.2713499
1	0xbe408ab4	-0.18802911
2	0xbe9933b3	-0.29922256
3	0xbe1e7e5b	-0.15477888
4	0xbd39f832	-0.045402713
5	0x3f052b05	0.5201877
6	0xbda3410e	-0.079713926
7	0xbe19f7f0	-0.15035987
8	0x3decfb75	0.11571399
9	0x3d623599	0.055226896
10	0xbcdfeea3	-0.02733547
11	0xbc9fa586	-0.019488107
12	0xbe78a960	-0.24283361
13	0xbec30847	-0.38092253
14	0x3e390e75	0.18071921
15	0x3e92a431	0.28640893
16	0x3ed91e2f	0.4240584
17	0xbe61530d	-0.22004338
18	0x3d60f187	0.05491784
19	0x3ccede5d	0.025252515
20	0x3e6dda78	0.2322787
21	0x3d629da1	0.055326108
22	0x3e082de3	0.13298754
23	0xbe21c721	-0.15798618
24	0x3db7eb96	0.08980481
25	0xbd479af3	-0.048731755
26	0x3df205e1	0.118175276
27	0x3e1fb150	0.15594983
28	0x3e351e2d	0.17687292
29	0x3e7cd4dd	0.24690576
30	0xbe689671	-0.22713639
31	0xbd1b1060	-0.037857413
32	0x3cb794f5	0.022409895
33	0x3e01befa	0.12670508
34	0xbd68e147	-0.056855466
35	0x3eb80696	0.35942525
36	0x3d8448cd	0.06459198
37	0xbd94d49c	-0.072671145
38	0xbe68b766	-0.22726211
39	0xbd5b3a8f	-0.053522643
40	0x3e1b18fc	0.1514625
41	0x3e09eae4	0.1346851
42	0xbdbb1d96	-0.091365024
43	0x3ef60f9c	0.48058784
44	0xbea725f3	-0.3264614
45	0x3e998335	0.29982916
46	0xbe1b197e	-0.15146443
47	0x3ead7c56	0.33883923
48	0xbe917cda	-0.28415567
49	0xbca73d1d	-0.020414883
50	0x3db46d09	0.08809859
51	0xbdc7f867	-0.09764176
52	0xbd87a7ff	-0.066238396
53	0xbc17f5ba	-0.009274894
54	0xbbc4ea67	-0.0060093882
55	0x3db141fa	0.08655162
56	0x3e108406	0.14112863
57	0xbe118617	-0.14211307
58	0xbe047dd0	-0.12938619
59	0x3e0331fd	0.12812038
60	0x3e0d8e35	0.13823779
61	0x3d94e325	0.07269887
62	0xbe3b372d	-0.18282767
63	0xbd3e0597	-0.04639205
64	0xbe218796	-0.15774378
65	0xbe96fee8	-0.29491353
66	0xbed60ee6	-0.41808242
67	0xbc841845	-0.016124854
68	0xbcc2d3b7	-0.023782594
69	0xbd45a8da	-0.048256733
70	0xbe39a0c6	-0.18127736
71	0x3dd076e0	0.101789236
72	0xbe0d3145	-0.13788326
73	0xbe78a45b	-0.24281447
74	0x3ca7e784	0.020496137
75	0x3d894d9c	0.06704256
76	0xbe5c3eca	-0.21508327
77	0xbdcaaaed	-0.09895883
78	0xbd85434e	-0.06506978
79	0xbe506a5c	-0.20353073
80	0xbe2c8c80	-0.16850471
81	0xbeafb47a	-0.3431738
82	0xbe06bf8d	-0.13159008
83	0xbe18e13a	-0.14929667
84	0x3af5c542	0.0018750804
85	0x3e4c5006	0.19952402
86	0x3c9d9254	0.019234814
87	0xbd2d64b1	-0.042332355
88	0xbe9f8ed2	-0.3116365
89	0xba653f35	-0.00087450753
90	0x3c84200a	0.016128559
91	0x3e139429	0.14411987
92	0xbd910749	-0.07081468
93	0xbf185256	-0.59500635
94	0xbe5a23c3	-0.21302705
95	0xbd61a36f	-0.055087503
96	0xbc363a32	-0.011122273
97	0xbdf3ec08	-0.11910254
98	0x3e1ac9ce	0.15116045
99	0xbe5d6994	-0.21622306
100	0x3d9baa1a	0.07600804
101	0x3d093045	0.0334933
102	0xbe34bfe5	-0.17651327
103	0x3dd3c339	0.1033997
104	0xbe1440bc	-0.14477819
105	0x3e6c0d01	0.23051836
106	0x3cc56f28	0.024100855
107	0xbe2766f6	-0.1634787
108	0xbdcdc8e3	-0.10048082
109	0xbf025041	-0.5090371
110	0xbdd812f3	-0.10550489
111	0x3ea2b6ef	0.31780192
112	0xba8dd363	-0.0010820444
113	0x3dc50fdf	0.09622168
114	0xbe53673b	-0.20644848
115	0xbead4a36	-0.3384568
116	0xbe113408	-0.14180005
117	0xbdfbb581	-0.122904785
118	0xbd99e071	-0.07513512
119	0x3e21f2b0	0.15815234
120	0xbd32b91b	-0.04363356
121	0xbd916824	-0.070999414
122	0xbdcbe537	-0.09955829
123	0xbecf2fe6	-0.4046623
124	0x3dd1b40e	0.10239421
125	0xbdd09862	-0.10185315
126	0xbde74346	-0.11292128
127	0x3d56fe44	0.05248858
128	0x3cbabc7c	0.022794954
129	0xbe2bb74e	-0.16769144
130	0x3d9deef5	0.07711593
131	0x3b29b057	0.002589246
132	0xbe33cb99	-0.17558135
133	0x3d4f01ff	0.050539013
134	0xbe00147a	-0.12507811
135	0xbe03aa70	-0.12857985
136	0x3e1aa554	0.1510213
137	0x3e8a7d78	0.2704885
138	0xbe140469	-0.14454807
139	0x3e0c185d	0.13681169
140	0xbe1441e7	-0.14478265
141	0xbe45dbf2	-0.19322184
142	0x3e163335	0.14667971
143	0x3e748116	0.23877367
144	0x3e910c5f	0.2832975
145	0x3e02912b	0.1275069
146	0x3d582469	0.0527691
147	0x3e260e4a	0.16216388
148	0xbe019dba	-0.12657824
149	0x3d20da8c	0.039270923
150	0x3d9c7433	0.07639351
151	0x3e516312	0.20447949
152	0xbb656d94	-0.003500794
153	0xbde726ac	-0.11286673
154	0x3de9406e	0.11389242
155	0x3ecc9d2c	0.39963663
156	0x3e96e9f3	0.29475364
157	0x3e9dbecc	0.3080963
158	0x3d9808fb	0.07423588
159	0x3e54782f	0.20748971
160	0x3da79880	0.08183384
161	0xbdc58062	-0.09643628
162	0xbe3acb9c	-0.18241733
163	0x3e07c1f7	0.13257585
164	0x3d923f2c	0.07140955
165	0xbe1c667f	-0.15273474
166	0x3e4d4813	0.20047025
167	0xbdab72e4	-0.08371523
168	0x3e99d11b	0.30042347
169	0x3db49993	0.088183545
170	0x3e2fc14e	0.17163584
171	0xbd03f5d6	-0.03221687
172	0x3e11b41d	0.14228864
173	0x3e5fb58d	0.218466
174	0x3ea83677	0.32854053
175	0xbe9b1223	-0.30287275
176	0x3f29ef84	0.66381097
177	0x3e01ede6	0.12688407
178	0x3e05538d	0.13020153
179	0x3e45f01e	0.19329879
180	0xbad0e049	-0.0015935983
181	0x3ed86df2	0.42271382
182	0xbc336cd8	-0.010951243
183	0xbd80d85b	-0.062912665
184	0xbda8c064	-0.082398206
185	0x3c0357f0	0.008016571
186	0xbcd416cc	-0.025889777
187	0x3cac0b64	0.021001525
188	0x3dd24df8	0.102687776
189	0xbd0ff21f	-0.035143014
190	0x3e41a8ac	0.18912
191	0xbd0841f6	-0.03326603
192	0xbeb704e2	-0.35745913
193	0xbea348c6	-0.3189146
194	0x3e204479	0.1565112
195	0x3e599a52	0.21250275
196	0xbca632e5	-0.02028794
197	0x3e414b03	0.18876271
198	0x3e4cd3c3	0.20002656
199	0xbd55f662	-0.052236922
200	0xbd3cb052	-0.04606659
201	0xbdeb8b44	-0.11501172
202	0xbd8b2a90	-0.067952275
203	0x3d00aa57	0.03141245
204	0x3e1b5467	0.15168916
205	0xbdeca178	-0.11554235
206	0x3dcaf7e9	0.09910566
207	0x3f1136c2	0.5672418
208	0xbd42c7ee	-0.04755395
209	0x3c8a0047	0.016845835
210	0x3e873530	0.26407766
211	0x3e1b6d7b	0.15178482
212	0x3e24798c	0.16061991
213	0xbdc5d48c	-0.09659681
214	0x3d70d7f9	0.058799718
215	0x3ea6d1ed	0.32582036
216	0x3eb0773d	0.34465972
217	0x3d3e028e	0.046389155
218	0xbdebb8f2	-0.11509885
219	0x3d24ff40	0.040282488
220	0xbcd7577e	-0.026286837
221	0x3e801656	0.2501704
222	0xbe3cca7a	-0.18436614
223	0xbc39933a	-0.011326605
224	0x3e998601	0.2998505
225	0x3e85b8bc	0.26117504
226	0x3e1ceb52	0.15324143
227	0x3dc7678c	0.09736547
228	0x3cd3941a	0.025827456
229	0xbd9dab39	-0.07698674
230	0xbd872171	-0.06598175
231	0x3e58e48c	0.21180934
232	0x3e048e72	0.12944964
233	0x3e7414c4	0.23836046
234	0xbd0a8e6c	-0.03382723
235	0x3e8f06a8	0.27934766
236	0xbe111e80	-0.14171791
237	0x3ec69da7	0.38792154
238	0x3e58d3a3	0.21174483
239	0x3e284f93	0.16436605
240	0x3eb51132	0.3536468
241	0x3e7b854a	0.24562564
242	0x3e99a9c6	0.3001234
243	0xbe250800	-0.16116333
244	0x3eea344d	0.45743027
245	0xbd7778a3	-0.060417783
246	0xbd759dbf	-0.05996489
247	0x3cec4e01	0.028845789
248	0xbe2781fe	-0.16358182
249	0xbc7d3e0e	-0.0154566895
250	0xbe2bf13e	-0.16791245
251	0xbf0d2e2c	-0.5514858
252	0x3e78faa6	0.24314365
253	0x3d7c6f59	0.061629627
254	0xbe59d7b6	-0.21273693
255	0xbd5770e8	-0.05259791
