checkpoints/test.pth (torch, 106885 bytes, 27 tensors)

weight f4 [8, 1, 3, 3]
0	0xc04bc037	-3.1836069
1	0x4060a6f3	3.5101898
2	0x4022bca7	2.5427644
3	0x40d694d3	6.705667
4	0xc00e4a8d	-2.2233002
5	0x3eae4b42	0.34041792
6	0x407429ce	3.8150516
7	0xc10a6edf	-8.652068
8	0xc0fd57f4	-7.9169865
9	0x402e86cf	2.726978
10	0xc0614958	-3.5201015
11	0x3ea5c698	0.32378078
12	0x40a273dd	5.0766435
13	0xbfa7226c	-1.305738
14	0x402cd06d	2.7002213
15	0xbe91b9b6	-0.28462
16	0xc1014881	-8.080201
17	0x4082eeb1	4.091637
18	0xc06e68fd	-3.725158
19	0xc00f3a69	-2.23794
20	0xc0136a9c	-2.303382
21	0xc0f801b2	-7.750207
22	0xc06b54a7	-3.6770418
23	0x403f32ee	2.9874835
24	0x4002418f	2.0352514
25	0x3f62c8d4	0.8858769
26	0x3ff47c98	1.9100523
27	0xc062cd29	-3.543772
28	0x3f12aaa1	0.5729161
29	0x3e0ac67a	0.13552275
30	0x3fa15bac	1.2606101
31	0x4082fe40	4.0935364
32	0x4040904e	3.0088077
33	0x3e6ca702	0.23110583
34	0x40062ede	2.0966105
35	0xbfc75de5	-1.5575529
36	0xc0e1a715	-7.0516458
37	0xbfe18412	-1.761843
38	0xc03633c1	-2.8469088
39	0x403da32f	2.963085
40	0x404f69a8	3.2408237
41	0x3fe8c81a	1.8186066
42	0xbec043f4	-0.37551844
43	0xc0e6d5f5	-7.213618
44	0x40575ca6	3.3650298
45	0xc065b4ff	-3.5891721
46	0x40e717dd	7.221663
47	0x40076b0f	2.1159093
48	0xc0f718a9	-7.7217603
49	0xc05f6fd4	-3.4912004
50	0xc0f7d940	-7.74527
51	0x4011c202	2.2774663
52	0x409f6286	4.980777
53	0x3ba5bf43	0.0050582006
54	0x40ad9a38	5.4250755
55	0xbfaf0b2e	-1.3675287
56	0xbf6565fb	-0.89608735
57	0xbf67c287	-0.905312
58	0xbd84b9a4	-0.06480721
59	0x3f80cb42	1.0062029
60	0x3fa76cb5	1.308005
61	0x4048e684	3.1390696
62	0x40375a23	2.8648765
63	0x3f160bda	0.58611834
64	0xbfaee35f	-1.3663138
65	0x40ecc35c	7.3988476
66	0xc07e931c	-3.9777288
67	0xbed52c78	-0.4163549
68	0x3e918ff0	0.28430128
69	0xc0d311f3	-6.595941
70	0xc00427cf	-2.0649297
71	0xbf19b8bd	-0.60047513

weight f4 [8]
0	0x410d7c14	8.8427925
1	0x40adb7bf	5.42868
2	0x4119719b	9.590236
3	0x4093d849	4.620152
4	0x40b28074	5.5781803
5	0x40df752a	6.9830523
6	0x40aead6b	5.458669
7	0x40f8d86f	7.77642

bias f4 [8]
0	0x3fa82bf2	1.3138411
1	0xbfdafe39	-1.7108833
2	0xc03d56f6	-2.9584327
3	0x3fc8802c	1.5664115
4	0x3f981da9	1.1884052
5	0x3fbd7466	1.4801147
6	0x3e4151bb	0.18878834
7	0xbea9e24a	-0.33180457

running_mean f4 [8]
0	0xbf59aa17	-0.8502516
1	0x3e3505cf	0.17677997
2	0xbfca8b7c	-1.5823817
3	0x3f6ca0a2	0.92432606
4	0xbf83a753	-1.0285438
5	0xbf5cf727	-0.86314625
6	0x3fc5a252	1.5440161
7	0xbf8340cd	-1.0254151

running_var f4 [8]
0	0x3f0515e5	0.51986533
1	0x3dbaf0e4	0.091279775
2	0x3f0a15b6	0.5393938
3	0x3e55ad52	0.20866898
4	0x3e6ba8f8	0.23013675
5	0x3e87e687	0.26543066
6	0x3ee353bd	0.44399825
7	0x3ef30254	0.47462714

weight f4 [8, 8, 3, 3]
0	0xc0a8c100	-5.2735596
1	0xbeedfde6	-0.46482772
2	0xc06dba4c	-3.7144957
3	0x3fed2716	1.8527553
4	0x3fd568c8	1.6672602
5	0xbf39ef50	-0.72630787
6	0x3f0e64df	0.5562267
7	0xbfcc8a7d	-1.5979763
8	0x405207c3	3.2817237
9	0xc00405c9	-2.062853
10	0x3fcad6fe	1.584686
11	0xbf873397	-1.0562619
12	0xbf91c87d	-1.1389309
13	0xbeb206ee	-0.34770912
14	0xbedd2242	-0.431902
15	0x3f85b65e	1.0446279
16	0x3f8c7f92	1.0976431
17	0x3dfeffb6	0.12451117
18	0xbdd653fe	-0.10465239
19	0x3d2aa4d6	0.041661106
20	0xbed49cc7	-0.41525862
21	0xbd708395	-0.058719236
22	0xbf829422	-1.0201457
23	0x3f1f744d	0.62286836
24	0x3f3f641c	0.7476213
25	0x3fd47c7b	1.6600488
26	0xc01233a1	-2.2844012
27	0xbf4f43ab	-0.8096263
28	0xbf9f6d83	-1.2455295
29	0xbe753a17	-0.23947941
30	0xbf0d3ce5	-0.5517104
31	0xc0011776	-2.017057
32	0xbf866d03	-1.0502018
33	0xbde955ce	-0.11393319
34	0xbf50973f	-0.81480783
35	0xbf3f8ffa	-0.74829066
36	0xbf26c042	-0.6513711
37	0x407c350b	3.9407375
38	0x40324ff7	2.7861307
39	0x3f41ec7b	0.75751466
40	0xc0481a1d	-3.1265938
41	0xc0a3bd63	-5.1168685
42	0x402c634e	2.693561
43	0xbf353d40	-0.70796585
44	0x3fdd5e12	1.7294333
45	0x3fbeffed	1.4921852
46	0xc0818356	-4.047282
47	0xc035a9d8	-2.8384914
48	0x407df7d0	3.9682503
49	0xbff84355	-1.9395548
50	0xbec02cab	-0.3753408
51	0x3fc6505a	1.5493271
52	0xbeb848a1	-0.3599291
53	0x3ca53c97	0.020170493
54	0xc01e90cf	-2.4775884
55	0xc0107e32	-2.2577024
56	0xbffc7ddd	-1.972591
57	0xbf079167	-0.5295624
58	0xbea1ce62	-0.3160277
59	0xbfdcc27d	-1.7246853
60	0xbff01f26	-1.8759506
61	0xbeb7b15b	-0.358775
62	0xbff68cc6	-1.9261711
63	0x401cc24d	2.4493592
64	0xc0877975	-4.2335763
65	0x3f52cf93	0.82347983
66	0xbf439f21	-0.76414686
67	0x404cf3be	3.2023768
68	0x3ff0535b	1.8775438
69	0xbf7b7f83	-0.9824144
70	0xbfd4aacc	-1.6614623
71	0xc076f041	-3.858414
72	0xbfdbc67d	-1.7169949
73	0x3ea1740c	0.3153385
74	0xbe88c62c	-0.26713693
75	0x3f28ebbc	0.659847
76	0xbee69d36	-0.45041817
77	0xbf817081	-1.0112458
78	0xbf609b84	-0.877373
79	0x3f632835	0.88733226
80	0xbe617ef2	-0.22021082
81	0x3f1476c0	0.579937
82	0xbeeeb603	-0.4662324
83	0xbff26e9d	-1.8940006
84	0x4003fe74	2.0624056
85	0xc04008e5	-3.0005429
86	0xbf62a000	-0.8852539
87	0x3f46af43	0.7761118
88	0xbf7066c6	-0.9390682
89	0xc0543a4b	-3.316058
90	0xbcb8d8cd	-0.022564316
91	0x3f9c8b77	1.2230061
92	0x3f72818f	0.9472894
93	0xc02afbb8	-2.6716137
94	0x3ea47b10	0.3212514
95	0x3f07545a	0.52863085
96	0xc03bb807	-2.9331071
97	0xbed2477a	-0.41070157
98	0xc06cbd53	-3.6990554
99	0xbfc3f75c	-1.5309863
100	0x3d8238c0	0.063584805
101	0xbf53de75	-0.8276132
102	0xc0638462	-3.554955
103	0xbfd4472c	-1.658422
104	0xbf21a152	-0.6313678
105	0xbfe9f98f	-1.8279284
106	0xbf146fc6	-0.5798305
107	0xbf97c350	-1.185648
108	0xc03d2e59	-2.9559538
109	0xbfd794c3	-1.6842273
110	0x3f932b94	1.1497674
111	0x4002ffbb	2.0468585
112	0xc03f8714	-2.9926195
113	0x400fd2ef	2.2472494
114	0x40261b05	2.5953991
115	0x3f0e2285	0.5552142
116	0x3fae3ef6	1.3612964
117	0x3f35c5cf	0.71004957
118	0x3effac75	0.49936262
119	0xbfc8d456	-1.56898
120	0x400cb962	2.1988149
121	0x3fe3c588	1.7794657
122	0x3e1f04e1	0.15529205
123	0xc00229c2	-2.0337987
124	0xc083ee55	-4.1228433
125	0xc03f7ba5	-2.9919217
126	0x3da69722	0.08134295
127	0x3f5a30c7	0.8523068
128	0xbdd0b8fd	-0.10191534
129	0xbf88326c	-1.0640388
130	0xbef6d2cc	-0.482077
131	0x3e81cc41	0.25351146
132	0xc08e443d	-4.44583
133	0xbcc60dcb	-0.024176499
134	0xc015ccdf	-2.3406293
135	0x3fb02070	1.3759899
136	0xc036669b	-2.8500125
137	0x3ff1ef48	1.8901148
138	0x3fd45b32	1.6590331
139	0xc01e8251	-2.476704
140	0xbf70085d	-0.9376276
141	0x405ee45e	3.4826884
142	0xc01796dd	-2.368583
143	0x3f938426	1.1524704
144	0xc027d7bc	-2.6225424
145	0xbf2ae91b	-0.6676194
146	0xc026d48d	-2.606723
147	0xbf3e79f7	-0.74404854
148	0x3f14380c	0.5789802
149	0x404a0596	3.156591
150	0x4054eebb	3.327071
151	0xc0232401	-2.5490725
152	0xc03387f4	-2.805173
153	0xbf73e700	-0.95274353
154	0x3e847369	0.258693
155	0x3f1a1fe2	0.602049
156	0xbf45ce2f	-0.77267736
157	0xbf13bd99	-0.5771118
158	0x3fec70f7	1.8471974
159	0x3f2ae1ad	0.66750604
160	0xbfc518bb	-1.5398172
161	0xbf7d40a0	-0.98926735
162	0xc053fa20	-3.3121414
163	0xc01094bb	-2.2590778
164	0x4010dc66	2.263452
165	0xbf8beb35	-1.0931154
166	0xbe89481a	-0.26812822
167	0x3fb88639	1.4415962
168	0xbf08e0a8	-0.534678
169	0xbe9484f1	-0.29007676
170	0x3e3f33e3	0.18672137
171	0xc0197fff	-2.3984373
172	0xbf9c6336	-1.2217777
173	0xbfb92b7a	-1.4466393
174	0xbfc8b30a	-1.5679638
175	0x3fce93e5	1.6138884
176	0x3e1dfb3f	0.15427874
177	0xbfa36ea7	-1.2768143
178	0xbf5147fa	-0.8175045
179	0xc0589ce9	-3.384577
180	0xbedbb848	-0.42914033
181	0xbfe96aef	-1.8235759
182	0xbfabf720	-1.3434792
183	0x4022a033	2.5410278
184	0xbd52cacf	-0.051462945
185	0xbf5e6bb8	-0.86883116
186	0x3fc655cf	1.5494937
187	0xbf65f7d7	-0.898313
188	0xbe7330cc	-0.23749083
189	0xbff68f1f	-1.9262427
190	0xbf862e90	-1.048296
191	0x405d964e	3.4622989
192	0xbf61d306	-0.8821262
193	0xbfd7c7a3	-1.6857799
194	0xc09ee6ac	-4.965658
195	0xc05ec2a1	-3.4806292
196	0xc003d5b0	-2.0599174
197	0x401f758e	2.49155
198	0xbfcbf768	-1.5934877
199	0xbec8790f	-0.3915486
200	0xbf9bf42d	-1.2183892
201	0xbdbe6fb1	-0.09298647
202	0x3f766d5e	0.9626063
203	0xbe90279d	-0.28155223
204	0x3e82c4b6	0.25540704
205	0xc011a7d2	-2.275868
206	0xbfe0a6cb	-1.7550901
207	0x3eafe9f4	0.3435818
208	0xc000e8ff	-2.014221
209	0xbfbb997e	-1.4656217
210	0x4060ac21	3.510506
211	0x3e728372	0.23682955
212	0xbf7c2f09	-0.9850927
213	0xbda38cc2	-0.07985832
214	0x401c3d04	2.441224
215	0xc04a139d	-3.157447
216	0x40a39e42	5.1130686
217	0xbf86af8d	-1.0522324
218	0x3fbd14fb	1.4772028
219	0xc04b6fcd	-3.1786988
220	0xbf4f8612	-0.8106395
221	0xbf08e2c1	-0.53471
222	0x3fb93c4a	1.4471524
223	0xbf827e73	-1.0194839
224	0xbf88c18c	-1.0684066
225	0xbd8b2c6f	-0.067955844
226	0x3fe7a69c	1.809772
227	0x3ff3c184	1.9043431
228	0x3f2663c5	0.64995986
229	0xbfc62039	-1.5478584
230	0x3f826c95	1.0189387
231	0x3e3b65b6	0.18300518
232	0xbf1d56dc	-0.6146066
233	0x3f7e2485	0.99274474
234	0xbf764760	-0.9620266
235	0xc036f069	-2.8584235
236	0xbff59ea5	-1.918904
237	0x405e82c7	3.476732
238	0x406886ca	3.6332269
239	0x401989ff	2.3990476
240	0xc0216c39	-2.5222304
241	0xbdd7dff1	-0.1054076
242	0xbf2f6b0e	-0.6852273
243	0x3f8f26db	1.1183733
244	0xbf84509a	-1.0337098
245	0x3faba486	1.3409584
246	0xbd89b2d8	-0.06723565
247	0xbf8d7e20	-1.1054115
248	0x3ff68b87	1.926133
249	0xbf29fa5c	-0.66397643
250	0xbfabe9c3	-1.3430713
251	0xbf1ccf65	-0.6125396
252	0xbec0f2b7	-0.37685177
253	0xbf93930a	-1.1529248
254	0x3f15458c	0.58309245
255	0xbf25ca06	-0.6476139

weight f4 [8]
0	0x40d84e0a	6.7595263
1	0x40e0d00e	7.0253973
2	0x40add50e	5.4322577
3	0x40bb394f	5.8507457
4	0x40ddd1d6	6.9318647
5	0x40c54ca2	6.1656046
6	0x40c6ecdc	6.2164135
7	0x40e4add5	7.1462197

bias f4 [8]
0	0x3cb4738c	0.022027753
1	0x3f5d5c25	0.86468726
2	0x3fb31b88	1.3992777
3	0xbf14cc46	-0.58124197
4	0x3ed6053c	0.4180087
5	0x3e8f5c3c	0.28000057
6	0x3fd245f4	1.6427598
7	0x3e9e688d	0.3093914

running_mean f4 [8]
0	0xc2551bfe	-53.277336
1	0xc2831597	-65.54217
2	0xc2ba511c	-93.15842
3	0xc10f510b	-8.957286
4	0xc27732c2	-61.79957
5	0xc281ed47	-64.96343
6	0xc2c8c26d	-100.37974
7	0xc2286f2f	-42.108578

running_var f4 [8]
0	0x4567e5ab	3710.3542
1	0x45859107	4274.1284
2	0x4562cced	3628.8079
3	0x452b39b4	2739.6064
4	0x45604848	3588.5176
5	0x45483b7d	3203.718
6	0x458d1a73	4515.306
7	0x45813c0c	4135.506

weight f4 [8, 8, 3, 3]
0	0x3fd33695	1.6501032
1	0x40985d6f	4.7614055
2	0xbf08c560	-0.5342617
3	0x3ed590ab	0.41711935
4	0xbfcd461b	-1.603702
5	0x40293ee4	2.6444635
6	0x402bedf8	2.6863995
7	0x3fa44213	1.2832664
8	0xbf01a61b	-0.5064408
9	0x403bf06d	2.9365494
10	0xbfd20f87	-1.6410989
11	0xbfc009b3	-1.500296
12	0xbfaa6022	-1.3310587
13	0xbfe6ab59	-1.8021041
14	0xbf13e2f9	-0.5776821
15	0xbe9e4974	-0.30915415
16	0x3f95c9a6	1.1702163
17	0xc011503f	-2.2705228
18	0xbd4887d1	-0.04895765
19	0x40103303	2.2531135
20	0x4020e6d8	2.5140896
21	0xbfcd9e25	-1.6063887
22	0x3f567b2e	0.8378171
23	0xbfed306c	-1.8530402
24	0xbfce82a8	-1.6133623
25	0x4026c03b	2.6054828
26	0xb941e820	-0.00018492388
27	0xc01adc58	-2.4196987
28	0xbe9b3fe5	-0.30322185
29	0x400932d8	2.1437283
30	0xc00badf0	-2.1824913
31	0x3fbd3ae4	1.4783597
32	0xbfbeb0db	-1.4897722
33	0xbf357ad0	-0.7089052
34	0xc005a22c	-2.0880232
35	0xbf71bae1	-0.9442578
36	0xc01015fd	-2.251342
37	0x4049c81d	3.152839
38	0xbffbb730	-1.9665279
39	0xbf784312	-0.9697734
40	0x4037055f	2.8597028
41	0xc00b537c	-2.1769705
42	0x4088185f	4.252975
43	0xbfb0ff45	-1.3827902
44	0xbfda4ad7	-1.7054089
45	0xc09047d2	-4.508767
46	0x3fc91dbe	1.5712202
47	0xbe94fe6f	-0.29100367
48	0x3ea128ac	0.31476343
49	0xbd18c7e7	-0.037300017
50	0xc05dfd6b	-3.4685924
51	0xc02a2883	-2.6587226
52	0xbfb9ec2e	-1.4525201
53	0x3f78ca3f	0.97183603
54	0x4051aa5f	3.2760236
55	0xbf312d1b	-0.6920945
56	0x3f339bda	0.70159686
57	0x4013c0f0	2.308651
58	0xc031f277	-2.7804239
59	0x3d831558	0.06400555
60	0xbfc31d22	-1.5243266
61	0x3f57b046	0.84253347
62	0x3e10aa0c	0.14127368
63	0xbfa3f94e	-1.2810457
64	0x3f43c3d7	0.764707
65	0xc00cd68e	-2.2005954
66	0x4026f3c7	2.608629
67	0x3f696df7	0.9118342
68	0xbf8ebea4	-1.1151929
69	0x3ff399c2	1.9031298
70	0x408a2ddf	4.3180995
71	0x3f467c9c	0.7753389
72	0xbec39afe	-0.38204187
73	0x3e5ec603	0.21755223
74	0x4027e85a	2.6235566
75	0x3fe21df6	1.7665393
76	0x3e5b917b	0.21442215
77	0xc0366907	-2.8501604
78	0xbfc65762	-1.5495417
79	0x408fb77f	4.4911494
80	0xbf898c65	-1.074597
81	0xbf35dbd9	-0.71038586
82	0x3e2d0b3a	0.16898814
83	0x3e87b94a	0.26508552
84	0x403865f8	2.8812237
85	0xbfb2dc45	-1.3973471
86	0x3e8c6239	0.27418688
87	0xbf2b85bd	-0.67000943
88	0x3ffb585a	1.9636338
89	0xbf8d7bf9	-1.1053458
90	0x3f3762b2	0.7163497
91	0x408a072d	4.313376
92	0xc0095a8b	-2.1461513
93	0xbfab1dac	-1.336843
94	0x4091bb55	4.5541177
95	0xbed1b05e	-0.4095487
96	0x3f8cfff5	1.1015612
97	0xbed8c225	-0.4233562
98	0x3f9c76a5	1.2223707
99	0xbf61c332	-0.8818847
100	0xbede3181	-0.43397143
101	0x4029f58a	2.6556115
102	0xc0231f08	-2.548769
103	0x3e16e55d	0.14735933
104	0x3fdbae8e	1.7162645
105	0xc00b9fd5	-2.1816304
106	0x3f51efff	0.8200683
107	0xc09a0ea6	-4.814288
108	0x3f02f4cc	0.5115478
109	0x4038281e	2.8774486
110	0x3f958a38	1.1682806
111	0xc021a3af	-2.5256155
112	0x3e373d65	0.17894514
113	0x3fd93564	1.6969419
114	0xc091023a	-4.531522
115	0xbec01016	-0.37512273
116	0x3eeb7213	0.4598547
117	0xbf50c3eb	-0.8154895
118	0xbf21a057	-0.63135284
119	0xbe8ac35b	-0.2710217
120	0xbf304b10	-0.68864536
121	0x3f92999a	1.1453125
122	0x3dc9a0cf	0.09845125
123	0xbf881b51	-1.0633336
124	0x3fc6432d	1.548925
125	0x3f9f7386	1.245713
126	0xbf62b056	-0.8855032
127	0xbf718ab0	-0.94352245
128	0xc06d10d5	-3.7041523
129	0x401bbe96	2.4335074
130	0x3fd8daf1	1.6941816
131	0x3f2830fc	0.65699744
132	0xbff31a32	-1.8992369
133	0xc0bb5119	-5.8536496
134	0x3f9ed616	1.2409084
135	0x401a48e0	2.410698
136	0xc00a6e10	-2.1629677
137	0x3e74a5fe	0.23891446
138	0xbf1642ff	-0.5869598
139	0xc04363fd	-3.0529778
140	0x40246bd2	2.5690808
141	0x3ed4b495	0.41544023
142	0x3c0c907b	0.008579369
143	0x3e0e191b	0.13876764
144	0x400ffb50	2.249714
145	0xbfcbbe49	-1.5917445
146	0xbfb05381	-1.3775483
147	0x3fb42d53	1.4076332
148	0xbfc29133	-1.5200561
149	0xbfc90bd8	-1.570674
150	0x3ecc1f53	0.39867648
151	0xbe6c5923	-0.23080878
152	0xbf82f74e	-1.0231721
153	0xbd827120	-0.06369233
154	0xbef25380	-0.4732933
155	0x3f3c95c8	0.7366605
156	0xc06debdf	-3.7175214
157	0xbf682852	-0.90686524
158	0x40c2b5d6	6.084697
159	0xc0181549	-2.3762991
160	0xc0399eae	-2.90031
161	0xbfefdcfa	-1.8739312
162	0xbff33bc4	-1.9002614
163	0xbf2d5957	-0.67714447
164	0x3f6fa8c4	0.9361689
165	0xc02597a6	-2.587381
166	0x3f4ec112	0.8076335
167	0x3fd451f8	1.6587515
168	0xbfbf4191	-1.4941884
169	0x3ffd0ee3	1.9770168
170	0xbf66b54d	-0.90120393
171	0xbf04f986	-0.5194324
172	0x3f34346f	0.7039251
173	0x3fa8bbad	1.3182274
174	0xc0434d2b	-3.051585
175	0xc06f1975	-3.7359288
176	0x3f4b1437	0.7932772
177	0xc05e3c00	-3.472412
178	0x3e001085	0.12506302
179	0xc021ed1e	-2.5300975
180	0xbf8bdcd7	-1.092677
181	0x4015c813	2.3403366
182	0x3f5178dd	0.8182505
183	0x4059fd79	3.4060957
184	0xc053c277	-3.3087442
185	0xbe848d2c	-0.25888956
186	0xbfc99e2c	-1.5751395
187	0x3f4eda3e	0.8080176
188	0x3e83372e	0.25628036
189	0xbf8fcbf9	-1.1234123
190	0x3f54de9c	0.83152175
191	0x3fcca80d	1.5988785
192	0x3ff42f81	1.9076997
193	0xc02d8220	-2.7110672
194	0xbea2a280	-0.31764603
195	0x3dde66d2	0.10859455
196	0xc06d6e4c	-3.709857
197	0x3fa6dba2	1.3035777
198	0x4014afe6	2.323236
199	0x4024ff25	2.5780728
200	0xbf1cdbbb	-0.6127278
201	0x3f7c7788	0.9861989
202	0xbf7bc3a8	-0.9834542
203	0x3fcb94ec	1.5904822
204	0xc002b9cf	-2.0425909
205	0x3f9a6209	1.2061168
206	0x3fc295d9	1.520198
207	0x3f6cfc3a	0.9257237
208	0xc03c24d4	-2.9397478
209	0xbfc848cb	-1.5647215
210	0xbd61b799	-0.055106733
211	0x40228332	2.5392575
212	0x3ee105fe	0.43949884
213	0x3f90e05e	1.1318471
214	0xbfbe27a2	-1.4855845
215	0xbf5d636b	-0.86479825
216	0xbf67f620	-0.9060993
217	0x3fce0186	1.6094215
218	0x3f8d6e81	1.1049348
219	0x3ea5bcb7	0.3237054
220	0xc04e1e77	-3.2206094
221	0x3e056574	0.13026983
222	0xbfc5d892	-1.5456717
223	0xbe16a69c	-0.14711994
224	0xc02ab638	-2.6673717
225	0xbf02aee8	-0.51048136
226	0xbf6a4d01	-0.9152375
227	0x3fa8e6de	1.3195455
228	0x40370330	2.8595695
229	0x40283883	2.6284492
230	0x3ffdc52f	1.9825801
231	0x3e7ee474	0.24891835
232	0x406921e1	3.6426928
233	0xbfe07dd8	-1.7538404
234	0x3fd91035	1.6958071
235	0x3f1e6702	0.6187593
236	0xc01aefb1	-2.4208796
237	0x404de483	3.2170722
238	0xbebe279d	-0.37139598
239	0xbe8b1aa6	-0.2716877
240	0xc002457d	-2.0354912
241	0xbee2f392	-0.44326454
242	0xbffab488	-1.9586344
243	0xc05f30db	-3.487357
244	0x3fba68c8	1.4563227
245	0xbfac7b45	-1.3475119
246	0xbf2ebe55	-0.68259174
247	0xbfa9d48f	-1.3267993
248	0x3ecb2578	0.39677024
249	0xc007890c	-2.1177397
250	0xc01668b2	-2.35014
251	0x3fc713b1	1.5552884
252	0xbffe8de2	-1.9887049
253	0x407c6827	3.943857
254	0x3f92482b	1.1428274
255	0x3ffda7bf	1.9816817

weight f4 [8]
0	0x40b67067	5.701221
1	0x40d1e96c	6.559744
2	0x40cf40e6	6.476672
3	0x40c7d7b9	6.2450833
4	0x40ae0916	5.438609
5	0x40d57f71	6.671807
6	0x40c1dbf4	6.0580997
7	0x40bf832a	5.984761

bias f4 [8]
0	0x3e372c72	0.17888048
1	0xbfa5c11d	-1.2949558
2	0xbf73623d	-0.95071775
3	0xbfb5bfc5	-1.4199148
4	0x3f5ac0f9	0.854507
5	0xc002774c	-2.0385313
6	0xbf4e7cd5	-0.8065923
7	0xbfec7e7c	-1.84761

running_mean f4 [8]
0	0x41319e96	11.101217
1	0x3fe44f73	1.7836746
2	0xc20b9381	-34.894047
3	0xbed2fa86	-0.4120676
4	0xc1c3b191	-24.461702
5	0xc1b7926d	-22.946497
6	0x41a3cb57	20.474287
7	0xc0396e7a	-2.897368

running_var f4 [8]
0	0x45270b4e	2672.7065
1	0x4534d95f	2893.5857
2	0x4541efed	3102.9954
3	0x452650b0	2661.043
4	0x45381be1	2945.7424
5	0x453d50b0	3029.043
6	0x45290d02	2704.813
7	0x452c717f	2759.0935

weight f4 [16, 8, 3, 3]
0	0xbde6b017	-0.11264055
1	0xbf350c41	-0.7072182
2	0xbf5d34e9	-0.8640886
3	0x3f19fc02	0.6015016
4	0x3f2bf13d	0.67164975
5	0xbfa80365	-1.3126036
6	0x402bd2fb	2.6847522
7	0xbead760c	-0.33879125
8	0x3f4a9b7c	0.791435
9	0x3f50a843	0.81506747
10	0x3fd3fdc6	1.656182
11	0x3f89c3ae	1.0762842
12	0xbebdc4d4	-0.3706423
13	0x3fd1bdc3	1.6386036
14	0x3d751c36	0.059841357
15	0xc0266984	-2.6001902
16	0x3e9297cf	0.28631446
17	0x3f591c7d	0.84809095
18	0xbf22f84b	-0.63660115
19	0xbd80cf5a	-0.06289549
20	0x3fc5e1ef	1.5459574
21	0x404765a5	3.115579
22	0xbf7c11e0	-0.98464775
23	0xc031a8df	-2.775932
24	0xc040c987	-3.0123003
25	0x3fac1cd1	1.3446294
26	0xbf9d18cb	-1.2273191
27	0x3e8907aa	0.2676366
28	0xbfc6c858	-1.552989
29	0xc00dc9e4	-2.2154474
30	0x40481bcd	3.1266968
31	0xbf03221d	-0.5122393
32	0xbef87968	-0.48530126
33	0xbff4cdf7	-1.9125355
34	0x3bebdb79	0.007197794
35	0xc019b2a2	-2.401528
36	0xc011a5a2	-2.2757344
37	0xbfc0cfb8	-1.5063391
38	0x3f2b6146	0.669453
39	0xbfa8a62f	-1.3175715
40	0x3f975992	1.182421
41	0x3fe85680	1.8151398
42	0x3f1bb244	0.60818887
43	0xbfab88dd	-1.3401142
44	0xbf7a8b31	-0.9786864
45	0x3fc49545	1.5358053
46	0x3e3e2f50	0.18572736
47	0x402998b2	2.6499448
48	0x3f43896b	0.7638156
49	0x3f4a216d	0.78957254
50	0x3fcbe0e3	1.5928005
51	0x3f44b9ac	0.7684581
52	0x3f8fdf1e	1.1239965
53	0x3e28b7d6	0.16476378
54	0xbcc5197e	-0.024060007
55	0x400c2674	2.189847
56	0x3fc9fc3e	1.5780103
57	0xc0106035	-2.255872
58	0xbd4a53bb	-0.049396258
59	0xc018de5f	-2.3885725
60	0xbfe304a8	-1.7735796
61	0x3ef4324d	0.47694626
62	0xbe52614e	-0.20544931
63	0xbd5578b5	-0.05211707
64	0x3f846c19	1.0345489
65	0x3ef8e011	0.4860845
66	0xbe3842ae	-0.17994186
67	0x3e93ea58	0.28889728
68	0xbf3d3322	-0.7390615
69	0xc01fa589	-2.4944785
70	0xc02a58b4	-2.661664
71	0x4031b154	2.7764482
72	0xbef08b08	-0.46981072
73	0xc06e1148	-3.7198048
74	0x3e1d4f34	0.15362245
75	0xbfbbecc0	-1.4681625
76	0x3fa5bf72	1.294905
77	0xc057101c	-3.3603582
78	0xc040b8c6	-3.0112777
79	0x3e11bd5f	0.14232396
80	0xbf36bb0e	-0.7137917
81	0xbda87d92	-0.08227076
82	0xbf730de4	-0.9494307
83	0x400d60d5	2.2090352
84	0x4006d76d	2.1068985
85	0x3ec7b08c	0.39001882
86	0x3ff409c4	1.906548
87	0x3fdf4e2f	1.7445735
88	0xbeb17556	-0.34659833
89	0xbe39c220	-0.18140459
90	0xbf7f3fba	-0.99706614
91	0x3e83f52a	0.25772983
92	0x3e99a466	0.3000824
93	0xc03ed3b4	-2.9816713
94	0x3fb943af	1.447378
95	0xbf139813	-0.5765392
96	0x3fd08c83	1.6292881
97	0xbe9740c1	-0.2954159
98	0xbf87cd3c	-1.0609508
99	0xc00265a6	-2.0374541
100	0xbe291168	-0.16510546
101	0x3f91815b	1.1367601
102	0x3e8ff706	0.2811815
103	0x3efd99a0	0.4953127
104	0xbfaced4f	-1.3509921
105	0xbe96868a	-0.2939952
106	0x3fcc0675	1.593947
107	0xc02f9423	-2.7434165
108	0x3e8c9afe	0.27462
109	0x4034b761	2.8236926
110	0xbf585f51	-0.8452044
111	0x3fa380ca	1.2773678
112	0xbf39bf56	-0.7255758
113	0x405dcdac	3.4656782
114	0x3fe74d02	1.8070376
115	0xbf6bfb68	-0.9218049
116	0xbfef7a5c	-1.8709216
117	0xbed17542	-0.40909773
118	0xbf29c67e	-0.663185
119	0x401dcc75	2.465604
120	0x3f7e2f81	0.99291235
121	0xc01350d5	-2.3018086
122	0xbe740905	-0.23831566
123	0xbe5d45c3	-0.21608643
124	0x3f77a24e	0.9673203
125	0xbfa06564	-1.2530942
126	0x3fda9022	1.7075236
127	0xc01dba0e	-2.4644809
128	0x3fd9624b	1.6983122
129	0xbe5ad5be	-0.21370599
130	0xbe8da8e9	-0.2766793
131	0xbff9ea59	-1.9524642
132	0xbef746e7	-0.48296282
133	0xbea7bef0	-0.3276286
134	0xbe2b434e	-0.16724893
135	0xbe1bc615	-0.15212281
136	0xbf28ec13	-0.6598522
137	0xc004e0be	-2.0762172
138	0xbe8cbf53	-0.2748972
139	0xbfdc52e8	-1.7212801
140	0x3fa9c2c1	1.3262559
141	0x3fe9b426	1.8258102
142	0xbf78ef0e	-0.9723977
143	0x3f2cadd2	0.6745273
144	0x3fbaa2f9	1.4580985
145	0xbfe1e1fb	-1.7647089
146	0x3b5e70f4	0.0033941837
147	0x3e8c196f	0.27363154
148	0xbe75dc14	-0.24009734
149	0xbf85bff0	-1.04492
150	0x3f8adc47	1.0848473
151	0xbfe7d850	-1.8112888
152	0x3e60ca31	0.2195213
153	0x3fa5b512	1.2945883
154	0xbffa2902	-1.9543765
155	0x3fc57f49	1.5429469
156	0x3f80c77c	1.0060878
157	0xbffb7d51	-1.9647619
158	0xc03da6df	-2.96331
159	0xc00e51b1	-2.223736
160	0xbfb7e8aa	-1.4367878
161	0x3f4cb935	0.79970104
162	0xbd03fe58	-0.032224983
163	0x3f5a8239	0.85354954
164	0x4005cd20	2.0906448
165	0x3fd6d0a5	1.6782423
166	0x3f93b3e4	1.1539273
167	0x3f0ac948	0.5421338
168	0xbcd9c539	-0.0265833
169	0xbf3f88bb	-0.7481801
170	0xbecf7f0a	-0.4052661
171	0xbe0386bb	-0.12844364
172	0x3f189a35	0.596103
173	0xbf82229c	-1.0166812
174	0xbe922124	-0.2854091
175	0xbf3e9f2c	-0.74461627
176	0xbe425fb8	-0.18981826
177	0xc02a4ff5	-2.6611302
178	0xbfc4d4fa	-1.5377495
179	0x3e3e0521	0.18556644
180	0x3fa65b27	1.2996567
181	0x3f7a0b43	0.97673434
182	0x3dc74821	0.09730554
183	0x3fa0c577	1.2560261
184	0x3d9c2b10	0.07625401
185	0x3f97716e	1.1831491
186	0xc0a63782	-5.194276
187	0x3f0edba5	0.558039
188	0x3ff8066c	1.937696
189	0x3f84baea	1.0369542
190	0xbfa0d056	-1.2563579
191	0xbfef3186	-1.8686988
192	0xbda1caec	-0.079000324
193	0xbff765fe	-1.9328
194	0x3fb8f769	1.4450504
195	0xc01c07ee	-2.437984
196	0xc0031721	-2.0482867
197	0x3f1b0e89	0.60569054
198	0x3ca4cc41	0.020116927
199	0xbe083685	-0.13302048
200	0x3e29c021	0.16577198
201	0x3f76c7da	0.963987
202	0x3facb174	1.3491654
203	0x3f8f6a68	1.1204348
204	0xbd8e1ee3	-0.06939485
205	0xbf9f270d	-1.2433792
206	0xbfb52b40	-1.4153824
207	0x3fb31cd6	1.3993175
208	0xc00a14e9	-2.1575263
209	0xbf033c49	-0.5126386
210	0xbe56899e	-0.20950934
211	0xbf7b70da	-0.9821907
212	0x4011fd73	2.2810943
213	0xc03df64a	-2.9681573
214	0x3f5895da	0.84603655
215	0xc069f480	-3.655548
216	0xbec4a806	-0.38409442
217	0xbf902333	-1.1260742
218	0xbe82a3c9	-0.25515583
219	0xbf594631	-0.8487273
220	0x3f1bfe76	0.6093515
221	0x3fab9cc3	1.3407215
222	0xbf5ec620	-0.87021065
223	0xbdeb64f1	-0.114938624
224	0xbfe151f3	-1.7603134
225	0xbe0c3158	-0.13690698
226	0xbfbd2e1e	-1.4779699
227	0xbf4f46ca	-0.8096739
228	0x3f7a607f	0.9780349
229	0x3fa1ed27	1.2650498
230	0xc090b17f	-4.521667
231	0xc00cae72	-2.1981473
232	0x3e4620d0	0.19348454
233	0x3f929534	1.1451783
234	0x3c5d8e21	0.013522656
235	0x3f19fbff	0.6015014
236	0xc03d1cca	-2.9548821
237	0xbf345c49	-0.70453316
238	0x407ebb0b	3.9801662
239	0xbfcaa07d	-1.5830227
240	0xbfce546a	-1.6119511
241	0x3e622b33	0.22086792
242	0x3e481572	0.1953943
243	0x3f514020	0.8173847
244	0x40345ddb	2.8182285
245	0xbf2537a8	-0.6453805
246	0x3f1278fe	0.5721587
247	0x3e4c42c5	0.19947346
248	0x3e8716b2	0.26384503
249	0xbfdcb188	-1.7241678
250	0x3fac194a	1.3445218
251	0xbf8365b4	-1.0265412
252	0x3d031423	0.032001626
253	0xbf17b89c	-0.59266067
254	0xbf172ffb	-0.5905759
255	0x40043266	2.065576

weight f4 [16]
0	0x407f6a24	3.9908533
1	0x40710f89	3.7665732
2	0x40867d06	4.2027617
3	0x409e14b9	4.9400296
4	0x40678d98	3.6180172
5	0x4043cb85	3.0592968
6	0x403a227b	2.9083545
7	0x4093e8df	4.6221766
8	0x40e63fcc	7.1952877
9	0x40f30211	7.5940022
10	0x40daf8e8	6.842884
11	0x40faf8d9	7.842877
12	0x40ef17a7	7.4716372
13	0x40eaf418	7.3422966
14	0x40f0f49e	7.5298605
15	0x40cfef52	6.497964

bias f4 [16]
0	0xbf95b99c	-1.1697268
1	0xbf7e9020	-0.9943867
2	0xbf5a98ff	-0.85389704
3	0xc02fe2f7	-2.7482278
4	0xbfde0135	-1.7344118
5	0xbee93c4b	-0.45553812
6	0xbe51e6e4	-0.20498234
7	0xc020ad44	-2.5105753
8	0xbe8c438e	-0.2739529
9	0xbfb8c122	-1.443394
10	0xbedfd7c1	-0.43719295
11	0xbface76c	-1.3508124
12	0x3a81e7ea	0.0009911035
13	0xbefe8700	-0.49712372
14	0xbf9a7b26	-1.2068832
15	0xbf054c62	-0.52069676

running_mean f4 [16]
0	0xc10809af	-8.502364
1	0xc1970d5b	-18.881521
2	0xc1ed9f18	-29.702682
3	0xc2149c24	-37.15248
4	0x41718dfd	15.097165
5	0xc1c80508	-25.002457
6	0xc1f7524d	-30.915186
7	0xc2097dab	-34.372723
8	0xc1ce614a	-25.797504
9	0x41adf846	21.746227
10	0x420865da	34.099464
11	0xc20beea5	-34.98305
12	0xbfd027db	-1.6262163
13	0x4195af77	18.710676
14	0xc1c13453	-24.150549
15	0x40c29526	6.0807066

running_var f4 [16]
0	0x44b87d2f	1475.912
1	0x44ec7026	1891.5046
2	0x45083dba	2179.858
3	0x44bb7ef4	1499.9673
4	0x449a4506	1234.157
5	0x44b9ed62	1487.4182
6	0x44afacb1	1405.3966
7	0x44ac734c	1379.603
8	0x44a3cf28	1310.4736
9	0x44a2b11c	1301.5347
10	0x44b0625c	1411.0737
11	0x4496d457	1206.6356
12	0x44c853a5	1602.6139
13	0x44a006f1	1280.2169
14	0x44b08f98	1412.4873
15	0x44bd9a19	1516.8156

weight f4 [64, 96]
0	0x3eb26c0e	0.34848064
1	0x3dbcb4bf	0.09214162
2	0x3ec2fff0	0.3808589
3	0x3d8681f5	0.06567756
4	0xbef68524	-0.48148453
5	0xbf823309	-1.0171825
6	0x3df7122e	0.120640144
7	0xbf059eec	-0.5219562
8	0x3e546eab	0.20745341
9	0xbf0b4e89	-0.5441671
10	0xbef81725	-0.48455158
11	0xbe4b358c	-0.19844645
12	0xbf3d2bde	-0.7389506
13	0xbe2fdf83	-0.17175107
14	0x3c4feec3	0.012691203
15	0xbedfd0f4	-0.43714106
16	0x3f17a910	0.59242344
17	0xbe5dafa0	-0.21649027
18	0xbf13a26a	-0.576697
19	0xbed5e7fa	-0.41778547
20	0xbf63095e	-0.8868617
21	0x3de7db4c	0.113211244
22	0x3e0ad4ff	0.13557814
23	0xbcee8af9	-0.029119002
24	0x3fbdf074	1.4839005
25	0xbf1dcf8c	-0.61644816
26	0xbe823be9	-0.25436333
27	0xbf13694d	-0.5758255
28	0xbe2d4c84	-0.1692372
29	0x3ec4a009	0.38403347
30	0xbedda0d6	-0.4328677
31	0xbf2daed0	-0.6784487
32	0x3ddf8742	0.1091447
33	0x3dc70c71	0.0971917
34	0x3f05d7bd	0.52282315
35	0x3eb21a36	0.34785622
36	0x3edcb37f	0.43105695
37	0xbe335796	-0.1751388
38	0x3f5afa37	0.8553805
39	0x3ed18824	0.4092418
40	0xbf0f32fd	-0.55937177
41	0x3eaf380e	0.34222454
42	0x3d4aa867	0.049477007
43	0xbef457b2	-0.47723156
44	0xbf112402	-0.5669557
45	0x3e29438c	0.16529673
46	0x3e1ef521	0.15523197
47	0x3f3818b0	0.7191267
48	0x3f00b662	0.50278294
49	0xbe2c2bdd	-0.16813608
50	0xbd26b1f6	-0.04069706
51	0x3e8c9e3d	0.27464476
52	0xbe6f964e	-0.2339718
53	0xbf0f2584	-0.5591662
54	0xbef93e66	-0.4868042
55	0x3f2cf0e5	0.67555076
56	0xbec18114	-0.3779379
57	0x3f132d0f	0.5749063
58	0xbd3090dd	-0.043106902
59	0x3f27624e	0.65384376
60	0xbf2a7580	-0.6658554
61	0x3ea8330f	0.32851455
62	0xbe99f8c4	-0.30072606
63	0xbe15d2c7	-0.14631186
64	0x3f834bef	1.0257548
65	0x3f1559de	0.5834025
66	0x3c058d08	0.0081513
67	0x3f59b538	0.8504214
68	0xbea04ec4	-0.31310093
69	0xbdd31b63	-0.10307958
70	0x3dc596c4	0.09647897
71	0xbe423840	-0.1896677
72	0xbf3645a6	-0.71200025
73	0xbe3f2e61	-0.18670036
74	0x3f0f4931	0.55971056
75	0xbe85f6ab	-0.26164755
76	0x3f170673	0.58994216
77	0xbe7662e9	-0.24061169
78	0x3e75b099	0.23993148
79	0xbe43defc	-0.1912803
80	0xbe86406a	-0.2622102
81	0xbf264a33	-0.6495697
82	0xbf08fef7	-0.53514045
83	0xbe435fdf	-0.1907954
84	0xbdd028ce	-0.10164033
85	0x3f491cbc	0.7855947
86	0xbe46165a	-0.19344464
87	0x3ec1c25d	0.378436
88	0x3d8ae4e0	0.06781936
89	0xbf01324c	-0.5046737
90	0x3cc2933e	0.023751851
91	0x3df12f13	0.11776557
92	0xbe80bd4f	-0.2514443
93	0x3d8ff28f	0.07028686
94	0x3c3eef3b	0.011653717
95	0xbd44c49c	-0.048039064
96	0xbf085e92	-0.532693
97	0xbdb623e0	-0.08893561
98	0xbebf9c6b	-0.37424025
99	0xbf35729e	-0.70878017
100	0xbeceaa52	-0.4036432
101	0x3e867be2	0.2626639
102	0xbe027460	-0.12739706
103	0x3f044423	0.5166647
104	0x3fae5d7f	1.3622283
105	0x3cbe393e	0.023220655
106	0xbfb905d3	-1.4454902
107	0xbf99ab61	-1.2005426
108	0xbf0b136a	-0.543265
109	0x3ed99578	0.42496848
110	0xbd3d5129	-0.04621998
111	0xbec00423	-0.37503156
112	0x3f50e655	0.8160146
113	0xbf31dc24	-0.6947653
114	0x3f7ee1d8	0.9956336
115	0xbeff98a7	-0.49921152
116	0x3e5f8e19	0.2183155
117	0xbe90c706	-0.28276843
118	0xbf944e77	-1.1586446
119	0x3eaac99c	0.3335694
120	0xbf7432c0	-0.9538994
121	0xbded7366	-0.11594276
122	0x3df6f80d	0.12059031
123	0x3f19ac47	0.600285
124	0xbd9f9053	-0.077911995
125	0x3ea1adfd	0.31578055
126	0x3f111f26	0.56688154
127	0xbe95e6c3	-0.2927762
128	0xbe2feb84	-0.17179686
129	0x3e2c38f8	0.16818607
130	0x3f974afa	1.1819756
131	0xbe22ac54	-0.1588605
132	0x3f16c986	0.5890125
133	0x3dd326b6	0.10310118
134	0x3f1dadf2	0.61593544
135	0xbec8817a	-0.39161283
136	0xbf4d9865	-0.8031066
137	0x3e8ea7ab	0.27862296
138	0xbec0101f	-0.375123
139	0x3f3aaacc	0.72916865
140	0xbf399f33	-0.72508544
141	0xbf660912	-0.8985759
142	0x3e331562	0.17488626
143	0x3e1c307d	0.15252872
144	0xbf9ef4d3	-1.2418464
145	0x3f6293db	0.8850686
146	0xbcc33aad	-0.02383169
147	0xbe62208e	-0.22082731
148	0xbf7b6f4b	-0.98216695
149	0xbc4bd5f3	-0.012441146
150	0xbe8a2bf6	-0.26986665
151	0x3dd1d0e3	0.1024492
152	0x3e0e2a74	0.13883382
153	0x3e9742ba	0.29543096
154	0xbee3d0ea	-0.44495326
155	0xbf322315	-0.6958478
156	0xbd3d622b	-0.0462362
157	0xbf2b7486	-0.66974676
158	0xbd9e5adc	-0.07732174
159	0xbf85360c	-1.0407119
160	0x3f39c421	0.72564894
161	0xbf17541d	-0.5911272
162	0x3e9e1a7a	0.30879575
163	0x3cf397b2	0.02973542
164	0x3ee1e222	0.44117838
165	0xbebcd3cf	-0.36880347
166	0xbe895d7a	-0.2682913
167	0x3eaf6eac	0.34264123
168	0xbf4cef56	-0.800527
169	0x3d40e9bb	0.047097903
170	0x3f23462f	0.63778967
171	0x3ddff880	0.109360695
172	0xbecf13ba	-0.40444738
173	0x3e3ac836	0.18240437
174	0xbe9c386a	-0.3051179
175	0xbf3d75d5	-0.7400792
176	0xbd1834bc	-0.037159666
177	0xbeaade2c	-0.3337263
178	0x3ecbd27b	0.3980902
179	0xbf27c18e	-0.65529716
180	0x3ef4740e	0.47744793
181	0x3eae1173	0.33997688
182	0x3f3a29ec	0.7272022
183	0xbf061ec2	-0.5239068
184	0xbcd7d572	-0.026346896
185	0xbf0dd5a9	-0.55404145
186	0xbeff7ce2	-0.49899966
187	0x3f8f3d5c	1.11906
188	0x3e809021	0.25109962
189	0xbe32626c	-0.17420357
190	0xbf221821	-0.6331807
191	0xbf70dbc9	-0.94085366
192	0x3f01c6ab	0.5069377
193	0xbf973af0	-1.1814861
194	0xbf1f3841	-0.6219521
195	0xbd8cddba	-0.068782285
196	0xbe5b3103	-0.21405415
197	0xbf54acc9	-0.8307615
198	0xbefa253a	-0.48856527
199	0xbe801037	-0.2501237
200	0x3f1caebd	0.6120413
201	0xbf5e3011	-0.86792094
202	0xbf159111	-0.5842448
203	0xbf3954fc	-0.723953
204	0xbec03705	-0.37541977
205	0xbe87b34c	-0.2650398
206	0x3eb74bb7	0.35799953
207	0xbf0ca5bc	-0.5494039
208	0xbf64d99a	-0.89394534
209	0xbee84ea6	-0.45372504
210	0x3ed608b6	0.4180352
211	0x3e01285c	0.12613052
212	0x3e182486	0.14857683
213	0x3ebd855f	0.37015817
214	0xbf94dc87	-1.16298
215	0xbe456d7e	-0.19280049
216	0x3e1de122	0.15417913
217	0xbf840a79	-1.0315696
218	0xbf074c1f	-0.52850527
219	0xbf259b15	-0.6468976
220	0x3eab8f51	0.3350778
221	0xbfac49b8	-1.3459997
222	0xbea908e5	-0.33014598
223	0xbda971ab	-0.082736336
224	0xbf0b1606	-0.5433048
225	0x3eabe0b3	0.3356987
226	0x3f74176a	0.9534823
227	0x3f2acae8	0.6671586
228	0x3f9cd26f	1.2251719
229	0x3ea08a84	0.3135568
230	0x3f83ea3b	1.0305856
231	0xbfb49fe1	-1.4111291
232	0x3eae60ab	0.34058127
233	0xbeeef6a7	-0.46672556
234	0xbefdd633	-0.49577484
235	0xbe8e23c3	-0.2776166
236	0xbe1d122a	-0.1533896
237	0x3e2494e0	0.16072416
238	0x3e463a7f	0.19358252
239	0xbed98c00	-0.42489624
240	0xbe4f7275	-0.20258506
241	0xbf438f90	-0.76390934
242	0xbe6d5ab5	-0.23179133
243	0xbddbd249	-0.10733468
244	0x3eb5a855	0.3547999
245	0x3f1b3ed8	0.60642767
246	0xbf82e925	-1.02274
247	0xbfcc0bae	-1.5941064
248	0xbf54ead9	-0.8317085
249	0xbeb168ca	-0.3465026
250	0x3f99cbc1	1.2015306
251	0x400a8324	2.1642542
252	0xbf8eb300	-1.1148376
253	0x3f1844af	0.594798
254	0xbfb74b03	-1.4319767
255	0xbef267b9	-0.4734476

bias f4 [64]
0	0x3ef57ff4	0.47949183
1	0x3f64b8eb	0.8934466
2	0xbe7c293c	-0.24625105
3	0x3f8580ac	1.0429893
4	0x3fc1a242	1.5127642
5	0x3f2ad3c6	0.6672939
6	0x3f841306	1.0318305
7	0x3e8c706c	0.2742952
8	0xbe5704a0	-0.20997858
9	0x3f00189f	0.5003757
10	0x3f8b7737	1.0895756
11	0xbe97a720	-0.29619694
12	0x3f55f286	0.83573186
13	0x3f806381	1.0030366
14	0x3ef582db	0.47951397
15	0x3f55032b	0.8320796
16	0xbd33ced1	-0.043898407
17	0xbeb8f4d8	-0.361243
18	0x3f8b05b1	1.0861112
19	0xbe5b47ec	-0.21414155
20	0x3f34f3f5	0.7068475
21	0x3f083be2	0.53216374
22	0x3f8cdb7f	1.1004485
23	0xbea67161	-0.32508376
24	0xbc75bceb	-0.014998655
25	0x3b4de59e	0.003141738
26	0xbda88375	-0.082281984
27	0x3fac79c3	1.3474659
28	0x3f491bb9	0.78557926
29	0x3f523eea	0.8212725
30	0x3f5a16f8	0.851913
31	0xbf259745	-0.64683944
32	0xbe6e6525	-0.23280771
33	0xbf006d50	-0.501668
34	0xbf1f1845	-0.6214641
35	0x3ef3a6fb	0.47588333
36	0xbec25332	-0.37954098
37	0xbdcb9afd	-0.09941671
38	0x3fab351c	1.3375583
39	0xbea88d19	-0.3292015
40	0x3fe1d122	1.7641947
41	0xbeae333c	-0.34023464
42	0xbea07a35	-0.31343237
43	0xbeac0d42	-0.33603865
44	0x3f664a8c	0.899575
45	0xbe9f7bfb	-0.31149277
46	0xbe3e3b75	-0.18577369
47	0x3f689f5f	0.9086818
48	0xbf073a6e	-0.5282353
49	0xbe87c535	-0.26517645
50	0x3fa7cb63	1.3108944
51	0xbe3123a0	-0.17298746
52	0x3f6abe52	0.91696656
53	0x3f3dfcef	0.7421407
54	0xbec1a01b	-0.37817463
55	0x3f480f48	0.7814832
56	0xbe46ca71	-0.19413163
57	0xbe4606b1	-0.1933849
58	0xbea9c9e3	-0.3316184
59	0x3f3eacde	0.74482524
60	0xbe9f8eb9	-0.31163576
61	0xbe5744d8	-0.21022356
62	0xbea003be	-0.31252855
63	0x3f030a76	0.5118784

weight f4 [1, 64]
0	0x3fa4da7a	1.2879174
1	0x3f867252	1.0503638
2	0xc0500d9e	-3.2508311
3	0x3fc67e9c	1.5507388
4	0x3fd9cfcd	1.7016541
5	0x3f8c146a	1.094373
6	0x3f1584d9	0.58405834
7	0x3fb90336	1.4454105
8	0xc064dfb8	-3.5761547
9	0x3f90f216	1.1323879
10	0x3f9abc0f	1.2088641
11	0xc0465438	-3.0988903
12	0x3fc46050	1.5341892
13	0x3fada5bd	1.3566204
14	0x3f81e1e3	1.014706
15	0x3f69cf3b	0.91331834
16	0xc0693f90	-3.6445045
17	0xc0115a4f	-2.271137
18	0x3fb7011f	1.4297217
19	0xc03fc22d	-2.9962265
20	0x3fb1bc20	1.3885536
21	0x3f30f998	0.6913085
22	0x3f5b9191	0.8576899
23	0xc02e0177	-2.7188394
24	0xc03d3243	-2.9561927
25	0xbf3cc1ba	-0.73733103
26	0xc043c24e	-3.0587344
27	0x3f65c747	0.897572
28	0x3fc2fd3c	1.5233531
29	0x3f9b5f94	1.2138543
30	0x3fa7cc58	1.3109236
31	0xc05509a6	-3.328714
32	0xc0412fcf	-3.018543
33	0xc027e3ef	-2.623287
34	0xc05f51b9	-3.489363
35	0x3fc4aeee	1.5365884
36	0xc022da38	-2.544569
37	0xc002e0a0	-2.04496
38	0x3f936d40	1.1517715
39	0xc045643a	-3.0842423
40	0x3f7713b1	0.9651442
41	0xbfaf20f6	-1.3681934
42	0xc068da0a	-3.638308
43	0xc045364c	-3.081439
44	0x3f5ec3f5	0.87017757
45	0xc06663e8	-3.5998478
46	0xc0482bd7	-3.1276758
47	0x3f5530b2	0.8327743
48	0xc03f7829	-2.991709
49	0xc04154db	-3.0208042
50	0x3f9bf05b	1.2182726
51	0xc0205a72	-2.5055203
52	0x3fdcec3f	1.7259597
53	0x3fd66ab3	1.6751312
54	0xc03d30ee	-2.9561114
55	0x3f9f43fd	1.2442623
56	0xc052ce7c	-3.2938528
57	0xc058bf55	-3.386678
58	0xc059e578	-3.4046307
59	0x3fa6a5ee	1.3019388
60	0xc03bb692	-2.9330182
61	0xc0617de6	-3.5233092
62	0xbfd38c0b	-1.6527113
63	0x3ff89884	1.9421544

weight f4 [64, 96]
0	0x3ee0aa4e	0.43879932
1	0x3f0b4ab0	0.5441084
2	0xbece6af8	-0.40315986
3	0xbef7f66a	-0.48430187
4	0xbdef0c70	-0.11672294
5	0xbf865901	-1.0495912
6	0xbf628256	-0.88480127
7	0xbf12705e	-0.5720271
8	0x3e38a21a	0.18030587
9	0xbe3beb2b	-0.18351428
10	0xbf3682fb	-0.7129361
11	0xbfadd513	-1.358065
12	0x3faa62f3	1.3311447
13	0xbf7fdc95	-0.99945956
14	0x3ef10670	0.47075224
15	0xbdf82a14	-0.12117401
16	0xbdbda7c9	-0.09260518
17	0xbf431c94	-0.7621548
18	0x3ecd4699	0.40092924
19	0x3f004d06	0.5011753
20	0x3eb11ce6	0.3459236
21	0x3e0fb3b6	0.14033398
22	0xbf879baa	-1.059438
23	0xbd74cc2b	-0.059765022
24	0x3e5e080a	0.21682754
25	0xbef9029c	-0.48634803
26	0x3ed3e3d0	0.41384745
27	0xbe927e3d	-0.28611937
28	0x3f8a1494	1.078753
29	0xbef3974d	-0.4757637
30	0x3f15e8d1	0.58558375
31	0x3e1246d7	0.14284836
32	0xbeaa36bd	-0.33244887
33	0xbeb47034	-0.35241854
34	0xbeac80c4	-0.3369199
35	0xbeadd0bd	-0.33948317
36	0x3d34790b	0.044060748
37	0x3e242826	0.1603094
38	0x3daf5c4a	0.085625246
39	0xbe9e969b	-0.30974278
40	0x3bc52ffe	0.006017684
41	0xbf8a8a11	-1.0823385
42	0x3f2d8b87	0.67791027
43	0xbd505aa6	-0.0508677
44	0xbe9900e2	-0.29883486
45	0x3f20ca8d	0.6280907
46	0xbeef8071	-0.4677768
47	0xbf4c7bda	-0.7987648
48	0xbef7e06c	-0.48413408
49	0x3f2ad1e1	0.667265
50	0xbfcce440	-1.6007156
51	0xbd101e3c	-0.035185084
52	0xbf325774	-0.6966469
53	0x3ef8cd89	0.4859431
54	0xbeaa6962	-0.33283526
55	0x3ef566e7	0.4793007
56	0xbc90e8d7	-0.017689152
57	0x3e34612a	0.1761519
58	0xbf392bfc	-0.7233274
59	0xbf28b554	-0.65901685
60	0xbf0338f1	-0.5125876
61	0x3fe8bb95	1.8182245
62	0xbf138ae6	-0.5763382
63	0xbc3bd111	-0.0114634195
64	0xbf867b33	-1.0506347
65	0xbe5af5ed	-0.21382876
66	0x3e840f0a	0.25792724
67	0xbd98990b	-0.07451066
68	0xbf90768a	-1.1286175
69	0x3e369cf7	0.17833315
70	0xbf8dcb92	-1.107775
71	0x3ff70406	1.9298103
72	0x3f03254a	0.51228774
73	0xbd1ad4b4	-0.037800506
74	0xbf77da73	-0.968177
75	0xbcf45674	-0.02982638
76	0x3fe395d3	1.7780098
77	0xbf619506	-0.88118017
78	0xbf2c2919	-0.6725021
79	0x3f7c45a3	0.9854376
80	0x3e6e8e93	0.23296575
81	0x3f9dc13c	1.2324595
82	0xbe808d3d	-0.25107756
83	0xbf41c16b	-0.7568576
84	0xbf9dcaa8	-1.2327471
85	0xbe8aac1c	-0.27084434
86	0xbec02bbb	-0.37533364
87	0x3f53a5cb	0.82674855
88	0xbe83d9d2	-0.2575212
89	0xbf36d26a	-0.71414816
90	0xbfadc316	-1.357516
91	0x3f522264	0.82083726
92	0x3e745d7a	0.23863783
93	0xbe391926	-0.18076
94	0x3f78185f	0.9691219
95	0x3ea85a5a	0.32881433
96	0x3f0b56c2	0.54429257
97	0xbead4df8	-0.33848548
98	0xbdb650d1	-0.08902133
99	0xbeb8eaa8	-0.3611653
100	0xbeba5525	-0.36393085
101	0x3f925412	1.1431906
102	0xbece1d50	-0.4025674
103	0x3f5eaa39	0.8697849
104	0xbe3ef427	-0.18647824
105	0x3f3c1e3c	0.73483634
106	0xbe11d2a9	-0.14240517
107	0x3d5bba97	0.053644743
108	0x3ec4bef6	0.38426942
109	0x3d9347ce	0.0719143
110	0xbf9d4ecd	-1.2289673
111	0xbd28caa1	-0.041208867
112	0x3e802d0f	0.25034377
113	0xbf9aca3d	-1.2092968
114	0x3f1fca0b	0.6241767
115	0xbf19fb17	-0.6014876
116	0xbf8493d6	-1.0357616
117	0xbf05197a	-0.51992
118	0x3ede1556	0.43375653
119	0xbd872231	-0.06598318
120	0xbf8d05a2	-1.1017344
121	0x3e81a4f3	0.2532116
122	0x3f60c47a	0.877998
123	0xbebdbea1	-0.370595
124	0xbe434d2d	-0.19072409
125	0xbdcaa222	-0.09894206
126	0x3efa1064	0.4884063
127	0xbf7ab1d2	-0.9792758
128	0x3f9f34a2	1.2437937
129	0xbfe5ce0f	-1.7953509
130	0xbcff976d	-0.031200135
131	0x3f08fc3b	0.53509873
132	0xbf2897dd	-0.65856725
133	0x3f19d645	0.60092574
134	0x3e5ac2bd	0.2136335
135	0xbe274a92	-0.1633704
136	0x3e709819	0.2349552
137	0x3e24dc5c	0.16099685
138	0xbfa19449	-1.2623378
139	0xbd4f48dc	-0.050606593
140	0xbf191b36	-0.59807146
141	0x3f78f969	0.9725557
142	0x3da3f4d7	0.08005684
143	0x3f11222c	0.5669277
144	0x3e535cc4	0.20640856
145	0x3fd4b46a	1.6617558
146	0x3f68e3a4	0.9097235
147	0xbf12052f	-0.5703916
148	0xbdc0bb76	-0.09410755
149	0x3f2bdf60	0.6713772
150	0xbec722c1	-0.38893703
151	0x3ea0f8c9	0.31439808
152	0x3f900c00	1.1253662
153	0x3c937b25	0.018003056
154	0xbf88ff41	-1.0702897
155	0xbf4938bd	-0.786022
156	0xbe993236	-0.2992112
157	0x3f0adb46	0.54240835
158	0x3e40b535	0.18819125
159	0x3e9b38ca	0.30316764
160	0x3ddd1596	0.10795133
161	0x3e3f8027	0.1870123
162	0xbda0fe29	-0.07860977
163	0x3ef51f2f	0.47875354
164	0xbe3cea07	-0.1844865
165	0xbf097151	-0.5368853
166	0x3e9f7a70	0.311481
167	0xbf983414	-1.1890893
168	0x3e1d6034	0.1536873
169	0xbf04c5d7	-0.5186438
170	0xbf60d710	-0.8782816
171	0x3f4b3f4c	0.7939346
172	0xbf2d1058	-0.67603064
173	0xbeeb3dc7	-0.4594557
174	0xbf1bbaf1	-0.60832125
175	0xbd766bb4	-0.060161307
176	0xbf705d61	-0.93892485
177	0x3f216257	0.6304068
178	0xbec4637f	-0.3835716
179	0x3f03ca3e	0.5148047
180	0xbf5568a0	-0.8336277
181	0xbd1e5f7f	-0.03866529
182	0x3f5d2230	0.8638029
183	0xbf9d721b	-1.2300447
184	0x3e9058b2	0.2819267
185	0xbf756ff9	-0.9587398
186	0xbdedc01e	-0.11608909
187	0x3f9a8f05	1.2074896
188	0xbfc85222	-1.5650065
189	0x3e25945b	0.16169874
190	0xbe72e788	-0.23721135
191	0xbd2a40e9	-0.04156581
192	0xbdb8ea3c	-0.09029052
193	0xbf01f870	-0.5076971
194	0xbea1fc69	-0.31637886
195	0x3f103fea	0.56347525
196	0xbf084746	-0.53233755
197	0xbc92e09d	-0.01792937
198	0xbfb3871c	-1.4025607
199	0xbf0ba9ab	-0.5455577
200	0x3de9b02d	0.11410556
201	0xbf99e3de	-1.2022665
202	0x3e8f385d	0.2797269
203	0xc01404d0	-2.3127937
204	0xbe81c283	-0.25343713
205	0x3ee11751	0.43963102
206	0xbf08bebb	-0.5341603
207	0xbe959efa	-0.29222852
208	0x3e0563bd	0.13026328
209	0x3f1f17d4	0.62145734
210	0x3da7ea91	0.08199037
211	0xbeb95682	-0.36198813
212	0x3eb4dc48	0.3532431
213	0x3e97c9e7	0.29646227
214	0x3f0c3270	0.5476446
215	0xbe94c77e	-0.2905845
216	0xbf7975a5	-0.97445136
217	0x3f56483d	0.83703977
218	0xbf42ba12	-0.7606517
219	0x3ef7775a	0.48333246
220	0x3f7a9d95	0.978967
221	0xbed77450	-0.42080927
222	0xbedc4be2	-0.43026644
223	0x3f0de8a6	0.5543312
224	0x3f9fdba4	1.2488904
225	0xbec81242	-0.3907643
226	0xbfa52e3e	-1.2904737
227	0x3ddac226	0.10681562
228	0x3daab21a	0.083347514
229	0xbfe13bae	-1.7596338
230	0x3fa9ad5a	1.3256028
231	0xbe2dba26	-0.16965541
232	0xbd46ced8	-0.048537105
233	0x3e0a48a6	0.13504276
234	0x3f21c8c0	0.63196945
235	0xbf4a6cbb	-0.7907216
236	0x3ef15cb5	0.47141042
237	0xbf905bc9	-1.1278011
238	0xbecda0a5	-0.40161625
239	0xbf886d27	-1.0658311
240	0x3ef0931c	0.46987236
241	0x4004c0c2	2.074265
242	0x3ed71b7f	0.42013165
243	0xbfa22907	-1.266877
244	0xbf52a464	-0.8228209
245	0xbe6807ce	-0.22659227
246	0xbf173754	-0.590688
247	0xbd8c583b	-0.06852766
248	0x3f8e86f2	1.1134932
249	0xbf412296	-0.754434
250	0x3e9fe15f	0.31226632
251	0x3f739ff2	0.9516593
252	0x3f0a9201	0.54129034
253	0xbf543786	-0.8289722
254	0xbf2ebb7c	-0.6825483
255	0x3fa70a98	1.3050108

bias f4 [64]
0	0xbdb9271c	-0.09040663
1	0x3db46aa4	0.088094026
2	0x3d4dd963	0.050256144
3	0x3ce3a0ef	0.0277867
4	0xbd826043	-0.06366017
5	0x3e031acd	0.12803192
6	0x3da71c95	0.081597485
7	0x3cb1a262	0.021683875
8	0x3d555fb0	0.052093208
9	0x3d707eb9	0.058714602
10	0x3a94cf5f	0.0011353305
11	0x3e14625e	0.14490649
12	0xbc1026c4	-0.008798305
13	0x3d8d27a7	0.06892329
14	0x3e16d668	0.14730227
15	0x3dedb1eb	0.11606201
16	0xbd1809db	-0.037118774
17	0x3e1258fe	0.1429176
18	0x3d367909	0.044549022
19	0xbc510373	-0.01275717
20	0xbcc766d0	-0.024341017
21	0x3c898a3e	0.016789552
22	0xbdc927c7	-0.0982204
23	0xbd8ede9a	-0.06976052
24	0xbdbdf27f	-0.09274768
25	0x3d671d2e	0.056424312
26	0xbcb5a787	-0.02217461
27	0x3d08ddcc	0.033414647
28	0x3d5bad03	0.053631794
29	0x3dd04439	0.101692624
30	0x3d288203	0.041139614
31	0x3e1f8d65	0.15581281
32	0x3db8dbae	0.090262756
33	0xbd771127	-0.060319092
34	0xbc18040d	-0.0092783095
35	0x3df86a51	0.12129653
36	0x3eb8c71e	0.36089414
37	0x3dbf064d	0.09327374
38	0x3e212029	0.15734924
39	0x3da7d455	0.08194796
40	0x3e6a26b5	0.22866328
41	0x3d9472c5	0.07248453
42	0x3ddddcc8	0.10833126
43	0xbd9db1cc	-0.07699928
44	0x3d548476	0.051884137
45	0xbd1c94f2	-0.038227983
46	0xbda0576d	-0.07829175
47	0xbd33ab0d	-0.0438643
48	0x3da63dd2	0.0811726
49	0x3d9042c5	0.07043985
50	0xbc824ac4	-0.015904792
51	0xbd4cd3e1	-0.05000675
52	0x3e1db1f6	0.15399918
53	0x3e2c2c27	0.16813718
54	0x3cb91b2e	0.022595968
55	0xbd03bf7b	-0.032165032
56	0x3de45120	0.11148286
57	0xbdc02ef4	-0.093839556
58	0xbe4fe668	-0.20302737
59	0xbdb38bf5	-0.08766929
60	0x3db8fdf1	0.090328105
61	0xbd14730c	-0.03624253
62	0x3d2c2bd4	0.042033985
63	0x3ce686e3	0.02814049

weight f4 [128, 64]
0	0x3ec2e0c1	0.380621
1	0x3db79309	0.089635916
2	0x3e2bdee5	0.16784246
3	0x3df18170	0.11792266
4	0xbf03b62a	-0.51449835
5	0xbf88b97d	-1.0681607
6	0x3dd475da	0.10374041
7	0x3ee6d1a3	0.45081815
8	0x3eb8a392	0.36062294
9	0x3da69996	0.08134763
10	0x3eb20aaa	0.3477376
11	0x3ed0e5a0	0.4080019
12	0x3e0525c7	0.13002692
13	0x3e1bf3b1	0.1522968
14	0x3e8f6752	0.28008515
15	0x3eb96c4c	0.36215436
16	0xbeee5944	-0.4655248
17	0x3f4f7ace	0.8104676
18	0xbe32ead6	-0.17472395
19	0x3d55170f	0.052023944
20	0x3f818ee6	1.0121734
21	0x3f937f3d	1.1523205
22	0x3f04b86a	0.51843894
23	0xbd084df2	-0.03327746
24	0xbe380973	-0.17972355
25	0x3ef10b97	0.47079155
26	0xbdd67639	-0.10471768
27	0x3edaa73d	0.42705718
28	0xbe91e984	-0.2849847
29	0xbe755df8	-0.23961627
30	0xbf0413c5	-0.51592666
31	0x3c15d85b	0.009145821
32	0x3e174b60	0.14774847
33	0x3e93790c	0.2880329
34	0x3ea50ebd	0.32237807
35	0xbf124e38	-0.571506
36	0x3eb7fa24	0.3593303
37	0xbe1c80f6	-0.1528357
38	0xbda9bcda	-0.08287974
39	0xbdbe4730	-0.09290922
40	0x3e99d2c4	0.30043614
41	0xbdb30add	-0.087423064
42	0xbf4c6f61	-0.7985745
43	0xbc86ae2f	-0.01644048
44	0x3c0d3052	0.0086174775
45	0xbdca94d2	-0.098916665
46	0x3d8e871f	0.06959366
47	0xbe40656f	-0.18788694
48	0xbf11fa30	-0.5702238
49	0x3e4e0355	0.20118459
50	0xbd79a693	-0.060949873
51	0x3ee38663	0.44438466
52	0xbf3c07de	-0.73449504
53	0x3f40cbe8	0.75311136
54	0x3e014856	0.1262525
55	0x3df88b30	0.12135923
56	0x3e5a54b3	0.21321373
57	0xbd89e8dd	-0.06733868
58	0x3f431414	0.7620251
59	0xbe838807	-0.25689718
60	0xbf104d24	-0.5636771
61	0xbea4d28d	-0.32191887
62	0x3e9294b1	0.28629068
63	0xbdd4024e	-0.10352002
64	0x3e55ff5f	0.20898198
65	0xbd122b73	-0.035685968
66	0x3f433814	0.76257443
67	0x3ddf7d5d	0.10912583
68	0xbda29d52	-0.07940163
69	0x3ec7f329	0.39052704
70	0xbe73fff8	-0.23828113
71	0xbe029ba0	-0.12754679
72	0x3d9ffb5b	0.07811614
73	0x3d4aabd9	0.049480293
74	0xbd0bfb67	-0.034175303
75	0xbf22ef1c	-0.636461
76	0xbe9f6c11	-0.31137136
77	0x3d2536c4	0.04033543
78	0xbda9d0b4	-0.0829176
79	0x3eb0b08b	0.34509692
80	0xbd922e0c	-0.07137689
81	0x3ea17efc	0.31542194
82	0xbdc63a0f	-0.096790425
83	0xbe7d03cc	-0.2470848
84	0x3db2812c	0.08716044
85	0xbe7e41e1	-0.24829818
86	0x3d33b75b	0.043876033
87	0x3e448022	0.19189504
88	0x3f29313e	0.6609076
89	0x3e82e4dc	0.2556523
90	0x3af33d8b	0.001855777
91	0x3f12ae2d	0.5729702
92	0xbc68c365	-0.014206742
93	0xbeb142ad	-0.34621182
94	0x3d575f94	0.052581385
95	0x3de374a0	0.11106229
96	0x3e3f2c0a	0.18669143
97	0x3d1b5229	0.03792015
98	0x3f012c54	0.50458264
99	0xbde33513	-0.110941075
100	0xbe8bf06d	-0.27331868
101	0x3f127da6	0.57222974
102	0x3ec6cd88	0.38828683
103	0x3e77486a	0.24148718
104	0xbea6548f	-0.32486388
105	0x3efffe43	0.49998674
106	0xbedc3246	-0.43007106
107	0x3dbcb7c1	0.09214736
108	0xbefeb99b	-0.4975098
109	0x3d9c3607	0.076274924
110	0xbe5e15d0	-0.21688008
111	0x3e635c0c	0.22203082
112	0x3e583162	0.21112588
113	0x3dd9cfc5	0.10635332
114	0xbcbda965	-0.023152063
115	0x3d1f245d	0.038853038
116	0x3dc76328	0.097357094
117	0x3c21fbf6	0.009886732
118	0x3e6935b6	0.22774395
119	0x3bccfaa8	0.0062554665
120	0x3d64893f	0.05579495
121	0xbd949887	-0.07255655
122	0x3efc7a04	0.4931184
123	0xbe692306	-0.22767267
124	0x3e25631c	0.16151088
125	0x3ef4ecdd	0.47836962
126	0x3de1c83b	0.11024519
127	0x3e79bda4	0.24388748
128	0xbceff862	-0.029293243
129	0x3df17849	0.11790521
130	0xbd97c465	-0.07410506
131	0x3e933790	0.28753328
132	0xbe7e6127	-0.24841748
133	0xbd9df25e	-0.077122435
134	0x3e09dee8	0.13463938
135	0xbe573b1d	-0.21018644
136	0x3e563a47	0.20920669
137	0xbde2cce1	-0.11074234
138	0xbdc9a81f	-0.0984652
139	0x3ebcad1b	0.3685082
140	0x3ca0ae5d	0.019614393
141	0x3d49a4cc	0.04922943
142	0xbdf0c36a	-0.11756022
143	0x3e6b3b63	0.22971873
144	0x3ed1f831	0.41009668
145	0x3e818abf	0.25301167
146	0xbe191113	-0.1494792
147	0xbde382e2	-0.11108948
148	0x3e4a931e	0.19782683
149	0x3bebb28f	0.0071929167
150	0xbe3a3b70	-0.18186736
151	0xbd5f0946	-0.054452203
152	0xbe17202e	-0.1475837
153	0xbe0dcb6b	-0.13847129
154	0xbe61617b	-0.22009842
155	0x3ead3951	0.3383279
156	0xbb571ae8	-0.0032822434
157	0x3f38cf91	0.7219172
158	0x3e9309e2	0.28718477
159	0x3e21452b	0.15749042
160	0x3e220081	0.15820505
161	0xbe52e439	-0.20594873
162	0x3ec2321c	0.37928855
163	0xbead2328	-0.33815885
164	0x3dd8450b	0.10560044
165	0x3ea1347c	0.31485355
166	0xbda39f5d	-0.079893805
167	0xbe35e9bc	-0.17764944
168	0x3e6e30b7	0.2326077
169	0x3ed2103d	0.41028014
170	0xbe9fce88	-0.31212258
171	0x3de37810	0.111068845
172	0xbdca15f1	-0.09867466
173	0xbdf59764	-0.11991766
174	0x3ecd4b9e	0.40096754
175	0x3da26de8	0.07931119
176	0x3de034ca	0.10947569
177	0x3ca639e9	0.020291286
178	0x3d974120	0.073854685
179	0x3dfbbfce	0.12292443
180	0xbe615370	-0.22004485
181	0xbdf6af0c	-0.12045106
182	0xbd1cba5f	-0.038263675
183	0xbd100e83	-0.03517009
184	0xbf183109	-0.5944982
185	0x3e2949e4	0.16532093
186	0x3ee0bba2	0.43893152
187	0xbd5658d8	-0.05233082
188	0xbe3a00e5	-0.18164404
189	0x3e0788ed	0.13235827
190	0x3daa31df	0.083102934
191	0xbe2bced9	-0.16778125
192	0x3e6ba7b7	0.23013197
193	0x3ed82349	0.4221442
194	0x3dfed107	0.124422126
195	0xbcfecb10	-0.031102687
196	0xbdc96a48	-0.09834725
197	0x3d8e1976	0.0693845
198	0x3e57fdda	0.2109293
199	0x3e270057	0.16308723
200	0x3c78625f	0.015160172
201	0xbe271273	-0.16315632
202	0xbed027c9	-0.40655354
203	0xbf080229	-0.53128296
204	0xbe9c2136	-0.30494088
205	0xbe650c38	-0.22367942
206	0x3e4bbb60	0.19895697
207	0x3bf427b2	0.007451021
208	0x3f15067a	0.5821301
209	0x3de6e5df	0.11274313
210	0xbef2795a	-0.4735821
211	0xbf05d8a5	-0.522837
212	0xbe0eed2d	-0.13957663
213	0xbf1329c8	-0.5748563
214	0x3eed368a	0.46330673
215	0xbd2a047b	-0.04150818
216	0x3e94381c	0.28949058
217	0x3d6cd062	0.057815917
218	0xbdd1c4e6	-0.102426335
219	0x3e62232d	0.22083731
220	0xbb436182	-0.0029812758
221	0x3f09b8a0	0.5379734
222	0x3ca756f1	0.0204272
223	0xbf2602f7	-0.64848274
224	0xbe1fb949	-0.15598024
225	0x3dc168e5	0.09443835
226	0x3d077540	0.033070803
227	0x3ec1731d	0.37783137
228	0xbed77c7b	-0.4208716
229	0x3c1c1f75	0.009528984
230	0x3cb2f686	0.021846067
231	0xbeac7590	-0.33683443
232	0x3e049ba4	0.12949997
233	0xbeaf87d1	-0.34283307
234	0x3eb6f02a	0.35730106
235	0x3d942e84	0.07235435
236	0xbf347e3e	-0.7050513
237	0x3e197273	0.14985065
238	0x3d65c1a0	0.05609286
239	0xbf29f429	-0.66388184
240	0xbdbafb00	-0.09129906
241	0xbe0657f5	-0.1311949
242	0xbd4d6692	-0.050146647
243	0x3eb296b7	0.3488061
244	0xbdc4fe33	-0.09618797
245	0xbe0908b3	-0.13382225
246	0x3ec37a27	0.38179132
247	0x3d783fb6	0.060607634
248	0xbe97f04a	-0.29675514
249	0xbe3e18a7	-0.18564092
250	0xbe120251	-0.14258696
251	0x3ece1101	0.40247348
252	0xbeccf60c	-0.4003147
253	0x3c4a84bb	0.012360747
254	0xbed0da8c	-0.40791738
255	0xbe8e4afb	-0.2779158
