checkpoints/test_10000.pth (torch, 106885 bytes, 27 tensors)

weight f4 [8, 1, 3, 3]
0	0x41250eab	10.316081
1	0x4092dd04	4.5894794
2	0xc13a75a6	-11.653723
3	0x40d99c0f	6.8003
4	0xc0ff041a	-7.9692507
5	0xc0f5b175	-7.677912
6	0xc07902c2	-3.8907933
7	0xbf4f5d26	-0.8100151
8	0x3e55e471	0.20887925
9	0x407f99e1	3.993767
10	0x40b3d781	5.6200566
11	0xc004191d	-2.0640328
12	0xc0e486db	-7.141462
13	0x40819840	4.049835
14	0x41172621	9.446809
15	0xc11a7d5a	-9.655603
16	0xc0a4b1ea	-5.146718
17	0x40093ca3	2.144326
18	0xc1496361	-12.586762
19	0xc136abf9	-11.4169855
20	0x3feecd57	1.8656415
21	0xc002cb85	-2.0436718
22	0x4064b893	3.5737655
23	0xc010124d	-2.251117
24	0x3e20991a	0.15683404
25	0x40ec9166	7.392749
26	0xc0311d94	-2.7674303
27	0x3fddf7f4	1.7341294
28	0x407e65cb	3.974963
29	0x4043b3c2	3.0578465
30	0x401956cf	2.3959234
31	0xc14cdace	-12.803419
32	0xbf2155e2	-0.6302167
33	0x414e6a3f	12.900939
34	0xc196205e	-18.765804
35	0xc080617e	-4.011901
36	0x3f93ff8f	1.1562365
37	0xc0dc0d35	-6.876612
38	0xc0c1b320	-6.053116
39	0x40f9268c	7.7859554
40	0xbf46d610	-0.77670383
41	0xc0e5cea3	-7.181474
42	0xbfb25b3d	-1.3934094
43	0x40e043e5	7.008288
44	0x40b4166f	5.6277385
45	0xc11eab78	-9.9168625
46	0xc0912c45	-4.536654
47	0xc0ae759e	-5.4518576
48	0x4023043e	2.547134
49	0x40e364f9	7.106076
50	0x40b33338	5.6000023
51	0x40d0441c	6.508314
52	0xc0b44a6a	-5.6340837
53	0xc11395ae	-9.224043
54	0xc000ebb8	-2.0143871
55	0x40575df8	3.3651104
56	0xbf221592	-0.63314164
57	0x404b230e	3.1740146
58	0x41123ef8	9.140373
59	0x40618da4	3.52427
60	0x3fab562b	1.3385671
61	0xc09dcb0a	-4.931035
62	0xc0bafc9c	-5.843336
63	0xc0507d76	-3.2576575
64	0xc1033a72	-8.201769
65	0x403e491f	2.973213
66	0xbf16e5d5	-0.58944446
67	0xc10ac130	-8.672165
68	0x4108f834	8.560596
69	0xbe28d36a	-0.16486898
70	0xc11f7835	-9.966847
71	0x4095baa9	4.6790357

weight f4 [8]
0	0x412ffed7	10.999717
1	0x4110cc05	9.049809
2	0x413a99ab	11.662517
3	0x417c532f	15.7703085
4	0x411aff66	9.687353
5	0x4137cdb1	11.487718
6	0x40f94cf3	7.790643
7	0x412b88d6	10.720907

bias f4 [8]
0	0x40304f7d	2.7548516
1	0xbfc0bdbf	-1.5057906
2	0x408a5e91	4.3240438
3	0x40569a4e	3.353168
4	0xbfb36276	-1.4014423
5	0xc09d3ca7	-4.913654
6	0xbede440b	-0.43411288
7	0x401e1d63	2.4705436

running_mean f4 [8]
0	0xbfbf84a5	-1.4962355
1	0x3d49e1a4	0.049287453
2	0xc0215155	-2.520589
3	0xbfecb0c0	-1.849144
4	0xbc9b0604	-0.018923767
5	0xbfe87216	-1.8159816
6	0x3f6d7856	0.92761743
7	0xc008383d	-2.1284325

running_var f4 [8]
0	0x3f867e2d	1.0507256
1	0x3f1a4ea6	0.6027626
2	0x3fbb6ce7	1.4642609
3	0x3fc9e58a	1.5773175
4	0x3f007aaa	0.5018717
5	0x3f42d6b4	0.7610886
6	0x3eaf87de	0.34283346
7	0x3f98a931	1.1926633

weight f4 [8, 8, 3, 3]
0	0x3fcc8fba	1.5981362
1	0xbfec237a	-1.8448327
2	0x4004c940	2.0747833
3	0xc0ad9373	-5.424249
4	0xc0333973	-2.8003814
5	0xbf428575	-0.7598489
6	0xc0fec596	-7.9616194
7	0xc0087aa2	-2.132485
8	0x40fadee5	7.839709
9	0xc053ddc5	-3.3104107
10	0xc0a9e596	-5.3092756
11	0x4020c967	2.5122926
12	0x40391113	2.8916671
13	0xbfbdb42b	-1.4820608
14	0xc0c94103	-6.289186
15	0x3f6c5bc7	0.9232754
16	0xc0717fa0	-3.7734146
17	0x3f304af1	0.6886435
18	0x3e6a87b1	0.22903325
19	0xbfce6117	-1.612338
20	0x40e24982	7.071473
21	0x3fa17ffe	1.2617185
22	0x3fb97f25	1.4491926
23	0xbf05baa2	-0.52237904
24	0x40064f1a	2.098578
25	0x400de4fa	2.2171006
26	0xc091d11a	-4.556775
27	0x401d7e20	2.460823
28	0x40206b2f	2.506542
29	0xbeadde84	-0.33958828
30	0xc0c8fa85	-6.280581
31	0x407134d2	3.768849
32	0x3f8fad96	1.1224849
33	0xc084f0e4	-4.1544056
34	0xbf8f20de	-1.1181905
35	0x4083f3a5	4.123492
36	0xc079b9c2	-3.9019628
37	0x4013a5c2	2.306992
38	0xbfd7f3a5	-1.687123
39	0xbfc25e56	-1.5185039
40	0xbfa9a404	-1.3253179
41	0xc0b2a0da	-5.582135
42	0xc002a8c3	-2.0415504
43	0xbf35e7a1	-0.7105656
44	0xc0a25854	-5.0732822
45	0xbf033d5e	-0.51265514
46	0xc09ab1b2	-4.8341913
47	0x404bd469	3.1848395
48	0xc0136ca7	-2.3035066
49	0xc06cb2f0	-3.6984215
50	0xbffd593a	-1.9792855
51	0x40abf76f	5.3739543
52	0xc045e69b	-3.0922
53	0xbf379521	-0.7171193
54	0xc00d7d8d	-2.210788
55	0xc059975e	-3.3998637
56	0x40621f78	3.5331707
57	0xbf8c67ac	-1.0969138
58	0xbfc8d26e	-1.5689218
59	0xbfcd6b86	-1.6048439
60	0xbf0bc863	-0.5460264
61	0x3f38307c	0.7194898
62	0xc03a0680	-2.9066467
63	0xbef9b55c	-0.4877118
64	0x3fca8785	1.5822607
65	0xc0abff11	-5.374886
66	0x408e6965	4.4503655
67	0x3faa1885	1.3288733
68	0xc06fef22	-3.7489705
69	0xc09c023c	-4.8752728
70	0x3fcff8e0	1.6247826
71	0xbf3a7f7f	-0.72850794
72	0x4095cbef	4.681144
73	0x40579672	3.3685575
74	0xc02d1237	-2.7042367
75	0x4059b5c3	3.4017189
76	0xc107f97b	-8.498408
77	0xbf4e4f35	-0.8058961
78	0xc0e275da	-7.076886
79	0x40b9ab5d	5.8021684
80	0xc09cd663	-4.9011703
81	0x3f39e635	0.72616893
82	0x3e0c8cfe	0.13725659
83	0xbe2d9eca	-0.16955104
84	0x40834d8a	4.103215
85	0xbfb2221e	-1.3916662
86	0xbfc115f2	-1.5084822
87	0xc0763d1d	-3.84748
88	0xbffc31ff	-1.9702758
89	0xc0bac938	-5.837063
90	0x3eb568f2	0.3543163
91	0xc001b93b	-2.0269306
92	0xbfff8183	-1.9961399
93	0xc0d076bd	-6.5144944
94	0x40785b06	3.8805556
95	0x40a79d48	5.2379494
96	0xc008f38a	-2.1398644
97	0x405ce0d7	3.4512231
98	0x4037659b	2.8655765
99	0xbedadf92	-0.42748696
100	0x3f88703f	1.0659255
101	0xbd3fa07f	-0.04678392
102	0x3f809cee	1.0047891
103	0x4081c702	4.055543
104	0xc034ed12	-2.8269696
105	0xc06fa9e5	-3.7447445
106	0xbf57cb9c	-0.8429506
107	0x4005b238	2.0890026
108	0x400d35f1	2.2064173
109	0xc08dfda0	-4.43721
110	0xc0075a26	-2.1148772
111	0x3f5e3a91	0.86808115
112	0xbef693a5	-0.4815952
113	0x3faa67c9	1.3312923
114	0xc04288e8	-3.039606
115	0x402ad316	2.6691337
116	0xc063bf11	-3.5585368
117	0x3f8dac1c	1.1068149
118	0xbfaf879c	-1.371326
119	0x3e2fed33	0.17180328
120	0xbf5e913f	-0.8694038
121	0x409c7934	4.8897953
122	0x4091091c	4.532362
123	0xbf72f40b	-0.9490363
124	0xc05d6b2c	-3.4596663
125	0xbdd5621b	-0.10419103
126	0xc025c3f8	-2.590086
127	0xc0807214	-4.0139256
128	0x3e1c64b4	0.1527279
129	0xbe0626e5	-0.13100775
130	0xc00a8b6b	-2.1647594
131	0xbf932189	-1.1494609
132	0xc0da7771	-6.8270802
133	0x3d33e222	0.04391683
134	0xbf96d3e9	-1.178342
135	0xc08fd96b	-4.4952903
136	0x3ff55931	1.9167844
137	0x4024f346	2.5773482
138	0xbf05b10b	-0.5222327
139	0x3f56d215	0.8391431
140	0xbfbdb83e	-1.4821851
141	0x3fecd977	1.8503865
142	0xc0addb29	-5.433003
143	0x4072a182	3.7911077
144	0xc0a4be52	-5.1482325
145	0x401ccace	2.4498782
146	0xc0ef5b02	-7.4798594
147	0x3ee5c3e0	0.44876003
148	0x3e028743	0.12746911
149	0x40b6697a	5.7003756
150	0x3faeb895	1.365008
151	0x3fc93121	1.5718118
152	0xbff449eb	-1.9085058
153	0xbe93589a	-0.28778535
154	0x3fd79142	1.6841204
155	0xc0139408	-2.30591
156	0xbfa58c2e	-1.2933404
157	0xc00f1792	-2.2358136
158	0xbfed2de5	-1.8529631
159	0x400ba6a2	2.1820455
160	0xc021008b	-2.5156581
161	0xc065ca02	-3.5904546
162	0xc02c0755	-2.6879475
163	0xbfca95d5	-1.5826975
164	0xbedb58d7	-0.42841217
165	0xbfe170df	-1.761257
166	0xc08dcf45	-4.4315515
167	0xc04f4e2c	-3.2391462
168	0x40758f99	3.8368895
169	0xbffade7b	-1.9599146
170	0xbf2616c4	-0.6487849
171	0x40af2245	5.4729333
172	0xc06ac2bf	-3.6681364
173	0x409b0dd6	4.845439
174	0x404ae342	3.1701207
175	0x40e2b305	7.084353
176	0x3fb9d06e	1.4516733
177	0x40b646df	5.6961513
178	0xbfe46720	-1.7843971
179	0x40937f14	4.6092625
180	0x3fb0ed76	1.3822467
181	0x40398e33	2.8993042
182	0xc033c4bb	-2.8088825
183	0x3f523dc1	0.8212548
184	0xc052bb69	-3.2926886
185	0x3fb5ed28	1.4212999
186	0xbfff572d	-1.9948479
187	0xc0316bf4	-2.772214
188	0xc084ceaf	-4.15023
189	0x3f058574	0.5215676
190	0x3f6f1b25	0.93400794
191	0xc050115d	-3.2510598
192	0x3fc38b9d	1.5276982
193	0xc0223bc7	-2.5348985
194	0xc052825a	-3.289206
195	0xbe9de90f	-0.30841872
196	0xc09c4e19	-4.8845334
197	0x3fd25603	1.6432499
198	0x4015ccc0	2.340622
199	0xc0375ead	-2.8651536
200	0xbe1965da	-0.1498026
201	0xbfc1c4d2	-1.513819
202	0xc0a46bce	-5.1381598
203	0xbf9052f9	-1.1275321
204	0xc04ed9fe	-3.2320552
205	0xc068e06b	-3.6386974
206	0xc09c374a	-4.881749
207	0x407791e1	3.8682787
208	0xc09c0c17	-4.876476
209	0x3fde3794	1.7360711
210	0x3fcf6aa9	1.6204425
211	0xbe36bc78	-0.17845333
212	0xc06ee066	-3.7324462
213	0x400fd882	2.2475896
214	0x3f03cb27	0.5148186
215	0x40265dac	2.5994673
216	0x40c8aebe	6.271331
217	0xc002ecc6	-2.0457015
218	0x4058c2fd	3.3869011
219	0xbf49f5f3	-0.78890914
220	0xbf751261	-0.9573117
221	0xc028efcf	-2.6396368
222	0x3fa06c9e	1.2533147
223	0x3fbd16dc	1.4772601
224	0xc0274249	-2.6134207
225	0x4032343c	2.7844381
226	0xbd8d3a48	-0.06895882
227	0x4010a6d3	2.2601821
228	0xbd256183	-0.040376198
229	0xbebf8fdc	-0.37414443
230	0xbf4e567d	-0.8060072
231	0xbd34700c	-0.04405217
232	0xc064b170	-3.57333
233	0x40c1682e	6.0439672
234	0x3ebacde2	0.364852
235	0x3fd35d26	1.6512802
236	0xc0286e77	-2.6317422
237	0x40df5d72	6.980157
238	0x40aadd69	5.3395276
239	0x3f43f0a5	0.7653907
240	0xc05aab30	-3.4166985
241	0xbfcb456e	-1.5880563
242	0x3fa89935	1.3171755
243	0x40436175	3.0528233
244	0x400e75b4	2.225934
245	0xc09bbba4	-4.8666553
246	0x3fac40dd	1.3457295
247	0xbf89383e	-1.0720289
248	0x3f7dfaf2	0.9921104
249	0x4117e671	9.49376
250	0x3f8b3bbc	1.0877604
251	0xc0ead4c8	-7.3384743
252	0xbfb87079	-1.4409324
253	0xc063fb40	-3.56221
254	0x3ee4ac4d	0.44662705
255	0xbfe584d2	-1.7931159

weight f4 [8]
0	0x411e07cb	9.876903
1	0x412a74e6	10.65354
2	0x414539e3	12.3266325
3	0x41138e56	9.22225
4	0x41298ae6	10.596411
5	0x413d1891	11.818498
6	0x41414e91	12.081681
7	0x415bc46d	13.7354555

bias f4 [8]
0	0x40094fe8	2.145502
1	0x4065e9de	3.5923991
2	0xbe44bbfa	-0.19212332
3	0xbfe563d9	-1.7921096
4	0xbf8f7202	-1.1206667
5	0x3f08497e	0.5323714
6	0xc04e76aa	-3.2259927
7	0x3f6a41cd	0.91506654

running_mean f4 [8]
0	0xc2c771d1	-99.7223
1	0xc29b9e5a	-77.80928
2	0x41a78aba	20.942738
3	0x434ce23e	204.88376
4	0xc2cb4378	-101.631775
5	0xc2c804d7	-100.00945
6	0xc2984679	-76.13764
7	0xc3a9f861	-339.94046

running_var f4 [8]
0	0x46a7ca0c	21477.023
1	0x46b8e635	23667.104
2	0x47041c9f	33820.62
3	0x4701fa89	33274.535
4	0x4693623e	18865.121
5	0x46a0fe19	20607.049
6	0x46e0c38a	28769.77
7	0x474e67b6	52839.71

weight f4 [8, 8, 3, 3]
0	0xc035d81b	-2.841315
1	0x40fe573f	7.94815
2	0xbf3fc23f	-0.7490577
3	0xbda45528	-0.08024055
4	0x3e9183e9	0.28420952
5	0x40801292	4.002267
6	0x40b82a46	5.7551603
7	0x3fee5488	1.8619547
8	0xbf9b5489	-1.2135173
9	0x408c1198	4.3771477
10	0xc0206a5b	-2.5064914
11	0x40977810	4.733406
12	0xc01798d4	-2.368703
13	0x4064049e	3.5627818
14	0xbfb1176e	-1.3835275
15	0xc0aa99d2	-5.331277
16	0xc083ffe6	-4.1249876
17	0x3e40fad8	0.1884569
18	0xc09f101c	-4.9707165
19	0xc0074a1d	-2.1138985
20	0x40050adf	2.0787885
21	0x3f6849fc	0.9073789
22	0xbf96c5de	-1.1779134
23	0xbf1422bb	-0.57865494
24	0x3f2107d8	0.62902594
25	0xc0a24bc2	-5.071748
26	0x406ac36b	3.6681774
27	0x3fe26799	1.7687865
28	0xc0c7d701	-6.2449956
29	0xc0717b04	-3.7731333
30	0xc034faaf	-2.8278005
31	0xc027c2f2	-2.6212735
32	0xc017abb2	-2.3698545
33	0xbfc75f6e	-1.5575998
34	0xbfca138b	-1.5787214
35	0x3fea6874	1.8313127
36	0xc117c67a	-9.485956
37	0xbed8aebd	-0.42320815
38	0xc09a01be	-4.8127127
39	0xc0bd2404	-5.9106464
40	0x3fc026e6	1.5011871
41	0x3fc31053	1.5239357
42	0x3f3b2f3b	0.7311894
43	0xbfa1474b	-1.2599882
44	0x400b0b9b	2.1725833
45	0x402a9be5	2.665765
46	0xbfdcd00d	-1.7250992
47	0xbfea65db	-1.8312334
48	0xbf8c50e6	-1.0962188
49	0xc0a8140b	-5.2524467
50	0x407e6ad8	3.9752712
51	0xc0b6a776	-5.707942
52	0xbfc668e0	-1.5500755
53	0x3d0ced0b	0.03440575
54	0xbf650fc4	-0.8947718
55	0xbfaeb021	-1.36475
56	0xc0a10dcb	-5.0329337
57	0x3fc2532b	1.5181631
58	0x3e119721	0.14217807
59	0xc0b09e59	-5.5193295
60	0xc0377818	-2.866705
61	0xc0048bc0	-2.0710297
62	0x408db20d	4.4279847
63	0x402cdc16	2.700933
64	0x40608cc6	3.5085921
65	0xc089fd5e	-4.3121786
66	0xbf1b0e8b	-0.60569066
67	0xc035cca8	-2.8406162
68	0xbf86b603	-1.0524296
69	0x4019580b	2.3959987
70	0xbe384274	-0.179941
71	0x40c4e25f	6.152633
72	0x40783c99	3.8786986
73	0x406e0098	3.7187862
74	0x3fb88d57	1.4418133
75	0xc0419e41	-3.025284
76	0x4081c25a	4.0549746
77	0x3d2a12c1	0.04152179
78	0xc04a0c5b	-3.157004
79	0xc0524b8d	-3.2858613
80	0x3fd57985	1.667771
81	0xbf4dc9c5	-0.80386
82	0xc07975b4	-3.897809
83	0xc00b6090	-2.1777687
84	0x3fc9a590	1.5753651
85	0x3fd34a49	1.6507045
86	0x3f8d94e7	1.1061066
87	0x4003e9c1	2.0611422
88	0xc0074dd7	-2.114126
89	0xbfae7ba6	-1.3631485
90	0xbf156a75	-0.58365566
91	0xbf828d53	-1.0199379
92	0xc0bc0e3c	-5.8767376
93	0x409d82fe	4.9222403
94	0xc0680fcd	-3.6259644
95	0xc0e4f4c1	-7.154877
96	0x3f9de40c	1.2335219
97	0x3f110228	0.56643915
98	0x40d8e897	6.7783923
99	0xbf738605	-0.9512637
100	0xbf8ff57d	-1.1246792
101	0x4033f5a4	2.8118677
102	0x4004e413	2.0764205
103	0x404ed509	3.2317526
104	0xbf078d43	-0.52949923
105	0xc08b74f7	-4.358028
106	0xc015aee2	-2.338799
107	0x408c3453	4.381387
108	0xc03a0d7e	-2.9070735
109	0xc09faa22	-4.989518
110	0x4093bab4	4.616541
111	0xbfb5bbdc	-1.4197955
112	0x3f83c446	1.0294273
113	0xc033152f	-2.798168
114	0x3f10fd7c	0.56636786
115	0x3d3ca850	0.046058953
116	0xc05b2731	-3.424267
117	0xbfa51f03	-1.2900089
118	0xc03b8b28	-2.9303684
119	0xc0e4702a	-7.138692
120	0x403b37d3	2.9252822
121	0xc03f0e79	-2.9852583
122	0x40e5f488	7.1861
123	0x3e24ff50	0.16113019
124	0x3e8f7e0e	0.2802586
125	0x3f444783	0.7667162
126	0x3ee0a5ee	0.43876594
127	0xc015292c	-2.330638
128	0x405f1f7f	3.4862974
129	0x4085ab9a	4.1771975
130	0xc0205137	-2.504957
131	0xc053b4a9	-3.3079016
132	0x3fddbb18	1.7322721
133	0xc0b897be	-5.768523
134	0x407900e3	3.8906791
135	0xc12a1171	-10.629258
136	0x407122db	3.7677524
137	0x40e29985	7.08124
138	0x403cc8d0	2.9497566
139	0x3fc40267	1.5313233
140	0x3f87aa60	1.0598869
141	0xbf9da317	-1.2315396
142	0x3f76fce2	0.9647962
143	0xc04a37d4	-3.1596575
144	0xc0534eaa	-3.3016763
145	0x406c123a	3.6886125
146	0xc0016bea	-2.0222116
147	0xc032f9b5	-2.796491
148	0x3fc7747b	1.5582422
149	0x402ebf35	2.7304204
150	0xbe0d918c	-0.13825053
151	0x3f1b9e20	0.60788155
152	0xc07d4457	-3.9572961
153	0xc0345fa0	-2.8183365
154	0xbfd5ba00	-1.6697388
155	0x405957ba	3.3959794
156	0xc01d5e0e	-2.4588656
157	0xbfc2b258	-1.5210676
158	0x3fb9f18e	1.4526842
159	0x404740a7	3.113321
160	0xc084d4db	-4.1509833
161	0x40bee087	5.964908
162	0x3f78d7b5	0.9720414
163	0xc09a6922	-4.8253336
164	0x40b8e2b3	5.7776732
165	0x4050e65c	3.26406
166	0xc0464212	-3.0977826
167	0x40960843	4.6885085
168	0xbfc6dd31	-1.5536252
169	0x40fe5787	7.9481845
170	0xc07cabf3	-3.947995
171	0xc08a520f	-4.322517
172	0x400d514d	2.2080872
173	0x3e2c0655	0.1679929
174	0x40a5649c	5.1685314
175	0xc07802fe	-3.8751826
176	0x3eecdf3a	0.46264058
177	0x40048376	2.0705237
178	0x3fc4ef79	1.5385581
179	0xbfffe0d6	-1.999049
180	0x40c86ff3	6.2636657
181	0x3fd8cb07	1.6936959
182	0x40c46708	6.137577
183	0xc00440ed	-2.0664628
184	0x3f843ec5	1.0331656
185	0x3fadce01	1.3578492
186	0xc08a8dce	-4.32981
187	0xbde73728	-0.11289817
188	0x40655d1e	3.5838084
189	0x40216d66	2.5223022
190	0xc056d91d	-3.3570015
191	0x40075ba8	2.1149693
192	0xc0b6de6b	-5.7146506
193	0x4064476f	3.56686
194	0xbf81e252	-1.0147192
195	0xbe247b8f	-0.16062759
196	0x41085e1f	8.522979
197	0xbf2faba1	-0.6862126
198	0xbe2348e0	-0.15945768
199	0x401ebbe7	2.4802186
200	0x400dbe67	2.2147462
201	0x3f8da670	1.1066418
202	0xbff67425	-1.9254194
203	0xc09cd076	-4.900447
204	0x3fc1374e	1.5095003
205	0x401112cc	2.2667723
206	0x3ffa1017	1.953616
207	0xc006510f	-2.0986974
208	0x40af10f8	5.4708214
209	0xc10ea9a5	-8.916417
210	0x3f2a2fbd	0.6647909
211	0x3fb4a723	1.4113506
212	0xbf924e4b	-1.1430143
213	0x3fdc16df	1.719448
214	0xbed9b046	-0.42517298
215	0x40aa18b8	5.3155174
216	0xc0a35e9b	-5.1052985
217	0xbfd677a7	-1.6755265
218	0x40b8ebe5	5.7787957
219	0xc00209fd	-2.0318596
220	0xbec706c2	-0.38872343
221	0x3ef653c0	0.4811077
222	0x3fe6d354	1.8033242
223	0x400eef31	2.233349
224	0x4071d3a6	3.778543
225	0x400baff5	2.1826146
226	0x41021778	8.13073
227	0xbdf86870	-0.12129295
228	0x3ff11132	1.8833373
229	0x3f94450e	1.1583574
230	0xc0578f0a	-3.3681054
231	0x405100a2	3.2656636
232	0x3e5577d0	0.20846486
233	0x3fe2bf03	1.7714542
234	0x3f12dce7	0.5736832
235	0xc0115d6d	-2.2713273
236	0xbf463f6d	-0.7744053
237	0xbfa4698b	-1.2844709
238	0x408f8452	4.4849024
239	0x409a6189	4.824406
240	0xc01ec8ca	-2.4810052
241	0xc0575be2	-3.364983
242	0xbf46d929	-0.7767511
243	0x4000bc14	2.0114794
244	0xc01fc63c	-2.4964743
245	0x3fb8c729	1.4435779
246	0x40554619	3.3324034
247	0xc03818ee	-2.8765216
248	0xc0abcc1e	-5.3686666
249	0x4033fb4b	2.8122127
250	0x4033c49a	2.8088746
251	0xc1016224	-8.08646
252	0x3fbee99b	1.4915041
253	0xc01accfd	-2.4187615
254	0xbf8d5377	-1.1041096
255	0xbfe825c3	-1.8136524

weight f4 [8]
0	0x413906e1	11.564179
1	0x41248fb4	10.285084
2	0x41163e3b	9.390193
3	0x4129ebf2	10.620104
4	0x411b5816	9.709005
5	0x4119ec59	9.620202
6	0x411d9f67	9.851417
7	0x4123b45a	10.231531

bias f4 [8]
0	0xbe491453	-0.1963666
1	0x3eec0289	0.46095684
2	0x3f061128	0.5236993
3	0xbec5ba1e	-0.3861856
4	0x401857f0	2.3803673
5	0x3fa30bca	1.2737973
6	0x3ed5293c	0.41633022
7	0x3e71d5f8	0.23616779

running_mean f4 [8]
0	0xc304be1c	-132.74261
1	0xc294dd7f	-74.43261
2	0x430c6547	140.39561
3	0xc123a715	-10.2282915
4	0xc2f7bf2c	-123.87338
5	0xc21e8c0d	-39.63677
6	0xc3558cba	-213.54971
7	0xc220c9cb	-40.197063

running_var f4 [8]
0	0x470d9fe2	36255.883
1	0x46be5f53	24367.662
2	0x46b44cef	23078.467
3	0x46e3ebaa	29173.832
4	0x46af7e12	22463.035
5	0x46d58edc	27335.43
6	0x46bc6e08	24119.016
7	0x46eca361	30289.69

weight f4 [16, 8, 3, 3]
0	0xc05482e9	-3.3204901
1	0x401633ef	2.3469198
2	0x3fc9feb4	1.5780854
3	0xbfbc3514	-1.4703698
4	0xbfe06ecf	-1.7533816
5	0xbe7ed596	-0.24886164
6	0xbf3f69ac	-0.7477062
7	0xc01ade5b	-2.4198215
8	0x3fe66b3e	1.8001478
9	0x3fe20b44	1.7659688
10	0xbf9833f3	-1.1890854
11	0x4084e59b	4.153028
12	0x409bc090	4.867256
13	0x40681804	3.6264658
14	0xbed3874d	-0.41314164
15	0xc03126c1	-2.7679904
16	0x409c875b	4.891523
17	0xbf852a46	-1.0403526
18	0x3fb1c6da	1.388881
19	0x3e0c1f2c	0.13683766
20	0xc046bd95	-3.1053212
21	0x401cabd4	2.4479876
22	0x3f721287	0.9455952
23	0x3ff1d3b9	1.8892738
24	0x404313b1	3.0480769
25	0x3f9f1b5f	1.2430228
26	0xc0160df3	-2.3446014
27	0xbe8f4b58	-0.2798717
28	0x3fea39a2	1.8298838
29	0x4016dff2	2.3574185
30	0x404241a5	3.0352566
31	0x4057e35b	3.3732517
32	0x3fe135e5	1.7594572
33	0x4001dee3	2.029229
34	0xc06f7805	-3.7417004
35	0x4060c6f4	3.5121431
36	0xbf744280	-0.9541397
37	0xbf68cf05	-0.90940887
38	0x3fe10bc2	1.7581713
39	0xbf80f936	-1.0076053
40	0x3f2b56ee	0.6692952
41	0xc09b72b1	-4.8577504
42	0xbf4859b5	-0.7826188
43	0xc011e81d	-2.279792
44	0x40bbf4b7	5.8736224
45	0x3eaa1dae	0.3322577
46	0xbfd7bfb0	-1.6855373
47	0x40053f1d	2.0819771
48	0xc011bae0	-2.277031
49	0xc01bfda8	-2.437357
50	0x3fd12a05	1.6340948
51	0x4032bc83	2.7927558
52	0xbf97e5a9	-1.1866962
53	0x4036a555	2.853841
54	0x3f359069	0.7092348
55	0x40136ba7	2.3034456
56	0xc0233510	-2.5501137
57	0xbfb8e68c	-1.4445357
58	0x3f1f8570	0.62312984
59	0xbff3a804	-1.9035649
60	0x4003b994	2.0582018
61	0x3d4d620d	0.050142337
62	0xc080259d	-4.0045915
63	0x40047932	2.0698972
64	0x40460283	3.0939033
65	0xbf37243e	-0.71539676
66	0x4037b92e	2.8706775
67	0x3f8aad96	1.0834224
68	0x3f6a3e8e	0.915017
69	0x4036839f	2.8517835
70	0x3fe0506c	1.7524543
71	0x408db2b4	4.4280643
72	0xc01aada5	-2.4168484
73	0x3f962df0	1.1732769
74	0x3f5e36ef	0.8680257
75	0x40824815	4.071299
76	0x3f81dd37	1.0145634
77	0xbebdd787	-0.37078497
78	0xc0c0a6b1	-6.020348
79	0x400aee03	2.170777
80	0xbf8b1dbc	-1.0868449
81	0xc06ff03f	-3.7490385
82	0xbf9cfcd4	-1.2264657
83	0xc048ffe5	-3.1406186
84	0x3fb9a26d	1.4502693
85	0xbf9bd5f3	-1.2174667
86	0xc0cf3b32	-6.475976
87	0xbf959d5f	-1.1688651
88	0xbf8cdf60	-1.1005669
89	0x3e6600d8	0.2246126
90	0x3e761741	0.24032308
91	0xbfe7dff5	-1.8115221
92	0x3fce4115	1.6113611
93	0xc03ca2f8	-2.9474468
94	0xbf9569e1	-1.1672937
95	0xc0094630	-2.144909
96	0x3f0cc9a1	0.5499516
97	0xc083970d	-4.112189
98	0xc00b41cf	-2.1758916
99	0x3feaf924	1.8357282
100	0x403b4c68	2.9265385
101	0xc024969d	-2.5716927
102	0xc03bcace	-2.9342532
103	0x3f2f20e1	0.68409544
104	0xc002e77d	-2.045379
105	0x3f996691	1.1984426
106	0xbfe56ef9	-1.7924491
107	0x407353ea	3.8019967
108	0x3f0965b5	0.5367082
109	0xbffc3a43	-1.970528
110	0x3fc695f8	1.5514517
111	0xbfbd9e3e	-1.4813917
112	0xbea39778	-0.319515
113	0x3f8f6cd9	1.1205093
114	0xc076d73a	-3.8568864
115	0x405daa0b	3.4635036
116	0xbfea934b	-1.83262
117	0x40696a31	3.6471064
118	0xc02af22e	-2.6710315
119	0xbfcfe0fe	-1.6240537
120	0x4089f5b6	4.311244
121	0xc01b9994	-2.4312487
122	0x3f496a19	0.7867752
123	0xc013a131	-2.3067133
124	0xbfd11de6	-1.6337249
125	0xbf7f9cac	-0.9984844
126	0xc061bd27	-3.52717
127	0xc08e80a6	-4.453204
128	0x402ae7c6	2.6703963
129	0x4022ea9a	2.545569
130	0xbfdd6f54	-1.72996
131	0xc08cef27	-4.4041934
132	0xc073dd67	-3.8103883
133	0x3fc1c1ea	1.5137303
134	0x3e908785	0.28228393
135	0x4076346b	3.8469493
136	0x4045e580	3.0921326
137	0xbfc439de	-1.533016
138	0xc07badb1	-3.9324763
139	0xbe92ecb6	-0.2869622
140	0xc04d8357	-3.2111413
141	0xbff871bb	-1.9409708
142	0x406865ca	3.6312127
143	0x3fb0f45e	1.3824575
144	0xbee00135	-0.4375092
145	0x3f6284fa	0.88484156
146	0xbd9f060b	-0.077648245
147	0x4004c2c6	2.074388
148	0x3fb4f70c	1.4137893
149	0xc00f297e	-2.2369075
150	0xc00c5675	-2.192777
151	0x3fa4a7f1	1.2863752
152	0x3dbceab8	0.092244565
153	0x408d9e1b	4.42555
154	0x3e4b0d62	0.19829324
155	0xbe776121	-0.24158145
156	0xc094bd71	-4.648125
157	0x3fded613	1.740908
158	0x3faf6ea1	1.3705636
159	0xbfdfa32f	-1.7471675
160	0xbce52f11	-0.027976545
161	0xc04f7195	-3.2413075
162	0x3e5eea95	0.21769173
163	0xc0242256	-2.5645957
164	0xbf6f986d	-0.9359196
165	0xbfa9ec6f	-1.3275279
166	0xbe6e776b	-0.23287742
167	0xc0890452	-4.2817774
168	0xbd0e108d	-0.034683753
169	0x408af08e	4.3418646
170	0x401c9e42	2.4471593
171	0x4038b313	2.8859298
172	0x4049740b	3.1477077
173	0xbe97882f	-0.29596087
174	0xc046bba5	-3.105203
175	0x3caffadf	0.02148193
176	0x40630d08	3.5476704
177	0xc0a9785a	-5.2959414
178	0x3f7bd17d	0.9836653
179	0xbf744509	-0.9541784
180	0xbf87563a	-1.0573189
181	0xc031a123	-2.77546
182	0xbf23b5f5	-0.6394952
183	0xbfc52c8b	-1.5404218
184	0x40293981	2.6441348
185	0xc02a9ac2	-2.6656957
186	0xbf672f34	-0.903064
187	0x401c01bd	2.437606
188	0x404f4d5a	3.2390962
189	0x3de8add0	0.11361277
190	0xc023671a	-2.5531678
191	0x3ff0fb5a	1.8826706
192	0xc01abc90	-2.417759
193	0xbe5305ea	-0.20607725
194	0x3f9007d6	1.1252391
195	0xc081c40f	-4.055183
196	0x40c1f7b5	6.0614877
197	0xc077d1bd	-3.8721764
198	0x40083b6b	2.1286266
199	0x3f800572	1.0001662
200	0xc02719b5	-2.610944
201	0xbf3f8d73	-0.7482521
202	0xbf3a7eb0	-0.7284956
203	0xbfdf3047	-1.7436608
204	0xbfc3963f	-1.5280226
205	0xc084673f	-4.1376033
206	0x3fd98431	1.6993467
207	0xc0cbe5db	-6.3718085
208	0xc03cc040	-2.949234
209	0x3e00fa37	0.1259545
210	0x40814de1	4.0407567
211	0xc086fd07	-4.218387
212	0x4014371a	2.3158631
213	0xc0214d81	-2.5203555
214	0xbe914d6f	-0.2837939
215	0xbeb9690f	-0.36212966
216	0x40a69881	5.206116
217	0xc08dc3de	-4.4301596
218	0xc0040bb9	-2.0632155
219	0xc04db4be	-3.2141566
220	0xc02c5c0c	-2.693118
221	0xbfa0c1e2	-1.2559168
222	0xbee51335	-0.44741216
223	0xbf983422	-1.189091
224	0x3f69a503	0.9126741
225	0xc07e2626	-3.9710784
226	0x3f86d098	1.0532408
227	0x4045fecd	3.0936768
228	0xbdd9a308	-0.10626799
229	0xc02362ca	-2.5529046
230	0xbfb1519d	-1.3853031
231	0x40854da1	4.165726
232	0x3f59700c	0.84936595
233	0xbfdd0aad	-1.7268883
234	0xbfaf7aeb	-1.3709387
235	0xc0838187	-4.1095614
236	0xc025d499	-2.591101
237	0xbfe4c0cb	-1.7871336
238	0x404567d0	3.0844612
239	0x40a2407b	5.070371
240	0x408960aa	4.29305
241	0xbf1c0f5d	-0.6096094
242	0xc04cd04c	-3.2002134
243	0xc04bcec4	-3.184495
244	0x406a03b6	3.6564765
245	0x40121368	2.2824345
246	0x3f8590f1	1.0434858
247	0xbf09155e	-0.5354823
248	0x409869f4	4.7629337
249	0xbfa197fc	-1.2624507
250	0xbf90f20a	-1.1323864
251	0xbf8f16ad	-1.1178795
252	0xc06fa6d7	-3.744558
253	0x40800a5c	4.0012646
254	0x40226eb1	2.538006
255	0x3ff6b9db	1.9275469

weight f4 [16]
0	0x4072ca46	3.7935958
1	0x4060f586	3.5149856
2	0x4059ff4c	3.406207
3	0x408d6c46	4.419467
4	0x407eea60	3.983055
5	0x4090e9e2	4.52855
6	0x407c7878	3.9448528
7	0x405c6773	3.443814
8	0x40cca78b	6.395452
9	0x40985f67	4.761646
10	0x40b19907	5.54993
11	0x4081dd0a	4.0582323
12	0x40b526cf	5.6609874
13	0x40c0fbf2	6.030755
14	0x40c726b7	6.223476
15	0x40c3e63c	6.121855

bias f4 [16]
0	0xbf3e8009	-0.74414116
1	0xbefdef3e	-0.4959659
2	0xbe8d80e3	-0.27637395
3	0xc014c852	-2.3247266
4	0xbf8a2996	-1.0793941
5	0xc04b96c4	-3.181077
6	0xbfb38a0d	-1.4026505
7	0xbf69f293	-0.91385764
8	0xc06427be	-3.5649257
9	0xbfa50410	-1.2891865
10	0xbfdeaaa3	-1.7395824
11	0xbf5e2412	-0.8677379
12	0xc02d3d11	-2.7068522
13	0xc018f955	-2.390218
14	0xc0628f9f	-3.540016
15	0xc038c5d0	-2.8870735

running_mean f4 [16]
0	0x43191686	153.08798
1	0xc32db057	-173.68883
2	0xc2f1ec0c	-120.96103
3	0xc12a802f	-10.656295
4	0xc11d9f81	-9.851441
5	0xc1539d0a	-13.22584
6	0xc1efe68e	-29.987576
7	0x42946ff4	74.21866
8	0xc1cadfe5	-25.359324
9	0x423f9b56	47.901695
10	0xc29dd53e	-78.91649
11	0x42141a30	37.025574
12	0xc2bbfea6	-93.99736
13	0xc30daba0	-141.67041
14	0xc3135998	-147.34998
15	0xc2535c54	-52.840164

running_var f4 [16]
0	0x468cfb62	18045.691
1	0x4662b47e	14509.123
2	0x46709880	15398.125
3	0x46718b63	15458.847
4	0x46946da6	18998.824
5	0x466b9e54	15079.582
6	0x4674505b	15636.089
7	0x4655eb2e	13690.795
8	0x468b84f5	17858.479
9	0x468dd269	18153.205
10	0x4680ff0a	16511.52
11	0x46816a5d	16565.182
12	0x4681d9a2	16620.816
13	0x4679ea8f	15994.64
14	0x468b8b4b	17861.646
15	0x4684ffe9	17023.955

weight f4 [64, 96]
0	0xbf984797	-1.1896847
1	0xbe9471d2	-0.28993088
2	0xbf541b05	-0.8285373
3	0xbde65e56	-0.11248462
4	0xbf5bbf52	-0.85838807
5	0xbf852699	-1.0402404
6	0x3f717995	0.94326144
7	0x3f9e16c3	1.2350696
8	0xbfc0bfc7	-1.5058526
9	0xbd7684a6	-0.060185097
10	0x3f85a579	1.0441123
11	0x3f520b71	0.8204871
12	0xbe119cdf	-0.14219998
13	0xbff32946	-1.8996971
14	0x3e91b8c6	0.28461283
15	0xbf8b5f98	-1.0888548
16	0x3ef45c70	0.47726774
17	0x3e4f978d	0.20272656
18	0xbed885a9	-0.42289475
19	0xbe879b1b	-0.26485524
20	0xc022c9a4	-2.5435572
21	0xc00c4303	-2.19159
22	0xbeb2f7a1	-0.3495455
23	0xbfda7ad6	-1.7068737
24	0xc01d926b	-2.4620616
25	0xc020ca64	-2.512353
26	0xbfc7a8ab	-1.5598348
27	0x3f672908	0.90296984
28	0x3f954c80	1.1663971
29	0x3f4f4b92	0.80974686
30	0x3fcff97b	1.624801
31	0x3fcb31fc	1.5874629
32	0x3e880131	0.2656341
33	0xbd8a9c8d	-0.06768141
34	0xbf1ade52	-0.60495484
35	0x3f252597	0.6451048
36	0xbf807b55	-1.0037638
37	0xbfe2fd50	-1.7733555
38	0xbe9e0cf7	-0.30869266
39	0x40197ba0	2.3981705
40	0xbf38ea2c	-0.7223232
41	0xbf954f29	-1.1664783
42	0xbfec80bf	-1.847679
43	0x3faf60c4	1.3701406
44	0x3dcc8b50	0.09987509
45	0x3e9226c3	0.28545198
46	0xbf62a8be	-0.8853873
47	0x3f464819	0.7745376
48	0x3f106aed	0.56413156
49	0x3f0b1781	0.5433274
50	0xbe193ce8	-0.1496464
51	0xbf8d3644	-1.1032186
52	0xc0106f5e	-2.2567973
53	0xc001e95a	-2.0298676
54	0xbf4cee36	-0.8005098
55	0xbdce0d3c	-0.10061118
56	0xbf80ed78	-1.007247
57	0xc04d61ee	-3.2091022
58	0xbfcf3a0c	-1.618959
59	0xbea499e7	-0.32148668
60	0xbef1b624	-0.47209275
61	0x40053003	2.0810554
62	0xbf033872	-0.51258004
63	0xbfa7b673	-1.3102554
64	0xc04f2aea	-3.2369943
65	0xbf227b37	-0.6346926
66	0xbeb604b6	-0.3555047
67	0xbf85d30b	-1.045503
68	0xc0126bf9	-2.2878401
69	0x3e99fd10	0.30075884
70	0x3fa32a56	1.2747295
71	0x3e091370	0.13386321
72	0x3f928dba	1.1449502
73	0xbfdbccc2	-1.7171862
74	0xbe35a121	-0.17737247
75	0x3dc1d6cf	0.094647996
76	0xc0030574	-2.0472078
77	0x403a8c04	2.9147959
78	0xbfcd6dc1	-1.6049119
79	0x3f88fd10	1.0702229
80	0xbfe67d69	-1.8007022
81	0xbff6cc43	-1.9281086
82	0xbf559bbb	-0.8344075
83	0xbfda6f60	-1.7065239
84	0x3fb9682a	1.4484913
85	0xbf4990a8	-0.7873635
86	0x400e6751	2.225056
87	0x3ecc32c1	0.39882472
88	0xbecf5b07	-0.40499136
89	0xbeee952b	-0.4659818
90	0xbedbe17e	-0.42945474
91	0x3e33bb28	0.17551863
92	0xbf41e5fb	-0.7574155
93	0x4003afb2	2.0575986
94	0x3e2d3376	0.16914162
95	0x3ddd65ee	0.10810457
96	0xc00c0b1c	-2.188178
97	0xbf966676	-1.1750019
98	0x3dc9e842	0.09858753
99	0x3f20d3b1	0.62823015
100	0x3f8bea0b	1.0930799
101	0xc0858992	-4.1730433
102	0x3fcd6339	1.6045905
103	0xc02b98ff	-2.6812131
104	0xbfb02b57	-1.3763226
105	0xbf69815a	-0.91213
106	0xbf31c237	-0.69436973
107	0xbea6c074	-0.32568705
108	0x3f7df57c	0.99202704
109	0xbeeb74d3	-0.45987567
110	0x3f937d82	1.1522677
111	0xbff25118	-1.8930998
112	0xbf191f37	-0.59813255
113	0xbf44d18d	-0.7688225
114	0xbf96c749	-1.1779567
115	0xc0405524	-3.0051966
116	0xbfe423d8	-1.7823439
117	0x3e8697fa	0.26287824
118	0xbf3df731	-0.7420531
119	0xc02cd112	-2.7002606
120	0x3fdcbf90	1.724596
121	0xc0482774	-3.127408
122	0x3fc1a266	1.5127685
123	0x3ecd305f	0.40075967
124	0x3f9ae0e4	1.2099881
125	0xbf73d7dd	-0.95251256
126	0xbf79a86d	-0.9752262
127	0x3e0e37ce	0.13888475
128	0xbfdd2d43	-1.7279438
129	0xbf14e771	-0.5816565
130	0xbf241cb8	-0.6410632
131	0xbfcca725	-1.5988508
132	0x3efdc778	0.49566245
133	0xbfa2e840	-1.2727127
134	0xc05ce963	-3.4517448
135	0xbf768bb9	-0.9630695
136	0xbfc31ab7	-1.5242528
137	0xbff2d239	-1.8970405
138	0x3f8bf7a1	1.0934945
139	0xbf1692d9	-0.5881782
140	0xbe74a68f	-0.23891662
141	0xbfb7cbe2	-1.4359095
142	0x3f943d9a	1.1581299
143	0x3fdacd7d	1.709396
144	0x3e102b60	0.14079046
145	0xc009fa22	-2.155892
146	0x3fec8444	1.8477864
147	0xbf3d4963	-0.73940104
148	0x3f4a5afc	0.7904508
149	0xbf291755	-0.66051227
150	0xbfb256ff	-1.3932799
151	0x3ff647a0	1.9240608
152	0xbf0a375a	-0.5399071
153	0x3f1b2dca	0.60616744
154	0xbeef397b	-0.46723542
155	0xbe680544	-0.22658259
156	0xbd93c9cf	-0.07216226
157	0xbf2ddfe1	-0.6791974
158	0xbe9ae2ae	-0.30251068
159	0xbf597bda	-0.8495461
160	0xbed4bb42	-0.41549116
161	0xbf748b89	-0.95525414
162	0x3f5fa635	0.87362987
163	0xbf58331c	-0.84452987
164	0xbf9a6eba	-1.2065041
165	0xbf9f0ec8	-1.2426386
166	0x3f9d0bc3	1.2269214
167	0x3ff4d99d	1.912891
168	0xc00ebc55	-2.2302449
169	0xbc32d221	-0.010914356
170	0x3f5e6c11	0.86883646
171	0x3f8973c9	1.073846
172	0xbdb1d665	-0.08683471
173	0x3fdd5651	1.7291967
174	0xc00a441b	-2.1604068
175	0x3e0e7402	0.13911441
176	0xbde81947	-0.11332946
177	0xc040ada2	-3.0105977
178	0xbe878634	-0.26469576
179	0x3f3e3cdb	0.7431161
180	0x3f4b71ba	0.7947041
181	0xbf9de14c	-1.233438
182	0x3d83fbbb	0.06444498
183	0xbf3e495e	-0.743307
184	0xbf4e3695	-0.80552036
185	0xbf2d79b2	-0.6776382
186	0xc045fb44	-3.093461
187	0x3fabc0e8	1.3418245
188	0x3f60abb3	0.8776199
189	0xc0174752	-2.363728
190	0xc0699de7	-3.6502626
191	0x3f3696e2	0.7132398
192	0x3fef4931	1.8694211
193	0xc01b1f71	-2.423794
194	0xc0044f39	-2.0673354
195	0xbfa0cf60	-1.2563286
196	0xbf9486f9	-1.160369
197	0xbf14cba8	-0.58123255
198	0xbe6e5366	-0.23274001
199	0x4055cb15	3.3405201
200	0x3e5af92c	0.21384114
201	0x3e239c0c	0.15977496
202	0x3fa5eb99	1.2962524
203	0xc05f196b	-3.4859264
204	0xbe8e3f67	-0.27782747
205	0x3d0ef433	0.034900855
206	0x400eb502	2.2297978
207	0xbc2ad0ad	-0.010425729
208	0xbf624768	-0.8839021
209	0xc0042693	-2.0648544
210	0xbef7622b	-0.48317084
211	0xbf750940	-0.9571724
212	0xbf9f18a3	-1.2429394
213	0x3e3e025d	0.18555589
214	0xbfa4fd3a	-1.2889779
215	0xbf3489c1	-0.70522696
216	0xbf3a5592	-0.7278682
217	0x3f9a426b	1.2051519
218	0xbea4b62a	-0.3217023
219	0x3f9bfb5b	1.2186083
220	0xc00354a4	-2.052041
221	0x3eb091a0	0.34486103
222	0xbebdbdb9	-0.3705881
223	0x3fd21408	1.6412363
224	0x3d835f14	0.06414619
225	0xbf739170	-0.95143795
226	0xbf79d0fe	-0.9758452
227	0xbf727960	-0.94716454
228	0xbf25de4d	-0.6479233
229	0xbef62b17	-0.4807975
230	0xbef6df77	-0.48217365
231	0x3f3476a6	0.70493543
232	0xbfef2ab4	-1.8684907
233	0xbf681ce0	-0.9066906
234	0x3f534c05	0.8253787
235	0xbf99b2d7	-1.2007703
236	0xbf4cac16	-0.7995008
237	0x3f0e5ef3	0.5561363
238	0x3f52daca	0.82365096
239	0xbf84e608	-1.03827
240	0x3f8964bf	1.073387
241	0xc0acfb99	-5.4057126
242	0xbf93ed01	-1.1556703
243	0xbfdb02ca	-1.7110226
244	0x3fc12283	1.5088657
245	0x3fc8ab38	1.5677252
246	0x3ec76890	0.38946962
247	0xbf8257b6	-1.0183017
248	0xbf8fe3d2	-1.12414
249	0x3f33456c	0.70027804
250	0xbe96124e	-0.2931084
251	0x3e792def	0.24333929
252	0xc03f4dc8	-2.9891224
253	0xbf192c1c	-0.5983293
254	0xbf6d307c	-0.92652106
255	0x3e0784cb	0.1323425

bias f4 [64]
0	0x3f8c863a	1.0978463
1	0xbf37149c	-0.7151582
2	0x3f8513f2	1.0396712
3	0xbf01f581	-0.50765234
4	0xbf6ab20f	-0.91677946
5	0x3f2883a8	0.6582589
6	0xbf369d04	-0.71333337
7	0xbf55ec50	-0.8356371
8	0xbd8c5280	-0.06851673
9	0xbef57261	-0.47938827
10	0xbf2f96ea	-0.6858965
11	0xbf38839c	-0.7207582
12	0xbf8fc189	-1.1230937
13	0xbf836005	-1.0263678
14	0x3f860c0d	1.0472428
15	0x3f363cc0	0.7118645
16	0x3f593af3	0.84855574
17	0xbf1fa919	-0.623674
18	0x3e87d002	0.26525885
19	0xbf23b160	-0.6394253
20	0x3fd8f9e1	1.6951257
21	0xbf79866e	-0.9747075
22	0xbea10149	-0.31446293
23	0x4015ef6a	2.3427377
24	0x3f07b6fe	0.530136
25	0x3f96c6da	1.1779435
26	0xbeb8e979	-0.36115626
27	0xbf2743c7	-0.65337795
28	0xbf1614aa	-0.5862528
29	0xbeef387a	-0.46722776
30	0x3f0f7c8b	0.5604941
31	0xbe97b17d	-0.296276
32	0xbf8bf8c7	-1.0935296
33	0xbef80df8	-0.48448157
34	0xbf16075a	-0.5860497
35	0xbec01882	-0.37518698
36	0xbf62d01e	-0.8859881
37	0x3f9b2686	1.2121131
38	0xbe8656f7	-0.26238224
39	0xbfa53d2b	-1.2909292
40	0x40040bbd	2.0632164
41	0xbf17e1ec	-0.59329104
42	0xbf2254db	-0.6341073
43	0xbf5a42a8	-0.8525796
44	0xbf018d37	-0.506061
45	0x3f96db3a	1.1785653
46	0xbecc33e1	-0.3988333
47	0xbf0b190c	-0.54335093
48	0xbe8671a7	-0.26258585
49	0xbef855ff	-0.4850311
50	0xbeee2cfd	-0.46518698
51	0x40367f16	2.8515067
52	0xbef04809	-0.46929958
53	0xbf72611c	-0.9467943
54	0xbf786444	-0.97027993
55	0xbfa3530a	-1.2759717
56	0x3f9321f8	1.1494741
57	0xbf5b6a88	-0.8570943
58	0x40608efb	3.5087268
59	0xbebe9c73	-0.37228736
60	0xbef9984d	-0.4874901
61	0x3fb90714	1.4455285
62	0x3ddf84d4	0.10914007
63	0x3f8438db	1.0329851

weight f4 [1, 64]
0	0x3fccc8d6	1.599879
1	0xc07697ea	-3.853022
2	0x3fd441a5	1.6582533
3	0xc09bbb99	-4.86665
4	0xc010e41f	-2.2639234
5	0x405f16af	3.4857595
6	0xc0558b8d	-3.3366425
7	0xc0aa3341	-5.3187566
8	0xc047ad98	-3.1199703
9	0xc05c5e88	-3.4432697
10	0xc093a705	-4.614138
11	0xc0590501	-3.3909304
12	0xc0344fa9	-2.817362
13	0xc078bb9d	-3.886451
14	0x3fb026cf	1.3761843
15	0x402b8ac3	2.6803443
16	0x3fa8830e	1.3164995
17	0xc037f9f3	-2.8746307
18	0x4076d731	3.8568842
19	0xc095fc08	-4.6870155
20	0x3fcda0f1	1.606474
21	0xc0664fbe	-3.598617
22	0xc032a4d9	-2.7913115
23	0x3f9bda79	1.2176048
24	0xc01e0a28	-2.46937
25	0x3ff0a3a0	1.8799934
26	0xc06253d3	-3.5363662
27	0xc02d1d85	-2.7049267
28	0xc02596ac	-2.5873213
29	0xc0613157	-3.5186365
30	0x400040d0	2.0039558
31	0xc0335811	-2.8022501
32	0xc06ae0ad	-3.6699631
33	0xc08ddfb2	-4.4335566
34	0xc0433396	-3.0500236
35	0xc09b1d9e	-4.8473654
36	0xc05019ed	-3.2515824
37	0x3fc4ab00	1.5364685
38	0xc01241eb	-2.2852733
39	0xc08c05f2	-4.3757257
40	0x3fc15bfe	1.5106199
41	0xc0880cf8	-4.251583
42	0xc09f77da	-4.9833803
43	0xc0617e9a	-3.5233521
44	0xc087e6e2	-4.246934
45	0x3f902626	1.1261642
46	0xc08661f6	-4.199458
47	0xc037fe43	-2.874894
48	0xc00f9119	-2.243231
49	0xc049033a	-3.140822
50	0xc0ad8ab7	-5.423183
51	0x3fa23c99	1.2674743
52	0xc000792c	-2.0073957
53	0xc08beaef	-4.3724284
54	0xc037b40f	-2.870365
55	0xc02f05cd	-2.734729
56	0x3f98343e	1.1890943
57	0xc090149e	-4.5025167
58	0x3fbf7386	1.495713
59	0xc05dc9db	-3.4654453
60	0xc00b2415	-2.1740773
61	0x3f90ee7f	1.1322783
62	0xc0321ec7	-2.7831285
63	0x3fcfab8e	1.6224229

weight f4 [64, 96]
0	0xbe8cc906	-0.2749712
1	0xbe5ba55a	-0.21449795
2	0xbd101d6e	-0.035184316
3	0xbf9c48fc	-1.2209773
4	0xbf8bbb65	-1.0916563
5	0xbe4d8ffd	-0.20074458
6	0x3f38ef20	0.72239876
7	0xc03138e3	-2.769097
8	0xbf6421df	-0.89114183
9	0xbf396ad7	-0.7242865
10	0x3fa611a8	1.2974138
11	0xbf802504	-1.0011296
12	0x3f571654	0.84018445
13	0xc008de52	-2.1385694
14	0xbf7ebd00	-0.9950714
15	0x3de0673c	0.109571904
16	0xbfc784ef	-1.5587443
17	0xbf4e27d2	-0.8052951
18	0xc0203d59	-2.5037444
19	0xbd52ce25	-0.051466126
20	0xbf5cf704	-0.86314416
21	0x3ff62760	1.9230766
22	0x3fa3fac3	1.2810901
23	0xbffb27fa	-1.9621575
24	0xbf41e7d8	-0.7574439
25	0x3ff72358	1.9307661
26	0xbfdb8583	-1.715012
27	0x3f9b355e	1.2125661
28	0x3eec4d52	0.4615274
29	0xbf695c53	-0.911565
30	0x3f9a95a5	1.2076918
31	0xbfa42aba	-1.2825539
32	0xbf895432	-1.0728819
33	0xc04fba46	-3.2457442
34	0xbe626a5c	-0.22110885
35	0x3fd0a80c	1.6301284
36	0x3f02e6be	0.51133335
37	0xbf86c84c	-1.0529876
38	0xbf85fcc8	-1.0467768
39	0x3f24eb2a	0.6442133
40	0xc005c6e4	-2.0902643
41	0xbf09552b	-0.5364558
42	0xbf97cb03	-1.1858829
43	0xbf586c45	-0.84540206
44	0xbfae889d	-1.3635441
45	0x3f103d61	0.56343657
46	0xbfcf8437	-1.6212224
47	0xc025df75	-2.5917637
48	0xbecd3628	-0.4008038
49	0xbea2c335	-0.31789556
50	0xbfd480d3	-1.6601814
51	0x3ea0a170	0.31373167
52	0xbf9b7e49	-1.2147914
53	0xbf1dca65	-0.61636955
54	0xbf4a92bb	-0.7913014
55	0xbfdd59af	-1.7292994
56	0xbf35f254	-0.7107289
57	0x3f8b3708	1.0876169
58	0xc0369846	-2.853044
59	0xbf1f366e	-0.6219243
60	0xbfb1323f	-1.3843459
61	0x3f64ab90	0.89324284
62	0xbf034f76	-0.5129312
63	0xc023c3ce	-2.558826
64	0xc00a3a93	-2.159825
65	0x3f930b18	1.148776
66	0xbf1eed16	-0.62080514
67	0x3eb52dc7	0.35386488
68	0x403eebf5	2.9831517
69	0x3f662374	0.8989785
70	0x3fd96607	1.6984261
71	0xbf015958	-0.5052695
72	0x3d2a3fb1	0.041564647
73	0x3e29f12f	0.1659591
74	0xbfd6de50	-1.6786594
75	0x3fd93637	1.696967
76	0xc0017d76	-2.0232825
77	0x40339325	2.805856
78	0x3e8ae497	0.27127525
79	0xbf8109ab	-1.0081075
80	0xbfd341b2	-1.6504424
81	0xbf10b599	-0.56527096
82	0xbfe1a5b1	-1.762869
83	0x3e7aa2d9	0.24476184
84	0xbf8cc4f5	-1.0997607
85	0xc017eb2e	-2.3737292
86	0xbf0d51b4	-0.55202794
87	0x3ec9d1c7	0.3941786
88	0x3ec28835	0.37994543
89	0x3ff85638	1.9401312
90	0xbf2c9954	-0.6742146
91	0xbdc1a7e3	-0.0945585
92	0xc03ba4f5	-2.9319432
93	0xbf8620fa	-1.0478814
94	0xbf5c7f09	-0.8613134
95	0x3f361241	0.71121603
96	0x3e916f41	0.28405192
97	0x3f0754d0	0.5286379
98	0xbfa9ba9e	-1.3260076
99	0xbf923555	-1.1422526
100	0xbf9d3236	-1.2280948
101	0x3f318b25	0.6935294
102	0xbf536bb7	-0.82586235
103	0xbe2abd54	-0.16673785
104	0xbff05f08	-1.8779001
105	0xbdbaf71c	-0.091291636
106	0x3f827b9f	1.0193976
107	0xbec5a028	-0.38598752
108	0xbf2d8a5a	-0.6778923
109	0xbed8b616	-0.4232642
110	0x3e806053	0.2507349
111	0xbe402633	-0.18764572
112	0xc02654b1	-2.5989192
113	0xc0076f61	-2.116173
114	0xbf79a474	-0.9751656
115	0x3fb5d6c9	1.4206172
116	0xbf93736c	-1.1519599
117	0x3fa6683b	1.3000559
118	0xbf910b0f	-1.13315
119	0x3f218f71	0.631095
120	0x3f261687	0.64878124
121	0xbed7453a	-0.42045003
122	0xbfcc86d2	-1.5978644
123	0x3ecd8933	0.40143737
124	0xbf43eee5	-0.765364
125	0x3f6348b6	0.88782823
126	0x3fc29765	1.5202452
127	0xc0431bb2	-3.0485654
128	0xbe16b16d	-0.1471612
129	0xbf339bff	-0.70159906
130	0xbf96b6cf	-1.1774539
131	0xbfd0c521	-1.6310159
132	0xbf8144a6	-1.0099075
133	0xbf8556f2	-1.0417159
134	0xbf6648a9	-0.8995462
135	0xbe943015	-0.28942934
136	0xbe051beb	-0.12998931
137	0xbe470954	-0.19437152
138	0xbf96376d	-1.1735665
139	0x3fc742e5	1.556729
140	0xc0442b1f	-3.065132
141	0x3da236df	0.07920622
142	0xbf6f8870	-0.9356756
143	0xbf060fa4	-0.52367616
144	0xbeb6b348	-0.35683656
145	0x3fce593f	1.6120986
146	0xbede9bf1	-0.4347835
147	0x3f02abe0	0.5104351
148	0xc0120e82	-2.2821355
149	0xbeddbb2d	-0.43306866
150	0xbe2b8f54	-0.16753894
151	0xbfe9e1d1	-1.8272039
152	0xbfd1ed4e	-1.6400545
153	0xbde0875a	-0.10963316
154	0x3eca2863	0.39483938
155	0xc020487d	-2.5044243
156	0x3eaa005b	0.33203396
157	0x3ff3cf0c	1.9047561
158	0xbf20d27d	-0.6282118
159	0x3f2ee8f5	0.68324214
160	0x3f869a1b	1.0515779
161	0x3cbeccc5	0.023291001
162	0xbe84a73c	-0.2590884
163	0x3f3db164	0.740988
164	0xbfb8ae73	-1.4428238
165	0xc01ba4cb	-2.4319332
166	0x3fc52bfa	1.5404046
167	0xbf77deb1	-0.96824175
168	0xbebdcad6	-0.37068814
169	0xbe8188a2	-0.25299555
170	0xbf857500	-1.042633
171	0x3e7f97ac	0.24960202
172	0x3fa34dfd	1.2758175
173	0xbf912fc4	-1.1342702
174	0x3fb0adb7	1.3803014
175	0x3e155d1a	0.14586297
176	0xbfdfb4d4	-1.7477059
177	0x4022f88c	2.54642
178	0x402f765e	2.7415996
179	0x3e9404d7	0.28909943
180	0x401e5304	2.4738169
181	0x3e167a7b	0.1469516
182	0xbfaf2c3d	-1.3685375
183	0xbf5d7363	-0.8650419
184	0xbec5a98c	-0.38605917
185	0x4079a8fa	3.9009385
186	0xbfb2be37	-1.3964299
187	0xbfdf2fc0	-1.7436447
188	0xc0301629	-2.7513525
189	0x3fa489d0	1.2854557
190	0xbfb555fc	-1.4166865
191	0x3fd9906e	1.6997201
192	0xbf88c1f5	-1.0684191
193	0x3eff760f	0.4989476
194	0xbf3609ee	-0.711089
195	0x3ee6f19a	0.45106202
196	0xbfebbf67	-1.8417786
197	0x3fd4c9f4	1.6624131
198	0x4020463a	2.5042863
199	0xbf342a70	-0.70377254
200	0xbf69bd2e	-0.9130429
201	0xbfc2ec0b	-1.5228285
202	0xbf4b17a7	-0.79332966
203	0xbfd7f94e	-1.6872957
204	0x4005e45e	2.0920634
205	0x3f4550d4	0.7707646
206	0xc00e70d0	-2.2256355
207	0x3f8a8852	1.0822852
208	0xbf4d7450	-0.80255604
209	0xbff643de	-1.9239461
210	0xbf8d4cf3	-1.1039108
211	0x3f6fca83	0.93668383
212	0xbfde04a3	-1.7345165
213	0xc0238974	-2.5552645
214	0x3f30b52d	0.6902645
215	0xbfb38274	-1.4024186
216	0xbfc1cc55	-1.5140482
217	0xc0165f53	-2.3495681
218	0x3e9e4bf9	0.30917338
219	0xbf24ed95	-0.6442502
220	0xbefa83d9	-0.48928717
221	0xc0001c52	-2.0017285
222	0x3fd83218	1.6890287
223	0xbfe341c8	-1.775445
224	0xc03cf2fe	-2.952331
225	0x3ec9f960	0.3944807
226	0xbfea41f9	-1.8301383
227	0xc0312292	-2.767735
228	0x3ef9ef51	0.48815396
229	0xbf29a239	-0.6626316
230	0xbf827428	-1.0191698
231	0xbfd3115e	-1.6489675
232	0x3f1e61c9	0.6186796
233	0xbe322601	-0.1739731
234	0x3f4f7c55	0.8104909
235	0xbf86f3c0	-1.0543137
236	0x3df22fc5	0.118255176
237	0xbf9acea1	-1.2094308
238	0x3f8d5db6	1.1044223
239	0xbed1e650	-0.40996027
240	0xc0654989	-3.5826132
241	0xbf7c00ca	-0.98438704
242	0xbfdfdf7b	-1.7490076
243	0x400fb013	2.2451217
244	0xbff645f7	-1.9240102
245	0xbf359d82	-0.7094346
246	0xbf8aca52	-1.0842993
247	0x3f633024	0.8874533
248	0xbf48a3e5	-0.78375083
249	0x3f71a848	0.943974
250	0xbfcaa77c	-1.5832362
251	0xbfd61d08	-1.672761
252	0xbfa76c16	-1.307986
253	0x3fc4c0e2	1.5371363
254	0x3fa5ff01	1.2968446
255	0x3f2413bf	0.6409263

bias f4 [64]
0	0xbd93fa2d	-0.072254516
1	0xbe20451a	-0.1565136
2	0xbe284f28	-0.16436446
3	0xbc54c36a	-0.0129860435
4	0x3f0b4bac	0.5441234
5	0x3e18a280	0.14905739
6	0x3c922201	0.01783848
7	0x3e8d25b0	0.27567816
8	0xbe0ec7b4	-0.13943368
9	0xbe249b6a	-0.16074911
10	0x3e0c15a0	0.13680124
11	0xbe22c7ac	-0.15896481
12	0x3e5e28e6	0.21695289
13	0x3ed5ebce	0.41781467
14	0x3e92b7bc	0.28655803
15	0x3d860884	0.06544593
16	0x3e6dc3b5	0.23219188
17	0x3f928a6b	1.1448492
18	0xbd86f4f2	-0.06589688
19	0xbe6e9e55	-0.23302586
20	0x3dd68813	0.10475173
21	0x3eab6cda	0.33481485
22	0x3e33ebde	0.17570445
23	0x3e393240	0.18085575
24	0xbd1d9ff8	-0.038482636
25	0x3fe42645	1.7824179
26	0xbea4cbcd	-0.32186738
27	0x3e316d10	0.1732676
28	0x3e7f7ad2	0.24949196
29	0x3da80fc1	0.0820613
30	0xbe2400d5	-0.16015942
31	0x3ec466b5	0.3835961
32	0x3f47c578	0.7803569
33	0x3e2cd97b	0.16879837
34	0xbe144580	-0.14479637
35	0x3e202363	0.15638499
36	0x3d712126	0.058869503
37	0x3dbaa70d	0.09113894
38	0x3e97c439	0.29641894
39	0xbe058ee1	-0.13042785
40	0x3de4d7ec	0.11173996
41	0x3f0ca3e5	0.54937583
42	0xbdb932ab	-0.09042867
43	0x3f657a5b	0.89639825
44	0x3de2e7d0	0.11079371
45	0x3d9855d0	0.074382424
46	0xbcfe37c0	-0.031032443
47	0x3c47e088	0.0121995285
48	0xbe4ec1d0	-0.20191121
49	0x3e61f839	0.22067346
50	0xbeb6b367	-0.35683748
51	0x3e38f49d	0.18062063
52	0x3e1c3ccb	0.15257566
53	0x3df37b0c	0.11888704
54	0xbe5a5d5f	-0.21324681
55	0xbaa27967	-0.00123958
56	0x3e3b0553	0.1826375
57	0x3e317bf4	0.1733244
58	0x3ed89ed8	0.42308688
59	0x3ede69f1	0.43440202
60	0x3eae92aa	0.3409627
61	0x3bb03644	0.0053775627
62	0x3ecc4d37	0.3990266
63	0xbef0f332	-0.47060543

weight f4 [128, 64]
0	0x3e997f09	0.29979733
1	0x3f0afbd5	0.54290515
2	0x3f51ab5e	0.8190211
3	0x3dfa8211	0.122318394
4	0x3f03419d	0.5127199
5	0xbf62716a	-0.88454306
6	0xbf59c385	-0.85063964
7	0x3e1feca1	0.1561761
8	0xbf1303e6	-0.57427824
9	0x3d1c1ca2	0.038113244
10	0xbf1e137c	-0.6174848
11	0x3f1658e7	0.58729404
12	0xbe84881d	-0.25885096
13	0xbe85d6fd	-0.26140586
14	0xbfac8384	-1.3477635
15	0x3e62f6cf	0.22164463
16	0x3f2ca11f	0.6743335
17	0x3e1ed82a	0.15512148
18	0xbeb62445	-0.35574546
19	0xbf5b1e1a	-0.85592806
20	0x3e118d3e	0.14214036
21	0x3f4e59b8	0.8060565
22	0x3f5a7010	0.85327244
23	0xbde6bda8	-0.11266643
24	0x3f5e214f	0.86769575
25	0x3e2149bd	0.15750785
26	0x3f9560e6	1.1670196
27	0xbf707844	-0.9393351
28	0xbe9e5a1c	-0.30928123
29	0xbf0ddf4f	-0.55418867
30	0xbec603df	-0.38674828
31	0x3ee311ec	0.4434961
32	0xbf55cf46	-0.835194
33	0xbe2310c4	-0.15924364
34	0x3f34c26a	0.7060915
35	0xbf730b22	-0.9493886
36	0xbf1041ea	-0.56350577
37	0xbee7fc9c	-0.45309913
38	0xbd807ef4	-0.062742144
39	0x3f09cf87	0.53832287
40	0xbf58ce5b	-0.84689873
41	0xbed03a82	-0.40669638
42	0x3d4d47f3	0.050117444
43	0x3f396e69	0.724341
44	0x3db9bcfb	0.09069248
45	0xbe52acea	-0.20573774
46	0xbe4a9fab	-0.19787471
47	0x3d8493ee	0.06473528
48	0x3e8fbfab	0.2807592
49	0x3f791eb4	0.97312474
50	0x3e6c3580	0.23067284
51	0xbebfb894	-0.3744551
52	0x3f376f7e	0.716545
53	0x3f395a7b	0.7240369
54	0xbee2ea34	-0.44319308
55	0xbf477a39	-0.7792087
56	0xbe0d8c86	-0.13823137
57	0xbe305d86	-0.17223176
58	0x3e824a07	0.25447103
59	0xbe2635dc	-0.16231483
60	0x3e289f71	0.16467072
61	0x3ed74078	0.42041373
62	0x3f59278a	0.84825957
63	0xbee2550a	-0.44205505
64	0x3ecacdf5	0.39610258
65	0xbd960a58	-0.07326192
66	0x3f0c2e6d	0.5475834
67	0x3f629c35	0.88519603
68	0x3f6311c3	0.8869898
69	0x3e1115da	0.14168492
70	0x3e55a624	0.20864159
71	0x3edaef13	0.42760524
72	0x3f783943	0.96962374
73	0x3ea41805	0.32049575
74	0xbecee72a	-0.4041074
75	0x3ea4210c	0.32056463
76	0xbe9b0836	-0.30279702
77	0x3e28e321	0.16492893
78	0x3ee250de	0.44202322
79	0x3f28868b	0.65830296
80	0x3d916706	0.07099728
81	0xbd8c5d2c	-0.068537086
82	0xbee7b438	-0.45254683
83	0x3d23602b	0.039886635
84	0x3f33081c	0.6993425
85	0xbb048e71	-0.0020226503
86	0x3e0f6b4c	0.14005774
87	0xbe80669a	-0.2507828
88	0xbeafef73	-0.34362373
89	0x3e6e8ab9	0.23295106
90	0x3e6bb5cb	0.23018567
91	0x3e252d40	0.16130543
92	0xbdcc3a38	-0.09972042
93	0x3f4062a4	0.75150514
94	0x3f724b6c	0.94646335
95	0x3d30978a	0.04311327
96	0xbe2ac17e	-0.16675374
97	0x3c89c06d	0.016815389
98	0x3ef84472	0.4848972
99	0x3f08e000	0.53466797
100	0x3fb4accd	1.4115235
101	0xbd5f98dd	-0.05458914
102	0x3dc632d0	0.096776605
103	0x3ef8b216	0.4857337
104	0x3e816935	0.2527558
105	0x3ecb8438	0.39749312
106	0xbf089e69	-0.53366715
107	0xbfec6371	-1.8467847
108	0xbf2fcf42	-0.68675625
109	0x3f3797d8	0.7171607
110	0x3f06232c	0.5239742
111	0x3e36d895	0.17856057
112	0x3ea28ed6	0.317496
113	0xbea2ea72	-0.31819493
114	0xbf89584d	-1.0730072
115	0xbf1a7195	-0.6032956
116	0xbf3ddbd3	-0.7416355
117	0xbe9ec50a	-0.31009704
118	0x3e4699ae	0.19394562
119	0xbf3c5501	-0.73567206
120	0x3f0c8dbd	0.54903775
121	0xbef7fd56	-0.48435467
122	0xbfb533b2	-1.4156401
123	0xbe2a2674	-0.16616231
124	0xbe5b9090	-0.21441865
125	0xbecfcf1f	-0.40587708
126	0xbdb6d387	-0.089270644
127	0xbfa92a2a	-1.3215992
128	0xbf1ba0bf	-0.60792154
129	0xbf2187f3	-0.6309807
130	0xbef242f3	-0.47316703
131	0xbe842d4d	-0.25815812
132	0x3f9c55a5	1.2213637
133	0x3ed60dfd	0.41807547
134	0x3f59357d	0.8484724
135	0xbef694c7	-0.48160383
136	0x3e8da011	0.27661183
137	0xbb482e99	-0.0030545352
138	0xbec84c05	-0.39120498
139	0xbe6812b7	-0.22663389
140	0x3f0159bc	0.5052755
141	0xbdf88a15	-0.12135712
142	0x3f40d2e2	0.7532178
143	0xbe3995d1	-0.18123557
144	0xbe2f0256	-0.17090735
145	0x3e21e91d	0.15811582
146	0xbdbad4dc	-0.09122631
147	0xbf2b32ea	-0.66874564
148	0x3efd37b6	0.49456567
149	0xbf87cd4f	-1.060953
150	0x3e8d34bb	0.27579293
151	0xbf84c04d	-1.0371186
152	0x3ec9b626	0.3939678
153	0xbe3f898a	-0.1870481
154	0x3fb01081	1.3755037
155	0xbf2c6556	-0.67342126
156	0xbd86c414	-0.06580368
157	0x3e3410c7	0.17584525
158	0xbd624ecc	-0.055250928
159	0x3e4d2989	0.20035376
160	0x3edcf66f	0.43156764
161	0x3d927729	0.07151634
162	0x3dddd044	0.10830739
163	0x3dee6d86	0.11641984
164	0xbe9d5330	-0.3072753
165	0xbf9c1a4d	-1.2195526
166	0x3f511f51	0.8168841
167	0x3f1e5430	0.6184721
168	0xbeb35a76	-0.35029954
169	0x3f0fc88e	0.561654
170	0x3eb6da97	0.35713646
171	0x3ead9c19	0.33908156
172	0xbf29db49	-0.6635023
173	0xbf14ed17	-0.5817427
174	0xbf08fc4f	-0.5350999
175	0xbef9d699	-0.48796538
176	0x3f1be5cf	0.60897535
177	0x3f0226b6	0.5084032
178	0x3e5cf451	0.21577574
179	0xbe6aaca6	-0.22917423
180	0x3f3848e0	0.719862
181	0x3e4e06b5	0.20119746
182	0xbf0b8a56	-0.5450796
183	0xbe5d10d7	-0.21588455
184	0xbf2ef165	-0.6833709
185	0xbf508224	-0.8144858
186	0x3cd155d7	0.025553627
187	0xbe918950	-0.28425074
188	0x3dbcce56	0.09219043
189	0x3ef93e05	0.4868013
190	0x3f96e4de	1.1788595
191	0xbe98592f	-0.29755542
192	0x3e57191b	0.2100567
193	0x3f7ea901	0.9947663
194	0xbf240396	-0.6406797
195	0x3e941e6f	0.2892947
196	0x3ea9d608	0.33171105
197	0xbf8d3027	-1.103032
198	0xbedbaaff	-0.42903897
199	0x3f79d740	0.9759407
200	0xbd075c9b	-0.0330473
201	0xbdd1d602	-0.10245897
202	0xbe046d81	-0.12932397
203	0xbeb7262e	-0.35771316
204	0x3f7b62f0	0.9819784
205	0x3ecd2066	0.4006378
206	0xbe108923	-0.14114814
207	0xbe893766	-0.26800078
208	0x3f6029db	0.87563866
209	0x3f61f0c5	0.8825801
210	0xbf0e4e13	-0.5558788
211	0x3dab6502	0.08368875
212	0xbe61a913	-0.22037153
213	0xbefd3e86	-0.49461764
214	0xbd7d953c	-0.0619099
215	0x3eeaa800	0.458313
216	0x3e81dd9f	0.25364396
217	0xbe834cf1	-0.2564464
218	0xbe5e1f4f	-0.21691631
219	0xbef4a3ae	-0.47781128
220	0x3e6da5b0	0.23207736
221	0xbe7bc715	-0.24587663
222	0x3e0141fa	0.12622824
223	0xbe4184c1	-0.18898298
224	0xbf8f7ee5	-1.12106
225	0x3f08a305	0.5337375
226	0xbf063c47	-0.52435726
227	0x3efc6007	0.49292013
228	0xbdb54216	-0.088504955
229	0x3f314271	0.69242007
230	0x3ea57c0a	0.32321197
231	0x3e574c44	0.21025187
232	0x3d6f0401	0.058353428
233	0x3fb24ba8	1.3929338
234	0x3f06a3ae	0.52593505
235	0xbf6dccff	-0.92890924
236	0xbeefdff8	-0.46850562
237	0xbf0f9949	-0.5609327
238	0xbfb2dbea	-1.3973362
239	0x3f56c0e8	0.838881
240	0x3edf7dda	0.43650705
241	0xbefba0be	-0.49146074
242	0x3edcf1a5	0.4315311
243	0x3f37e6cc	0.71836543
244	0xbf350446	-0.70709646
245	0x3e49ddcf	0.1971352
246	0xbeba65df	-0.36405846
247	0x3cf09c71	0.029371472
248	0xbf57e032	-0.8432647
249	0xbc864b3c	-0.016393296
250	0xbdaa8f24	-0.08328083
251	0xbe3718c6	-0.17880544
252	0xbed4484b	-0.41461405
253	0xbeee145b	-0.46499905
254	0x3f3f96cb	0.74839467
255	0xbea2b4e9	-0.31778648
